B_6610165.pt (torch_old, 3768 bytes, 4 tensors)

fc1.weight f4 [50, 4]
0.3367926 -0.7833586 0.28246567 1.387577 -0.980006 0.4621275 -0.6887392 1.1660293
1.2646105 -1.4374189 0.8271543 -1.5027581 -1.0480251 1.0186892 -0.07023603 1.2438403
1.1401224 -0.6940737 1.7724822 0.09104818 -0.34725976 0.35365576 -0.4797929 1.4866918
-0.6367603 -0.42617404 -0.72259706 -0.9386642 -0.5176739 1.1510051 -1.6906332 -1.4734194
0.9299904 1.1691521 0.1627512 -0.67507476 1.1106297 -0.8641509 0.34259516 1.0762222
0.34793055 0.10443759 0.0759629 -0.8665893 0.34624016 -0.44963622 2.0482154 0.59681743
-0.8246997 0.57364756 -2.2899833 -0.4964994 -1.0912645 -0.6978246 -0.14526321 0.8521843
0.31763098 0.072079174 -0.60871977 -1.1281769 -0.045089547 1.3402376 -2.1867895 -1.3191569
-0.8765389 -0.91872716 -0.009483457 -0.061116338 -0.7516431 0.68190664 -1.6251746 -0.99352574
-0.70312375 -1.1028234 1.0666941 1.4368447 -0.4113729 0.96013826 -0.95955837 -0.91896874
0.15795113 0.8010077 1.5847245 -0.7828332 1.4322182 0.3863719 -1.1894289 0.056790046
-1.3960025 0.25033936 -0.021504868 -0.8673234 0.7645922 -0.4633505 -0.82200277 0.46734032
-0.0020875018 0.7075795 -0.81506675 -0.5110461 0.8628995 -0.1520685 1.2847786 1.7393544
0.064255685 -1.1714687 -1.2709987 0.2616564 1.196965 0.10548905 -0.55142134 0.817864
-1.7282734 0.6455565 -1.2853937 -1.3250966 -0.7931616 0.628509 0.04551473 0.567392
0.25508955 1.1140677 -2.296596 -0.8244009 -1.0898098 0.42961186 0.3674826 0.6736643
-1.2892927 0.9938749 -1.5168086 0.3063354 -1.1322485 0.11233502 -1.7142887 -1.0671525
0.59823406 0.6921036 1.3413922 0.68818295 -0.36649024 -0.32721424 0.5040397 1.219316
0.6412635 -0.3469863 0.47845882 1.250904 -1.0869359 0.40956175 0.78986627 1.236625
1.4474468 -0.5363761 -0.64999706 1.7133086 1.4298779 0.9198015 -0.865762 0.5203571
-0.4119121 1.4549412 -1.1574103 -1.4520662 1.6454618 -1.5392028 0.058866315 0.79753226
1.1142231 1.0580748 0.24482858 -0.7690635 0.667126 -1.2092109 -0.7826403 1.4611121
0.3802494 0.74106264 -0.083208494 1.3482981 0.22043006 0.24827209 1.1096684 1.0973397
-1.3060815 1.3172657 -1.9233986 -1.2583094 0.6717624 -0.23466691 0.58766925 1.2473924
0.663069 -1.0043012 0.31050494 1.1485567 0.8594722 0.59653836 0.5302437 0.7736805
00000000: 1470 ac3e 308a 48bf 579f 903e 209c b13f
00000010: ace1 7abf fa9b ec3e 3651 30bf 7340 953f
00000020: c2de a13f 58fd b7bf 62c0 533f 615a c0bf
00000030: b025 86bf 6864 823f e8d7 8fbd 2936 9f3f
00000040: 88ef 913f d0ae 31bf b2e0 e23f 7877 ba3d
00000050: 08cc b1be 5e12 b53e 6aa7 f5be eb4b be3f
00000060: b902 23bf 7c33 dabe 1ffc 38bf 4c4c 70bf
00000070: 4786 04bf 2354 933f ab66 d8bf 0299 bcbf
00000080: da13 6e3f c7a6 953f 40a8 263e b3d1 2cbf
00000090: 1d29 8e3f fe38 5dbf a268 af3e a6c1 893f
000000a0: f423 b23e 60e3 d53d 7092 9b3d ccd8 5dbf
000000b0: 6446 b13e b836 e6be f615 0340 07c9 183f
000000c0: 851f 53bf 91da 123f 168f 12c0 2b35 febe
000000d0: 8eae 8bbf a2a4 32bf e1bf 14be c028 5a3f
000000e0: 87a0 a23e 3f9e 933d 0fd5 1bbf 1a68 90bf
000000f0: d1af 38bd e88c ab3f 5cf4 0bc0 22da a8bf
00000100: da64 60bf b431 6bbf 8060 1bbc 2055 7abd
00000110: af6b 40bf 6f91 2e3f b905 d0bf b457 7ebf
00000120: ebff 33bf 5129 8dbf 6f89 883f 87ea b73f
00000130: 789f d2be 9fcb 753f 9ea5 75bf 8941 6bbf
00000140: f1bd 213e d70e 4d3f 41d8 ca3f c267 48bf
00000150: ed52 b73f 8ad2 c53e 353f 98bf ae9c 683d
00000160: 36b0 b2bf 7b2c 803e fa2a b0bc e808 5ebf
00000170: 50bc 433f 473c edbe c66e 52bf 3b47 ef3e
00000180: 78ce 08bb ee23 353f 37a8 50bf ebd3 02bf
00000190: fbe6 5c3f d8b7 1bbe a073 a43f 2aa3 de3f
000001a0: 7c98 833d b0f2 95bf 16b0 a2bf d4f7 853e
000001b0: 2636 993f a50a d83d f329 0dbf 895f 513f
000001c0: 1038 ddbf 3143 253f c887 a4bf c49c a9bf
000001d0: a30c 4bbf f7e5 203f a76d 3a3d 9a40 113f
000001e0: 199b 823e c599 8e3f 6efb 12c0 f00b 53bf
000001f0: e37e 8bbf 16f6 db3e ae26 bc3e 4375 2c3f
00000200: 8b07 a5bf 966e 7e3f c926 c2bf fed7 9c3e
00000210: 85ed 90bf e70f e63d d06d dbbf 7498 88bf
00000220: de25 193f b42d 313f bdb2 ab3f c22c 303f
00000230: 9ca4 bbbe a088 a7be bf08 013f 8c12 9c3f
00000240: d829 243f 30a8 b1be 8ef8 f43e 9f1d a03f
00000250: b720 8bbf 14b2 d13e ad34 4a3f ba49 9e3f
00000260: f045 b93f f24f 09bf 3566 26bf b24d db3f
00000270: 3d06 b73f 1c78 6b3f 94a2 5dbf 1f36 053f
00000280: 25e6 d2be 833b ba3f 0526 94bf 4edd b9bf
00000290: 7e9e d23f 9904 c5bf ce1d 713d 132b 4c3f
000002a0: dd9e 8e3f ff6e 873f 58b4 7a3e 58e1 44bf
000002b0: c5c8 2a3f 6cc7 9abf 1d5b 48bf b905 bb3f
000002c0: 0db0 c23e 48b6 3d3f 3769 aabd 0895 ac3f
000002d0: 6bb8 613e 0a3b 7e3e 9d09 8e3f a175 8c3f
000002e0: ae2d a7bf 2a9c a83f ed31 f6bf 4810 a1bf
000002f0: 9ff8 2b3f 864c 70be 7e71 163f 8eaa 9f3f
00000300: e4be 293f f18c 80bf 81fa 9e3e e803 933f
00000310: 5f06 5c3f bdb6 183f 0dbe 073f ed0f 463f

fc1.bias f4 [50]
0.3813816 0.73179644 0.457631 0.5663037 0.9234064 0.38922688 -0.45264184 -0.95105433
-0.22884583 1.3988274 0.24951816 1.652099 -1.2724863 0.30730173 0.27293298 -0.7212342
-0.30540037 -0.9944219 0.0916674 -0.9450822 0.4283462 0.11964211 -1.0117971 0.15381297
-0.15949576 0.9566997 0.5894956 0.2857614 -0.80449593 0.36478 -1.0646425 0.3648296
-0.3423761 -0.9132645 0.7472041 0.49047902 0.64130116 0.37200263 0.8780271 0.0058788504
-1.3089336 1.8829453 0.21107453 0.8021821 0.34094495 0.5619955 -1.080689 0.64878875
0.8022879 -0.14258796
00000000: 7344 c33e 0357 3b3f 9c4e ea3e 47f9 103f
00000010: 5d64 6c3f bf48 c73e acc0 e7be 4c78 73bf
00000020: 9056 6abe c70c b33f b081 7f3e fb77 d33f
00000030: d5e0 a2bf a756 9d3e dfbd 8b3e cea2 38bf
00000040: 705d 9cbe 6f92 7ebf 1ebc bb3d e8f0 71bf
00000050: 3150 db3e ec06 f53d 9182 81bf 2681 1d3e
00000060: db52 23be 46ea 743f 2fe9 163f 514f 923e
00000070: 72f3 4dbf 72c4 ba3e 3546 88bf f2ca ba3e
00000080: ec4b afbe b4cb 69bf c548 3f3f 1120 fb3e
00000090: 502c 243f 2177 be3e 62c6 603f 5fa3 c03b
000000a0: 238b a7bf 5a04 f13f ec23 583e ce5b 4d3f
000000b0: 5690 ae3e f0de 0f3f 0454 8abf 0517 263f
000000c0: bd62 4d3f 9402 12be

fc_out.weight f4 [10, 50]
0.47362065 0.16101177 -0.21924838 -0.10128193 0.12486291 0.047829535 0.27865002 -1.7454284
-0.16682728 -1.2256454 -0.30245757 -1.771996 -0.38646019 0.26344442 -0.06171879 -1.6414486
0.29503766 -0.80520856 0.6509918 -0.5404705 -0.7712893 -0.33424723 -0.90894485 -0.6044096
0.14776303 0.30170757 0.21612419 0.4303678 -0.17539823 -0.39679822 -0.6706142 -0.26833478
-0.31479707 -1.8816701 1.1236786 0.20928863 0.34245947 0.1997695 0.3320563 -0.021006325
-1.6650664 0.21580525 -0.3041081 0.87781864 -0.04511401 0.49299228 -0.16594934 0.92814267
-0.99231863 0.6799041 0.5099558 0.04132722 -0.28876 -0.11906268 -0.46870822 0.036462624
0.25650337 -1.0005134 -0.12836108 -0.65620774 -0.3048071 -0.47382364 -0.16923326 -0.13002875
0.22682968 -1.045118 -0.044930726 -0.7005026 0.6331076 -0.6812223 -0.53527147 0.06597181
-0.7379167 -0.25767422 -0.061307862 0.33009866 0.55849004 0.10851803 -0.6531376 -0.31814548
-0.933726 -0.31353205 -0.24233031 -1.2673485 0.47607574 0.26501092 0.17824067 0.23910785
0.36434233 -0.05402225 -1.4563814 -0.6470135 0.15359217 0.47187448 0.16190864 0.21324648
-0.7388774 0.68737096 0.09597118 0.21407202 0.24835274 -0.17524841 -0.45527998 0.16867332
-0.6398363 -0.14961989 0.2526349 -1.029246 0.015473783 -0.33993813 -0.2019899 -0.4385365
-0.39775297 -0.013941963 0.06961498 -0.68176275 -0.085634515 -0.84650326 0.8671306 -1.0184962
-0.850928 0.26286593 -0.6705215 -0.2865893 -0.22211568 0.5785412 0.5164542 0.11745693
-0.5664852 -0.38030088 -0.66141623 -0.4553375 -0.004345671 -0.9069309 0.66904384 -0.08682306
0.16721901 -0.16144279 0.6659986 -0.025056517 -1.1681132 -0.6919485 0.06657085 0.37477636
0.19060051 0.6112742 -0.7939631 0.26890454 -0.055325165 0.3728978 0.33320105 -0.11331334
-0.3761009 -0.31964052 -0.30440012 0.4526601 -0.29240936 -1.2048198 -0.11107279 -0.6268364
-0.1514073 -0.36699277 -0.5070922 0.21687531 -0.15267304 -1.1151786 0.21955457 -0.9320977
0.21681425 -0.75238067 -0.5513585 0.097063415 -0.6951838 0.10497132 -0.36773178 0.24789913
0.09874735 0.068817586 -1.1597195 -0.16694492 -0.81979465 -0.37155992 -0.2299232 -0.86986446
0.4024418 0.1272784 0.43143618 0.16611776 0.40187573 -0.10594059 -1.0395399 -0.31240436
0.10962513 0.41331345 0.36659306 0.27743497 -0.500021 0.48835722 -0.31877565 0.6179953
0.47830266 -0.29488978 -0.27944356 -0.001392288 -0.49585688 0.21399175 -0.042283535 -0.76247704
0.18795374 -0.17464527 0.269228 -0.6187501 -0.30909547 0.22173129 -0.11445439 -1.032917
-0.1656187 -0.8058266 0.4241613 -0.58487767 -0.22806293 -0.14221823 -0.24416628 -0.4617701
-0.45705846 0.48195636 0.3849008 0.6303877 -0.7932269 -0.19555905 -0.5898413 -0.12557109
-0.30581054 -0.6784432 0.20241953 0.24323718 0.5797879 -0.10894663 0.35100737 -0.21340744
-0.9901136 -0.6964824 0.12473878 0.5412406 -0.11757911 0.40074176 -0.8675881 0.4829202
-0.42675853 0.41959274 0.19451486 -0.04571033 -0.33246586 -0.07725682 -0.3908972 0.11308146
00000000: 687e f23e 45e0 243e a682 60be e76c cfbd
00000010: 20b8 ff3d e7e8 433d 37ab 8e3e 336a dfbf
00000020: c5d4 2abe f3e1 9cbf b8db 9abe c4d0 e2bf
00000030: 1cde c5be 30e2 863e d8cc 7cbd fd1a d2bf
00000040: 2d0f 973e 2622 4ebf 66a7 263f 465c 0abf
00000050: 3773 45bf 7422 abbe 9cb0 68bf 96ba 1abf
00000060: 314f 173e 6a79 9a3e a94f 5d3e 2b59 dc3e
00000070: 989b 33be 2329 cbbe 5fad 2bbf 2d63 89be
00000080: 152d a1be 91da f0bf b3d4 8f3f c24f 563e
00000090: d956 af3e 6090 4c3e 4903 aa3e 7515 acbc
000000a0: e520 d5bf 0dfc 5c3e 0fb4 9bbe b9b8 603f
000000b0: 78c9 38bd 7c69 fc3e a0ee 29be c29a 6d3f
000000c0: 9808 7ebf 320e 2e3f 778c 023f bb46 293d
000000d0: 5ad8 93be 22d7 f3bd 86fa efbe d559 153d
000000e0: 6954 833e d310 80bf 1671 03be 3bfd 27bf
000000f0: ad0f 9cbe 0399 f2be 7c4b 2dbe 4226 05be
00000100: 0a46 683e 6dc6 85bf 4809 38bd 2354 33bf
00000110: 5713 223f 9664 2ebf 8d07 09bf 3a1c 873d
00000120: 1ce8 3cbf e0ed 83be f41d 7bbd b102 a93e
00000130: 34f9 0e3f b33e de3d 0734 27bf f7e3 a2be
00000140: ab08 6fbf 4687 a0be 7025 78be 7a38 a2bf
00000150: 33c0 f33e 83af 873e b984 363e b0d8 743e
00000160: 148b ba3e 6f46 5dbd b56a babf ada2 25bf
00000170: 4447 1d3e 8899 f13e 61cb 253e 495d 5a3e
00000180: 1227 3dbf 8bf7 2f3f 8a8c c43d b235 5b3e
00000190: 2e50 7e3e 5274 33be 751a e9be b3b8 2c3e
000001a0: 50cc 23bf f535 19be 5d59 813e 55be 83bf
000001b0: c085 7d3c 5f0c aebe 71d6 4ebe db87 e0be
000001c0: 47a6 cbbe d56c 64bc 4c92 8e3d 0188 2ebf
000001d0: 2661 afbd 70b4 58bf 45fc 5d3f 155e 82bf
000001e0: 6bd6 59bf 5d96 863e 4ca7 2bbf d5bb 92be
000001f0: 4b72 63be 471b 143f 5836 043f 428d f03d
00000200: 2d05 11bf ccb6 c2be 9352 29bf ff21 e9be
00000210: 2166 8ebb a02c 68bf 7546 2b3f 4ad0 b1bd
00000220: 763b 2b3e 4251 25be e27e 2a3f 5343 cdbc
00000230: bc84 95bf 8923 31bf 4c56 883d b0e2 bf3e
00000240: c82c 433e 777c 1c3f 2a41 4bbf dbad 893e
00000250: a49c 62bd 76ec be3e 5499 aa3e d310 e8bd
00000260: 4c90 c0be eca7 a3be 55da 9bbe 11c3 e73e
00000270: aeb6 95be 8937 9abf 227a e3bd 5a78 20bf
00000280: 840a 1bbe 7ae6 bbbe cbd0 01bf 9014 5e3e
00000290: 5256 1cbe 2cbe 8ebf ead2 603e f49d 6ebf
000002a0: 8e04 5e3e 059c 40bf d525 0dbf 2fc9 c63d
000002b0: 91f7 31bf 34fb d63d 5747 bcbe 45d9 7d3e
000002c0: 0d3c ca3d 3cf0 8c3d b071 94bf 9cf3 2abe
000002d0: 10de 51bf 1a3d bebe fd70 6bbe 70af 5ebf
000002e0: da0c ce3e 4555 023e 34e5 dc3e c61a 2a3e
000002f0: a8c2 cd3e 61f7 d8bd a50f 85bf 77f3 9fbe
00000300: 2483 e03d d29d d33e 16b2 bb3e f50b 8e3e
00000310: 6001 00bf f509 fa3e 9036 a3be f134 1e3f
00000320: 16e4 f43e cbfb 96be 3a13 8fbe 6f7d b6ba
00000330: f4e0 fdbe a720 5b3e 8031 2dbd b231 43bf
00000340: f276 403e 36d6 32be 41d8 893e 6866 1ebf
00000350: c341 9ebe 870d 633e 1067 eabd a036 84bf
00000360: f397 29be a74a 4ebf ab2b d93e 8bba 15bf
00000370: 5489 69be a8a1 11be ba06 7abe 216d ecbe
00000380: 9103 eabe fcc2 f63e b811 c53e 1761 213f
00000390: eb10 4bbf a240 48be d7ff 16bf b595 00be
000003a0: 3393 9cbe 74ae 2dbf 1147 4f3e 2b13 793e
000003b0: fb6c 143f 691f dfbd 3db7 b33e 7b87 5abe
000003c0: 1678 7dbf ac4c 32bf 0c77 ff3d be8e 0a3f
000003d0: 51cd f0bd 062e cd3e 411a 5ebf 5141 f73e
000003e0: 1880 dabe dcd4 d63e e72e 473e c13a 3bbd
000003f0: f738 aabe d338 9ebd ae23 c8be 4197 e73d

fc_out.bias f4 [10]
0.24870233 0.14051501 -0.24589382 0.12550819 -0.0300687 0.075804815 0.09863049 0.0019046037
0.14348757 0.1783908
00000000: d3ab 7e3e 2be3 0f3e 97cb 7bbe 3885 003e
00000010: a252 f6bc 8e3f 9b3d c8fe c93d e5a3 f93a
00000020: 68ee 123e 14ac 363e
