models/A3_161.pt (torch_old, 3768 bytes, 4 tensors)

fc1.weight f4 [50, 4]
00000000: fb13 783f 7d44 39be ff98 ad3f 0fc3 00be
00000010: 5cbd d23e 855c 663e 96f3 f13e a1d5 863f
00000020: b19c f8be 43fa c33f 4aa0 f8bf 307e cabf
00000030: ed33 973f 2503 4abf ef98 a1bf a532 8c3f
00000040: 3818 51bf fb51 bc3e f184 b5bf 09ee 59bf
00000050: 6810 a4be a179 2dbf eba3 d13f ddbf 1f3f
00000060: 804b 413f 587b e53e 3783 62bf 6a1f 383f
00000070: 330b 89bf 0fbf 5e3f 7e64 efbf b511 f1bf
00000080: 736a 3c3f f432 4d3e 0491 d43f 3df2 a13e
00000090: 6270 80be 8b8d 6ebf ff2e df3f ccb0 1cc0
000000a0: 60d2 c1bf 92ca 153f f317 7bbf a9b0 a3bf
000000b0: 966a 33bf 93f3 d13f 5a06 c8be 29f7 183f
000000c0: c973 bc3f dc5b 1cbf 253e a13f af28 883f
000000d0: b514 c2bf 8413 783f 640f 2dbf 76c4 e0bf
000000e0: 5d3d 153f 59b6 34be 2a62 ca3f 437d 7e3f
000000f0: d854 1cbe 0808 9fbe 6c45 b2be 4ec7 6dbf
00000100: e55a d13e 8d48 1e3f 672b c23f 9c29 283f
00000110: e7bc 8f3e 5263 663f bc46 923f 3366 a7bb
00000120: 3584 afbf 991f e73e 07a3 5bbf 1bc9 1bbf
00000130: 2b24 c7bf 22e3 743f 4b15 a4bf c453 22bf
00000140: 56b8 773e 5f1b b93f 5ea1 013f 1475 a6be
00000150: c490 4abf 5902 d53f 90eb 80bf 2702 f2bd
00000160: 9f2c 3bbf 4fa5 623f 0880 22bf 046c 043f
00000170: 706c d83f 1d6a 603d aaea b0bf f2cb 41be
00000180: d66a 4a3f bf4b c2bf 40f1 583f 1592 18c0
00000190: c64e aa3f 2a6f 66bf c818 e1be f0fc c9bf
000001a0: 34c1 663f b04c 7b3f 2fbb 14bf 88e8 01bf
000001b0: 98fb f3bd 5706 a8bf 7354 9abe f8dc 9b3f
000001c0: 5e78 e43e 72fd 493f 25c1 29bf 2c2e 913f
000001d0: 5d39 923f 7726 10be 6afd babe ec3e 953f
000001e0: 7645 0c3e a2fe e93c c40f c63f f751 823f
000001f0: c163 6fbe e1cb d13f 6063 53be d04e 80bf
00000200: 0b0d 803f 2d0f 9e3f 69dc 6d3f 263b 803f
00000210: bbfc 973f 867e 68bf 9ccc 693f a793 a3bb
00000220: 1e07 89bf a9f2 e5be 1d33 fabf 1310 70bf
00000230: 8f34 12be 15ee 6b3f 38f4 803f 9d24 f5bd
00000240: 06cb 9f3e 5cb9 06bf 9ef7 953e 3537 c53f
00000250: ccad 98be 1a71 96be dc31 12c0 ed71 473f
00000260: 76a2 8bbf 4a9c ea3e 0325 f6bf cfb7 e4bf
00000270: 5cda debf c803 5a3f 0a74 3abf 314e 9abf
00000280: aa18 9abf e24d 82bf ebdb 2cbd d330 aa3f
00000290: bcbf 8cbf d7da 553f 9375 163e dfd5 75be
000002a0: 9f50 a1bf ef5b 00bd 0b61 bbbf f437 62bf
000002b0: b92c 7e3f eaa1 3f3f b7a8 ea3f 2bea cb3f
000002c0: 7131 c5be 1b65 a53f 7aec 32c0 6c4a b2bf
000002d0: 93d5 1d3e e66e a03f 8def 00c0 148f 22bf
000002e0: 6655 6a3f 5725 dabf 9d7d a9bf 61e1 bbbf
000002f0: 75a3 5fbf a0e1 debe b932 04c0 606e 93bf
00000300: 9c8f 293f 30d8 55bf ce72 43bf 17e0 7a3f
00000310: 1562 323f 3c34 cfbf a45c b2bf 6b49 ad3f
0.9690549 -0.18092532 1.3562316 -0.12574409 0.41160095 0.22496231 0.47256154 1.0533944
-0.48557046 1.5310749 -1.9423916 -1.5819759 1.1812721 -0.7891105 -1.2624797 1.0952955
-0.8167758 0.36781296 -1.4181195 -0.8512884 -0.32043767 -0.67763716 1.6378149 0.62402135
0.7550583 0.44820666 -0.8848147 0.71922934 -1.0706543 0.8701028 -1.8702543 -1.8833529
0.7359993 0.20038968 1.6606755 0.31630126 -0.2508574 -0.9318473 1.7436217 -2.4482908
-1.5142326 0.5851222 -0.9808342 -1.2788287 -0.7008451 1.6402458 -0.39067346 0.59752136
1.4722835 -0.61077666 1.259709 1.0637416 -1.5162569 0.9690478 -0.6760161 -1.7559955
0.5829676 -0.17647685 1.5811207 0.99409884 -0.1526674 -0.31060815 -0.3481859 -0.9288224
0.4088966 0.61829454 1.5169495 0.6568849 0.2807381 0.899953 1.1427836 -0.0051086186
-1.3712221 0.45141295 -0.85795635 -0.6085374 -1.5557913 0.9565908 -1.2818998 -0.63409066
0.24191412 1.4461478 0.5063685 -0.325112 -0.79127145 1.6641341 -1.0071888 -0.11816817
-0.7311496 0.8853349 -0.6347661 0.5172732 1.6908092 0.054788698 -1.3821614 -0.18925455
0.7906927 -1.5179366 0.8474312 -2.3839161 1.330529 -0.9001337 -0.4396422 -1.5780315
0.90138555 0.9816389 -0.5809812 -0.5074544 -0.11913222 -1.3126935 -0.30142555 1.2176809
0.44623083 0.7890235 -0.6631034 1.1342216 1.1423756 -0.14077173 -0.36521465 1.1659827
0.13698372 0.028563801 1.5473561 1.0181264 -0.23377897 1.6390344 -0.20643377 -1.0024052
1.000398 1.2348381 0.92914444 1.0018051 1.1874002 -0.9081806 0.91327834 -0.0049919668
-1.0705297 -0.44911698 -1.9546849 -0.9377453 -0.14277862 0.9216016 1.007453 -0.11969874
0.31209582 -0.52626586 0.2929048 1.5407473 -0.29820096 -0.29383165 -2.2842932 0.7790821
-1.0908954 0.45822364 -1.9230045 -1.7868594 -1.7410388 0.8516202 -0.7283331 -1.2055112
-1.2038777 -1.0180018 -0.042201918 1.329615 -1.0996013 0.8353705 0.14693289 -0.24007367
-1.2602729 -0.031337675 -1.463899 -0.8836663 0.9928699 0.74856436 1.8332738 1.5930837
-0.38514283 1.292148 -2.7956834 -1.3928962 0.15413503 1.2533844 -2.014621 -0.6349957
0.9153656 -1.7042645 -1.3241459 -1.4678155 -0.8735879 -0.43531513 -2.0655959 -1.1518059
0.66234756 -0.83533 -0.76347053 0.97998184 0.6968091 -1.6187816 -1.3934522 1.353803

fc1.bias f4 [50]
00000000: 2927 0240 aedd 59be 1126 8fbf c40c 9e3e
00000010: a63d dabf 93b2 823f 3770 403f d96e 7ebf
00000020: fb77 0140 13e1 0a3f 7c2f 25bf fe6f 2f3f
00000030: 2eae 743f 6165 6cbf fa27 903f 406d f0bc
00000040: d0a6 d03e a8cb 853e ff09 b6bf 8afe f3bf
00000050: c064 723e 9a9e 7ebf 663e e2bd 11c3 0e3f
00000060: 729f 12be 95dc febe f4dd f5bd 9900 533e
00000070: c6d3 26be c2ca cd3e 936c a93e 3ec6 65bf
00000080: 116f 873e 1810 0740 5324 29bf 8c65 35be
00000090: e7a5 d93d 4c4a 3a3f 9e55 05bf 9629 a2bf
000000a0: f31d 3cbd cbb9 c1bf 2600 8dbf 6f63 56bd
000000b0: 02eb d3be 8064 e5bf a9ed 58bf 20b6 f7be
000000c0: ac32 433f 3355 a13f
2.0336401 -0.2127597 -1.1183492 0.30869114 -1.7050064 1.0210747 0.75171226 -0.9938789
2.022948 0.54249686 -0.6452558 0.6853026 0.9557828 -0.9234219 1.12622 -0.02934897
0.40752268 0.2613194 -1.42218 -1.9062054 0.23671246 -0.99460757 -0.11047058 0.557664
-0.14318636 -0.49777666 -0.12005225 0.20605697 -0.16291723 0.40193754 0.33090648 -0.8975562
0.26451924 2.1103573 -0.6607105 -0.17714518 0.106273465 0.7276962 -0.52083766 -1.2668941
-0.045927 -1.5134825 -1.101567 -0.05234092 -0.41390234 -1.7921295 -0.8473764 -0.48381138
0.76249194 1.2604126

fc_out.weight f4 [10, 50]
00000000: 1460 773d 5ea4 a83e d3fb 1dbf 96fa ccbe
00000010: 04bb f1bf 8540 55bf 8710 cd3e 5869 8bbf
00000020: a1e8 b0bf 560c fbbf d2c8 35be bb17 cebd
00000030: 7f74 a73e 1f85 aebf 7b1f 8fbf 18c5 db3d
00000040: 884e 813f 9638 863e a073 d43d aa68 a53d
00000050: 4531 ef3e 1a89 99be 0c96 8bbe af73 3d3e
00000060: f7a6 adbf 986b ebbe 53a6 67be ee88 283f
00000070: e0c3 ad3e c60d 1d3f 9332 663f 1aee 6abf
00000080: 690a 163e a0c5 b4be b25c 2abf b041 bbbe
00000090: 5014 913f 8c83 34be 94ed b0bf 913b 10bf
000000a0: c112 ae3e 85bb 853e 4c8e 83bf f867 763f
000000b0: cef3 1cbf 16b7 70bf eaf3 31bf b313 0cc0
000000c0: 6e5a 21bf cf52 f23e f44e f7be 3b2d ae3e
000000d0: 82cd f8be 9120 8f3e d70c 8ebf 1e6f 34bf
000000e0: 4818 b5be 23d1 35bf 8343 9fbf 5004 c5bf
000000f0: d6fd 86be 4725 9ebe 32fb 8cbe 97f1 47bf
00000100: 0fe2 5ebf be4b f9bd a09a 413f 6869 893f
00000110: 63c9 babd b664 15be 8465 ff3d f1d1 6ebe
00000120: 1dbd 123e 2cb4 48bf 6871 9cbf 79c1 32bf
00000130: 7131 8ebe 6ab7 5b3f 5041 d3bb 07cd 493f
00000140: 46fb a13f c3c8 16bf 33e5 c63e f176 09bf
00000150: d861 c7be 5387 13be e258 1d3f df67 13bf
00000160: 2272 88bf 8463 00bf f918 15be bfec b9bd
00000170: c13f 40bf 24b4 5e3f 6ed4 23bf 1e39 57bf
00000180: a47b 13bf 0dde bebf acd5 813e 48a7 823f
00000190: b5c8 d7be 2726 fe3c 583c 09bf c814 c33d
000001a0: b4af 7abf 6439 85be cb87 36be 2a43 41bf
000001b0: 8a34 57bf 9866 e9bf a093 0bbf 3b46 8bbc
000001c0: 30d9 a5be 2203 48bf edf0 a0be 4a16 593e
000001d0: 695a bb3e 943f 1a3f cc1d 7dbd be98 b13d
000001e0: dde8 933e 925a 25be cccd 9ebe ffac aebe
000001f0: 7ab3 b8bf e023 59bf 1fa1 60be e3d2 883e
00000200: 66e0 013e a9e6 213f 3ca1 533f c251 0cbf
00000210: 55bc 0bbd 4773 31bf 54c3 10bf 80d9 3dbe
00000220: 2c83 013f dcc0 ccbe a79b 7ebf 8c9a 23bf
00000230: 17a9 653e ae23 ecbe 09ef 6ebf aa1b 903f
00000240: baaf 12bf 4304 6fbf d66a 9bbe 4f7e 9abf
00000250: 6f98 9f3e 0617 713f 6905 0bbf bfca 0e3f
00000260: 4a62 54bf 9940 013e 9247 54bf 1f61 fcbe
00000270: 4579 9c3e 91ad 5fbf fb86 efbe 8b70 febf
00000280: a93f 1fbf c46f c6be 7ada aebe 8389 3dbf
00000290: e25e c5be 00bc 913b a2f9 f63e 5735 bf3e
000002a0: 454c 0ebf 4ef9 edbd 4c50 5b3f 8c0e 6abe
000002b0: d415 993c ffec c5be 1642 94bf de4f 7ebf
000002c0: 5354 ae3e fce8 1a3f 870d f73c 5d94 7b3e
000002d0: feb4 463f 629d 22bf 26e4 a1bd 24e4 fcbe
000002e0: 067d 69bf 2eda e7be 3681 093f 7482 98be
000002f0: 7710 18bf 2b27 52bf eaa5 e93d 327a 0cbf
00000300: f867 81bf 1d31 713f 29ae 26bf 7542 dbbe
00000310: 19f2 7cbe ed28 9cbf 52cc 833e 8b8b 333f
00000320: d319 f7be b41c fc3e 3ae3 88bf 64a1 373e
00000330: 5476 8cbf a421 0fbf bf5e 1bbe 4a81 25bf
00000340: c19b 2bbf 18ed e1bf 4d22 53bf 1c2d f7bd
00000350: decb c9be 524a 5bbf de70 acbe 451d 0cbe
00000360: 2b25 1d3f 2701 0d3e bbf3 53be 9072 a8be
00000370: 4058 953e f4c1 d9bd a450 8ebe 65ae c4be
00000380: 6693 9bbf 2d53 69bf 59c1 89bb 29a7 383f
00000390: de15 2e3d 9d96 213e eff6 603f 8d0b 60bf
000003a0: 72fd 12bd 45cd 8abe 504f 42bf 3292 77bc
000003b0: c220 013f e1d3 83be a806 65bf 9fa4 e4be
000003c0: ba9b ad3e 9d3d 95be 511a 30bf 43d4 4d3f
000003d0: ba2d 28bf d4be 74bf cb9c cabe b721 8cbf
000003e0: 4438 293e 226e 433f 8e35 10bf 8952 873e
000003f0: 48bb 84bf 584f da3e c263 86bf f56e 83be
0.06039436 0.32937902 -0.6171238 -0.40034932 -1.8885198 -0.83301574 0.40051672 -1.0891523
-1.3820993 -1.961314 -0.17752388 -0.1006312 0.32706067 -1.3634375 -1.1181482 0.10730952
1.0102091 0.26215047 0.10373616 0.08076604 0.46717277 -0.29987413 -0.27262914 0.18501161
-1.3566579 -0.45980525 -0.22622041 0.6583394 0.33938503 0.6134914 0.8992092 -0.91769564
0.14652409 -0.35307026 -0.6654769 -0.36573553 1.1334324 -0.17628306 -1.3822503 -0.5634089
0.33998683 0.2611963 -1.02778 0.96252394 -0.61309516 -0.94029367 -0.6951281 -2.1887023
-0.6302861 0.47328803 -0.48302424 0.34018883 -0.4859429 0.27954534 -1.1097668 -0.7048205
-0.35370088 -0.7102224 -1.2442478 -1.5391941 -0.26365536 -0.30887815 -0.27535397 -0.7810301
-0.8706369 -0.1217265 0.75626564 1.0735292 -0.09120443 -0.145892 0.124705344 -0.23322274
0.14329953 -0.7839992 -1.2222109 -0.69826466 -0.27772096 0.8582674 -0.006446995 0.7882847
1.2654808 -0.5890009 0.3884674 -0.53697115 -0.38941836 -0.14407091 0.6146375 -0.5758037
-1.065983 -0.5015185 -0.14560308 -0.09078359 -0.7509728 0.8699362 -0.63996017 -0.8407153
-0.57610536 -1.4911515 0.2535833 1.02073 -0.42145315 0.031024052 -0.536077 0.09525448
-0.9792435 -0.26020348 -0.17825238 -0.7549311 -0.84064543 -1.8234434 -0.5452213 -0.017001262
-0.32392263 -0.7812978 -0.31433812 0.21199909 0.36592415 0.6025326 -0.061795995 0.086717114
0.28888598 -0.16147831 -0.31016386 -0.3411636 -1.4429772 -0.84820366 -0.21936463 0.26723394
0.12683257 0.63242584 0.826679 -0.5481225 -0.034115154 -0.69316524 -0.5654805 -0.18540001
0.5059078 -0.3999089 -0.99456257 -0.63907695 0.22427784 -0.4612097 -0.9333349 1.1258442
-0.5729939 -0.9336588 -0.30354947 -1.2069796 0.31170985 0.94175756 -0.5430513 0.55778116
-0.8296248 0.12622298 -0.8292171 -0.49292848 0.3056127 -0.87374216 -0.4678267 -1.9878095
-0.6220651 -0.38757145 -0.3415106 -0.7403795 -0.38548952 0.00444746 0.4823733 0.37345383
-0.5558513 -0.11619817 0.856694 -0.22857112 0.018687166 -0.38657376 -1.1582668 -0.9934062
0.3404871 0.60511756 0.030157818 0.24568315 0.7761992 -0.635214 -0.07904844 -0.49392807
-0.91206396 -0.45283645 0.53712785 -0.29787028 -0.59400123 -0.82091016 0.11408599 -0.54873955
-1.0109854 0.94215566 -0.651095 -0.4282414 -0.24701728 -1.219999 0.25741822 0.701348
-0.4826189 0.4924065 -1.0694344 0.1793266 -1.0973611 -0.55910707 -0.15172862 -0.64650404
-0.67034537 -1.765048 -0.82474214 -0.12069151 -0.3941335 -0.8566028 -0.3367986 -0.1368304
0.6138484 0.13769971 -0.20698445 -0.32899904 0.29168892 -0.10632697 -0.277959 -0.38414302
-1.2154357 -0.9114254 -0.004203957 0.72130066 0.042501323 0.1578011 0.8787679 -0.87517625
-0.035886236 -0.27109733 -0.7590227 -0.015110539 0.5044061 -0.25747588 -0.8946328 -0.44656846
0.33907872 -0.2914857 -0.68790156 0.8040201 -0.65694773 -0.9560368 -0.3957275 -1.0947789
0.1652537 0.76339924 -0.5633172 0.26430157 -1.0369654 0.4263866 -1.0499194 -0.2567059

fc_out.bias f4 [10]
00000000: d522 cd3d 839c c53c 09df cebc 6c6e 23be
00000010: b955 2dbd cd57 6cbd e7a0 183d 1981 00be
00000020: beef d33d 6bac 66bd
0.10016409 0.024122482 -0.025252836 -0.15960091 -0.04231808 -0.05770092 0.037262823 -0.12549247
0.103484616 -0.056316774
