models/B1_314.pt (torch_old, 3768 bytes, 4 tensors)

fc1.weight f4 [50, 4]
00000000: 38f2 b0bf 0374 363f c63d cebf cc05 b83d
00000010: 9441 853f cc5f 6cbf 5125 6cbf 2aa0 c33f
00000020: af94 923d 1ab5 af3e 6b8a 9abf 7b6d ae3f
00000030: 8824 b9bf 66a2 a03e abc1 a9bf b9d5 fbbe
00000040: 581e 1cbf b457 a5be 9fa9 d7bf e752 b13f
00000050: 699f 623f 07ad 5ebf 3bed b3bd 9e9c e4bf
00000060: 551a ddbd 4e38 5cbe 561f 17c0 c200 12bf
00000070: 5800 88bf a97e 363f c68d 9fbe 1c8b 6b3f
00000080: 8d1b 82bf eb96 8c3f 05b5 32c0 5425 c4bf
00000090: 77ff 753f b35c 46bf 7502 923c 1c63 e83f
000000a0: c0a7 85be 6c67 d43f 85fe 0fbf b503 82bf
000000b0: bbc9 4b3f 9c7d 92bf eeb3 fe3f 20ce 7e3f
000000c0: 0e29 24bf 3c62 1fbf 001f b7bd f8ee 5cbf
000000d0: cd2a ce3d 2fb1 763f d4c6 b93f 0426 1fbf
000000e0: 3183 9fbe 742b e2bf 48a3 6c3f d3a5 863f
000000f0: 32a6 0140 53ed a5bf 2196 0940 3dc1 9c3f
00000100: 7008 8fbf fcbb b53e bf83 05c0 9a44 84bf
00000110: e8b0 aabf 385c 9a3f c210 c9bf f10c 6abf
00000120: 5e83 633f 7ec4 6ebe 0e83 9e3d f8f4 b73f
00000130: c142 2dbf 8495 e13e b726 0ac0 c68d 83bf
00000140: 22b7 7cbf 1d9c 493f 9845 68bf 52c7 86bf
00000150: 05f5 603f 194d 513f 3a88 e3bf f1b4 933f
00000160: 5618 2fbe e6e3 21bf 207c ac3f 89a3 c43f
00000170: ef64 bf3f 0d80 583e 9279 dd3d 9e56 d03f
00000180: 7225 aa3f 3f82 77bf 565d 2ebf 26e0 82bf
00000190: 3c61 af3e 577a f7be 350d c2bf 4a0d d43e
000001a0: a462 b93f 2343 4cbe 0908 203e 7185 e03f
000001b0: 1bf5 b83f 3fdb 96bf b8e7 c33f 897a b33f
000001c0: 47c9 45bf 4fb6 723f 557d 51bf a3fa be3f
000001d0: eaf8 0c3e c2db 21bf 4d66 17c0 454f 093e
000001e0: dc1a 9d3f c292 97bf 9fda 23bf 5448 fc3f
000001f0: 58ab 483e 987f 30be a013 383d ec1a 37bf
00000200: dae3 3f3f 9074 e1bf 14c0 3dbf 4c62 06bf
00000210: 3ed7 58bf 6bf8 b33f d42b 55bf 7c11 abbf
00000220: 2c8f a73e 075c aa3f 2861 e13f 157a 063e
00000230: 4576 5d3e 0b34 c6be 1a0d 92bf 0889 823f
00000240: 3882 55bf 4a2a a53e 973a 22c0 ad9e c1bf
00000250: 86e5 d3bf 53cf 0abf 78f3 d8bb 917c ad3f
00000260: 0bdf 323f 4f14 45bf c75a 423e 1276 ea3f
00000270: 7f70 e83e ccdf ea3e 0038 88bf 79c5 24bf
00000280: 2174 84bf f2fd 88bf 56e3 e53e 4be7 0c3f
00000290: 502e 193e 8cc3 cf3e a05d 1cbe b857 8cbf
000002a0: c73a 883f 32f8 ebbf 0864 0d3c d588 8c3f
000002b0: c220 7dbf 6254 0dbf 7448 433f 3698 753f
000002c0: 8e8f 103e 3e31 b2bf 5e83 8dbe ad59 ad3f
000002d0: c26b 283f b2ee 62bf 795e 47bf f2c6 533f
000002e0: ed12 32bf fdef 8abd 577e d8bf 5d20 253f
000002f0: ee32 cdbf beb8 3fbe ec05 fa3f bc1e c6be
00000300: 5e90 9bbe 47e0 d03f 84a3 da3f 8d54 84bf
00000310: b27b 8d3f 722d 4bbf 5cbe bdbf e1bd 28be
-1.3823919 0.7127077 -1.6112602 0.08985481 1.0410638 -0.92333674 -0.9224444 1.5283253
0.071572654 0.34317857 -1.2073492 1.3627161 -1.4464273 0.313739 -1.3262228 -0.49186495
-0.609838 -0.32293475 -1.6848639 1.3853425 0.8852449 -0.8698277 -0.087854825 -1.7860296
-0.10796038 -0.21505854 -2.3612876 -0.57032406 -1.0625105 0.7128702 -0.31162852 0.9200914
-1.0164658 1.0983557 -2.7922986 -1.5323892 0.96092933 -0.774852 0.017823437 1.8155246
-0.26104546 1.6594062 -0.5624774 -1.0157381 0.7960469 -1.1444583 1.989866 0.9953327
-0.64125144 -0.6225927 -0.0894146 -0.8630214 0.10066757 0.9636411 1.4513803 -0.6216738
-0.3115478 -1.7669511 0.9243665 1.0519356 2.0257688 -1.2963051 2.1497881 1.2246472
-1.117445 0.35494983 -2.0861661 -1.0333436 -1.3335238 1.2059393 -1.5708239 -0.91425997
0.88872325 -0.23317143 0.077398404 1.4371634 -0.67679983 0.44059384 -2.158613 -1.0277641
-0.9871694 0.78753835 -0.9073119 -1.0529578 0.8787387 0.81758267 -1.7775948 1.1539594
-0.17099127 -0.6323837 1.347538 1.5362407 1.4952677 0.21142597 0.10814203 1.6276433
1.3292677 -0.96683115 -0.6811117 -1.0224655 0.3425387 -0.48335525 -1.516028 0.4141639
1.4483228 -0.19947486 0.15628065 1.7540723 1.44498 -1.1785659 1.530509 1.402177
-0.7726025 0.9480943 -0.81831867 1.4920238 0.13766828 -0.6322595 -2.365619 0.13409145
1.2273822 -1.1841662 -0.64005464 1.9709573 0.19596612 -0.17236173 0.04494059 -0.71525455
0.7495705 -1.7613697 -0.7412121 -0.5249374 -0.84703434 1.4060186 -0.8327 -1.3364711
0.3272642 1.3309335 1.7607775 0.13132508 0.21627147 -0.3871158 -1.1410248 1.0198069
-0.83401823 0.32258826 -2.534826 -1.5126549 -1.655442 -0.542226 -0.0066208206 1.355364
0.69871587 -0.76984113 0.18979941 1.8317282 0.45398328 0.45873868 -1.064209 -0.6436382
-1.034794 -1.0702498 0.44900006 0.55040425 0.14959073 0.40578878 -0.1527009 -1.096427
1.0642937 -1.8435118 0.008629806 1.0979258 -0.9887811 -0.5520688 0.7628243 0.9593538
0.14117262 -1.3921278 -0.27639288 1.3542992 0.65789425 -0.8864547 -0.7787853 0.8272544
-0.6956013 -0.067840554 -1.6913556 0.6450251 -1.6031168 -0.18722817 1.9533057 -0.38695323
-0.3038358 1.6318444 1.7081151 -1.0338303 1.1053374 -0.7936622 -1.4823718 -0.16478683

fc1.bias f4 [50]
00000000: 83e4 e0bd 5830 253f fc0b 8d3e 959b 4cbf
00000010: 6d28 393f 026c 86bf 7ef8 34bf 83a5 163f
00000020: e71e 7ebf 0a91 933f f6ad eebe 4651 1440
00000030: d8de 953d 0b2a e13e fa19 983f b0ab 2340
00000040: 9ad3 a4bf ba31 14bf 7128 f03e e422 80bf
00000050: 4f26 26bf e247 e33e 95c6 773e ebe5 0d3f
00000060: 13b1 20bf 8682 0b3f 3f46 9d3f b060 0240
00000070: e2d5 163f 6759 09be ed88 c73f 8829 f0bd
00000080: f0df 24bf 0fea fcbe 9b2d 193f fdf5 bdbe
00000090: 2f13 08bf c1c9 04bd 4e27 1f3f f7e7 c6be
000000a0: 759b e73e 78a7 9dbd 7a6b 893f b9d8 333e
000000b0: 9010 983f f309 ae3f 1101 213f deac 723e
000000c0: c615 8e3e 7996 9a3f
-0.10981085 0.6452689 0.27548206 -0.799249 0.7232731 -1.0501711 -0.7069167 0.588463
-0.99265903 1.1528637 -0.46617097 2.3174605 0.07317895 0.4397739 1.1882927 2.557354
-1.2877076 -0.57888377 0.46905854 -1.0010648 -0.64902204 0.4439078 0.24196847 0.5542895
-0.62770194 0.5449604 1.2287062 2.0371513 0.5892011 -0.1341301 1.5588661 -0.117266715
-0.644042 -0.49397323 0.59835213 -0.37101737 -0.5315427 -0.03241897 0.6216935 -0.3884885
0.45235792 -0.07697958 1.0735924 0.17563142 1.1880054 1.3596786 0.6289225 0.23698756
0.27750987 1.2077171

fc_out.weight f4 [10, 50]
00000000: 4c44 d4be 09ce 223f ebd1 cebd f666 65be
00000010: 37d7 c4be 3628 85be 1409 60bf 942f 3bbe
00000020: 31f7 48bf 32ef ea3e 5734 25bf d762 b9bf
00000030: f0f2 62be e3b5 22bf b490 80bf 0306 11bf
00000040: 6c05 e0be c93e 3ebe aae5 873f 5e6b 2dbf
00000050: 8b42 aabe f83d 793d 277b 883f 7d85 6f3f
00000060: 794c 18bd 9b58 a2be aed6 203f c80f 91bf
00000070: 9465 f6be c6f9 36bf 24e3 573f 4299 8cbe
00000080: 7ac6 503d 95c2 3dbf 9130 933f dc01 6abe
00000090: 4b7e 8abf 8dbd 153e 5bf8 cc3e 00c2 333d
000000a0: 8dd3 c03e 565f 2d3e 646b 0cbf ef7e 6a3e
000000b0: e3ff 523f b06e 123f a9e6 cc3c 199e 343f
000000c0: f076 693f aa35 0abf 687d 443c ebdd 243f
000000d0: c23b 8dbe 18f5 a7be 4963 09bf 8131 92bf
000000e0: 9cfb 2abf 8e66 00be 37c4 5fbf f2c4 8a3f
000000f0: 575b 1dbf 19d4 64bf eb39 9d3e 6c27 ebbd
00000100: 31ce 02c0 9cde 99be 32bd 64bf 96d3 47be
00000110: ad48 743f b1a1 6dbf e41e 37bf 349a 0ebf
00000120: 5406 4c3f 6b19 753f 4580 9ebf 4c53 e1be
00000130: 9a34 893f 3181 aebf 9bce c8bd 860b 10bf
00000140: f4fc e33e 3425 a13d 8ec0 373e 541f 0fbf
00000150: 17c9 7d3f 6bbd 713c ae9a 3abf fb30 10be
00000160: e895 783f f922 99be 3eb0 903e e0ce 85bc
00000170: 6341 efbe fc97 aebd 01da 4a3f 5042 0c3f
00000180: c958 59be 6812 323f a90c f03e f417 2bbe
00000190: 1ad7 b1bd 734e 603f 050d e8bd 26ae e2be
000001a0: 4b88 2cbf f6e8 3ebe 3af9 5dbf bc2b 13bf
000001b0: 0cad 0dbf 091a 743f 49bc 62be 6a38 7dbf
000001c0: 0bb9 0ebe dfd6 763f 3ff7 c9be d609 7ebf
000001d0: 1a5c 0dbf a561 03be 6ade 773f 6865 39bf
000001e0: 9dd0 9dbe 4692 6ebe 22df a8be aae9 a93f
000001f0: bda4 01bf d50f 94bf b6d6 8c3f 6140 a6bf
00000200: 1209 f8be e1ea 95bf de94 a93f 00be 2e3c
00000210: 4971 a9be 4948 2ebd fc6b 713f 1dd5 bfbe
00000220: c699 17bf 8bad 26bd d926 453f 2484 4a3d
00000230: ac52 ecbc 2e4b 7e3e 418f b4bf 5d1e 0abe
00000240: 89d1 b03f b311 6d3f 4fc7 8fbd f7af 8e3f
00000250: f7ba 623f 38f8 06bf b3c2 3bbd 1c2b 843f
00000260: 89e7 8f3c 10fc f3be b90f 37be 6dce 74bf
00000270: e455 0bbf 03ff b5be c82c 04bf 04ae 303f
00000280: 0c4c 11bf 1502 74bf 0577 83be db47 dfbe
00000290: 4da3 c5be 2768 70bf 25a0 b5be 4050 e6be
000002a0: 6f5d fe3e 4f30 3fbf c64d 0fbf 9115 13bf
000002b0: 3a37 383f 6e9b 563f 315a 11bf 3537 78be
000002c0: dd3a 863f 2120 6fbf 038a d1be ff6a 1abf
000002d0: 09c5 263f 8f67 953e d2a8 abbe 7c68 0bbf
000002e0: 38eb 4b3f a30b bbbe 9511 54bf b813 a3be
000002f0: 315a 683f e6b0 2f3e 9c2c 17be 263c 98be
00000300: 9d0a 2abf 292a 403e 0ddd 313f e68f 113f
00000310: 4e79 4abe f73b 793f 6bf5 873f d2ab 23bf
00000320: ee08 b8be 33c1 1b3f 59a7 a0be d0c4 adbd
00000330: ec14 2ebe 4603 a1be 589a 2cbf 62eb 79be
00000340: 9ff5 66bf 91a3 f93e e81d 3abe 8417 58bf
00000350: 93db 86be b418 1cbf b11a 1ebf 321f 92bf
00000360: ae8d 36bf 2c0d ebbe 39fd 313f a22c 9ebe
00000370: 1ff6 54be eda0 f1be 6964 4b3f 3d7e 103f
00000380: 1f48 0abf b18d b13c 4bfd 863f 32c4 45bf
00000390: acb4 dfbe dc66 f0be e7df 643f 700f 7bbd
000003a0: bb7a bfbe 7a13 07bf d6f1 6d3f ac61 3bbe
000003b0: f97e 18bf 373d b6be 4c35 653f 6429 b53d
000003c0: 9b30 dfbd 8a4f 1e3e dddf 34bf 7c2d 863e
000003d0: 2244 773f 0c02 653f f088 94be 8f7b 8e3f
000003e0: db92 4e3f fb74 3cbf bf04 d6be 7fcc 6c3f
000003f0: 7c06 3bbe b4b3 2bbe a113 d6be 4190 62be
-0.41458356 0.63595635 -0.100986324 -0.22402558 -0.38445446 -0.2600724 -0.8751385 -0.18279868
-0.78502184 0.45885617 -0.6453299 -1.4483289 -0.22162986 -0.6355879 -1.004416 -0.566498
-0.43754137 -0.18578638 1.0616963 -0.67741954 -0.33253893 0.060850114 1.0662583 0.9356306
-0.037182305 -0.31708226 0.62827575 -1.1332941 -0.48124373 -0.71474874 0.84330964 -0.27460676
0.050970532 -0.74125034 1.1499196 -0.22852272 -1.0819792 0.14623089 0.4003323 0.043886185
0.376614 0.16930899 -0.54851365 0.22899984 0.824217 0.57200146 0.025012331 0.7055374
0.9119711 -0.53988135 0.01199279 0.6440112 -0.27584654 -0.3280418 -0.5366712 -1.1421357
-0.66790175 -0.12539122 -0.87408775 1.0841353 -0.614675 -0.89386135 0.3070825 -0.114821285
-2.043835 -0.3005265 -0.8935119 -0.19514307 0.95423394 -0.92824847 -0.7153151 -0.55704045
0.79697156 0.9574191 -1.2382895 -0.44008863 1.0719178 -1.3633176 -0.09805032 -0.56267583
0.44528925 0.07868424 0.17944548 -0.5590718 0.99134964 0.014754633 -0.7289227 -0.14081185
0.9710374 -0.29909495 0.28259462 -0.016333997 -0.46729574 -0.085250825 0.792389 0.54788685
-0.21225275 0.69559336 0.4688466 -0.16708356 -0.086836055 0.87619704 -0.11330608 -0.4427349
-0.67395467 -0.18643555 -0.86708415 -0.5748861 -0.55342174 0.95352226 -0.22142138 -0.98914206
-0.13937776 0.9642162 -0.39446446 -0.9923376 -0.5521866 -0.12830217 0.9682375 -0.7242036
-0.30823222 -0.23297986 -0.32982737 1.3274434 -0.50641996 -1.1567332 1.1003025 -1.2988397
-0.4844442 -1.1712304 1.3248556 0.010665417 -0.33094242 -0.042549405 0.94305396 -0.3746728
-0.59219015 -0.040692847 0.770124 0.049442425 -0.028848015 0.24833366 -1.4106218 -0.13488145
1.3813945 0.9260513 -0.07020437 1.114745 0.88566536 -0.527225 -0.045839977 1.0325656
0.01756646 -0.47653246 -0.17877091 -0.9562748 -0.54427934 -0.3554612 -0.5163083 0.69015527
-0.56756663 -0.95315677 -0.25676742 -0.4360951 -0.3860115 -0.93908924 -0.35473743 -0.449831
0.4968066 -0.7468309 -0.5597805 -0.5745478 0.7195927 0.83830917 -0.56778246 -0.2423981
1.0486714 -0.934084 -0.40925607 -0.60319513 0.651444 0.2918057 -0.33527237 -0.54456306
0.7965579 -0.36532316 -0.8283933 -0.31850982 0.9076262 0.17157325 -0.14763111 -0.2973339
-0.66422445 0.18766083 0.6947792 0.56860197 -0.19772837 0.97357124 1.0621771 -0.6393405
-0.35944313 0.60841674 -0.31377676 -0.08484805 -0.17000169 -0.3144781 -0.6742301 -0.24406198
-0.9021854 0.48757604 -0.18175471 -0.8441088 -0.26339397 -0.60975194 -0.6175948 -1.141577
-0.71309936 -0.45908487 0.6952701 -0.30893427 -0.20797013 -0.4719309 0.7945009 0.56442624
-0.540163 0.021674009 1.0546049 -0.77252495 -0.4369253 -0.46953475 0.8940415 -0.06129402
-0.37398323 -0.52764094 0.9294714 -0.18298978 -0.59568745 -0.35593578 0.8953445 0.08845785
-0.10897943 0.15460029 -0.7065409 0.26206577 0.9658834 0.8945625 -0.29010725 1.1131457
0.80692834 -0.73616 -0.41800496 0.92499536 -0.18264192 -0.1676777 -0.4181185 -0.22125341

fc_out.bias f4 [10]
00000000: 5e72 183e 4d6a 38bd da80 c7be 285b 963b
00000010: cb79 4abe f537 eabd e726 54bc 8735 82be
00000020: e69a c7bd f8cc dfbd
0.14887378 -0.04502325 -0.38965493 0.0045885034 -0.19773023 -0.11436454 -0.012948728 -0.25431463
-0.097463414 -0.109277666
