models/B1B_228.pt (torch_old, 3768 bytes, 4 tensors)

fc1.weight f4 [50, 4]
0.40815702 0.95284694 -0.8873025 -1.1469568 0.5335686 1.3895766 0.11244601 -1.0964338
-0.682212 0.22200748 1.7728595 0.5409244 -0.208285 0.40618306 -1.9411218 1.2173312
-1.0780073 1.1979603 0.38836613 0.632096 -0.059928935 0.8310514 -2.1164951 -0.9211384
-1.0362152 1.1267842 1.2966598 -1.6207181 0.83195794 -1.2012469 -0.78930885 1.8502612
0.8678738 1.0447898 -0.6522612 -0.3970827 -1.3421482 -0.5152909 0.06347066 -0.82306975
1.126678 -0.6320919 -0.12285084 1.877968 1.6317989 -1.1475245 0.67413557 1.246789
1.4810469 0.072555214 -0.061646372 1.4154251 1.9990462 -1.4060438 1.0511554 1.0588237
0.58968574 1.5051606 -2.8732762 -1.6505089 0.9184273 0.90230006 -1.7738585 1.2297213
0.4965826 -1.3940514 -0.5370685 1.8779211 -0.6717645 -0.6143317 0.8724378 -0.8928526
-1.5072962 1.4450227 -0.028257113 0.96591353 -1.1659061 1.3307139 -1.412202 -1.7085286
1.309962 -1.4027274 3.0269082 1.6644185 0.9444577 1.0885944 -2.5498645 -0.6338917
0.6530554 -1.3441331 -1.357303 -0.27326107 1.1257042 -0.56608814 0.064009346 1.9173838
1.1136234 0.8591515 -2.1370535 0.30671665 -0.9340758 0.83269304 -2.305656 -0.7219003
0.15526308 1.2503657 0.8056204 -0.53252906 0.2954923 1.0114812 -1.1751174 1.454348
-0.19920328 1.5481596 -0.15964973 0.9939782 0.925433 1.3181213 0.5610522 0.7927993
1.6515778 -1.916221 -0.38940734 1.33865 -0.7010445 -0.040539257 -0.6242127 1.3368821
1.0613276 0.7274199 0.21027038 -1.3477297 1.0465806 0.655847 1.2510808 1.3128833
-0.6235321 1.2169832 -1.359629 -0.8562364 -0.76676 0.46159512 -1.9992009 -1.3430513
0.22626981 1.72117 -2.5292616 -1.5617963 0.55322385 -1.2590451 -0.038189165 1.7466323
-0.21621582 1.0476534 0.847902 -0.71750206 0.032478865 0.458046 -1.9770368 0.75055945
-0.23631479 -1.3835057 -0.5312896 0.94745195 1.3509289 -0.9078394 -0.82420224 -1.1880603
-1.6661885 1.6980963 -2.134677 0.10689609 -1.4268874 0.26124007 0.5236231 0.96918637
-0.92522794 -0.9717923 0.8438323 -1.1708332 1.2086924 -0.20958123 0.07209804 1.3052471
-0.09479869 -0.38639873 -0.26826468 -0.706692 0.6708375 0.8254299 1.6993104 0.86620533
-0.32273048 1.0646139 1.6605111 -0.3447079 1.1152643 -0.25025642 1.4483452 -0.8132336
00000000: f5f9 d03e c7ed 733f 4226 63bf 7bcf 92bf
00000010: f497 083f a5dd b13f 184a e63d f157 8cbf
00000020: 72a5 2ebf ee55 633e 0fed e23f 057a 0a3f
00000030: aa48 55be 3af7 cf3e ae76 f8bf 82d1 9b3f
00000040: 25fc 89bf c356 993f edd7 c63e 0bd1 213f
00000050: 0b78 75bd c9bf 543f a874 07c0 bacf 6bbf
00000060: b3a2 84bf 773a 903f f3f8 a53f b173 cfbf
00000070: 32fb 543f 75c2 99bf 2510 4abf 5cd5 ec3f
00000080: fa2c 5e3f acbb 853f 97fa 26bf 6c4e cbbe
00000090: 83cb abbf 1bea 03bf e8fc 813d b3b4 52bf
000000a0: fc36 903f c6d0 21bf 3999 fbbd 4161 f03f
000000b0: c9de d03f 15e2 92bf 2694 2c3f c896 9f3f
000000c0: f292 bd3f d497 943d e880 7cbd a62c b53f
000000d0: bfe0 ff3f 3ef9 b3bf 438c 863f 8987 873f
000000e0: a5f5 163f 1aa9 c03f c2e3 37c0 e043 d3bf
000000f0: 0d1e 6b3f 23fd 663f cc0d e3bf 8267 9d3f
00000100: 1340 fe3e 4770 b2bf 527d 09bf b85f f03f
00000110: c2f8 2bbf d844 1dbf 1558 5f3f fd91 64bf
00000120: 15ef c0bf 81f6 b83f 767b e7bc 1c46 773f
00000130: 693c 95bf d554 aa3f 09c3 b4bf 11b1 dabf
00000140: d6ac a73f 928c b3bf ddb8 4140 aa0b d53f
00000150: fbc7 713f 1057 8b3f fb30 23c0 ba46 22bf
00000160: a42e 273f 8e0c acbf 1bbc adbf e0e8 8bbe
00000170: 1317 903f 27eb 10bf 5517 833d d56c f53f
00000180: 368b 8e3f 5af1 5b3f 7cc5 08c0 f709 9d3e
00000190: 971f 6fbf 5f2b 553f de8f 13c0 75ce 38bf
000001a0: 49fd 1e3e fc0b a03f 233d 4e3f d353 08bf
000001b0: c44a 973e 3778 813f 3f6a 96bf 1328 ba3f
000001c0: f2fb 4bbe 182a c63f 387b 23be 5b75 7e3f
000001d0: 2de9 6c3f 33b8 a83f 1ea1 0f3f e5f4 4a3f
000001e0: e766 d33f bb46 f5bf 6660 c7be e258 ab3f
000001f0: a777 33bf 7e0c 26bd 67cc 1fbf f41e ab3f
00000200: 95d9 873f 3138 3a3f 1e51 573e 6882 acbf
00000210: 5af6 853f 97e5 273f 6a23 a03f 8f0c a83f
00000220: cd9f 1fbf 1bc6 9b3f 5308 aebf 4f32 5bbf
00000230: 624a 44bf 3256 ec3e d1e5 ffbf 1be9 abbf
00000240: 46b3 673e 4c4f dc3f 6cdf 21c0 f1e8 c7bf
00000250: 14a0 0d3f 6428 a1bf 3e6c 1cbd a691 df3f
00000260: ae67 5dbe 8219 863f 1b10 593f 37ae 37bf
00000270: 8f08 053d 0185 ea3e 8b0f fdbf aa24 403f
00000280: 81fc 71be b716 b1bf 9802 08bf 368c 723f
00000290: 3deb ac3f 2a68 68bf ebfe 52bf 5c12 98bf
000002a0: aa45 d5bf 385b d93f 8c9e 08c0 56ec da3d
000002b0: 3fa4 b6bf 42c1 853e 2a0c 063f 991c 783f
000002c0: bddb 6cbf 61c7 78bf 6505 583f dddd 95bf
000002d0: 6fb6 9a3f 769c 56be 23a8 933d 5612 a73f
000002e0: d125 c2bd 0ed6 c5be fd59 89be c4e9 34bf
000002f0: 02bc 2b3f 604f 533f 0183 d93f a2bf 5d3f
00000300: ee3c a5be 4545 883f a18b d43f 8e7d b0be
00000310: fbc0 8e3f 9c21 80be 6063 b93f 1430 50bf

fc1.bias f4 [50]
0.46088478 0.2376902 -0.03971213 0.105825596 0.52064204 -0.9961611 0.032179743 0.90691423
-0.20061715 -0.38362586 0.9159985 2.1946666 0.9286992 1.0832255 -0.51095945 0.050165776
0.7942078 -0.7179494 0.2294603 -0.57117003 2.9913778 -0.4343034 0.5825431 0.81426626
-0.80477434 -1.3084499 -0.30046687 0.35644436 0.5112231 0.6955403 1.5127739 0.22681798
0.38722262 0.5820901 -1.2830985 -0.8221785 -0.7341236 1.4561079 -0.2864429 0.2019547
0.59219444 -0.7288634 -0.7710474 -0.2387653 -0.3166417 1.302807 -0.20968308 0.4559435
-0.020199763 -0.3564768
00000000: 17f9 eb3e 0f65 733e 30a9 22bd 17bb d83d
00000010: cc48 053f 6a04 7fbf e8ce 033d 882b 683f
00000020: 956e 4dbe 9c6a c4be e17e 6a3f 6b75 0c40
00000030: 3bbf 6d3f 22a7 8a3f 3dce 02bf a17a 4d3d
00000040: 3451 4b3f 88cb 37bf a4f7 6a3e 3338 12bf
00000050: bc72 3f40 045d debe 8b21 153f c173 503f
00000060: b105 4ebf 497b a7bf cbd6 99be e07f b63e
00000070: 84df 023f ee0e 323f 93a2 c13f f942 683e
00000080: 0b42 c63e db03 153f 923c a4bf 4a7a 52bf
00000090: 86ef 3bbf be61 ba3f a5a8 92be 36cd 4e3e
000000a0: 0e9a 173f cb96 3abf 5d63 45bf e47e 74be
000000b0: dc1e a2be 61c2 a63f 29b7 56be 6d71 e93e
000000c0: f979 a5bc 2184 b6be

fc_out.weight f4 [10, 50]
-0.29434368 1.1205231 0.65445375 -0.2885614 0.032447573 -0.8935678 0.6099141 0.7956001
-1.2512107 1.291417 1.0010887 -1.7829413 0.5459424 -0.018514229 -1.3041 -0.547228
0.8319006 0.1826699 -0.113879316 -0.3548589 -1.4269924 -0.6290344 0.041507017 1.1029332
-0.25092146 -0.36207616 0.7362817 -0.111086875 -0.35955703 0.3671511 -1.0631468 -0.17943431
0.24201246 0.3905846 -0.5343023 -1.0188553 -0.6952578 1.2272907 0.041733418 -0.10206417
0.64718497 -0.38234487 -0.2618425 -0.17534392 0.19683781 0.62085396 -0.23489332 0.96796656
0.37086686 0.80726874 -0.48109928 1.055211 0.8465968 -0.5155303 -0.383338 -0.47220844
0.5342269 0.9681695 -0.75945234 0.6076758 0.68864554 -0.8597499 0.4746467 -0.6180025
-0.92300224 -0.1453948 0.51518905 -0.30894855 -0.017728286 -0.7656991 -1.121535 -0.57451797
-0.23691243 0.7563668 -0.16977578 -0.56086063 0.5853404 -0.15754046 -0.12233253 -0.32663447
-0.66805434 -0.13443807 -0.011941456 0.65593326 -0.57287854 -0.5947104 -0.8209436 0.73732126
0.20943889 0.037370037 0.5952064 -0.27026632 -0.34127066 -0.3964123 0.13701785 0.912671
-0.10836166 0.8795956 0.4670232 0.33094192 -0.5349567 1.6424649 0.41992465 -0.14200178
-0.12983978 -0.6157727 0.5824425 0.49466658 -0.20324038 1.2408552 0.98098713 -1.0598286
0.3785591 -0.24186628 -1.1177735 -0.32733688 0.76405215 -0.15033408 -0.17386816 -0.9017234
-1.109515 -0.30196375 -0.17985101 0.75818366 -0.22259584 -0.6209512 0.40766466 -0.0006464791
-0.33537292 0.24490853 -0.7489567 -0.17855993 -0.052590188 0.8203029 -0.33037573 -0.94304526
-1.021596 0.77991676 0.28919312 -0.2994362 0.56673104 -0.28849655 -0.22137907 -0.33048138
0.07749479 0.69252235 -0.09912282 0.67066777 0.5773381 0.14542635 0.59057724 0.8230504
0.80739766 -0.4797996 -0.24703225 -0.7325886 0.749078 0.7893845 0.56236964 0.86208946
0.71864545 -0.5621274 0.9667397 -1.2378377 -0.88751245 -0.60051525 1.1905223 0.5636051
-0.27282938 -0.45095986 -1.2361416 -0.47427857 -0.40051827 1.314974 -0.48066378 -0.33745247
0.747351 -0.4108074 -0.4220433 -0.19480184 -0.8597697 -0.20113592 0.5081259 0.12885003
-0.49299714 -0.50067604 -0.61976963 0.7326433 0.54457104 -0.03690111 0.8081278 -0.45249844
-0.22761993 -0.083957784 0.13098726 0.73547816 0.46891052 0.85648793 0.7278996 0.3661533
-0.7488046 0.5707671 1.011288 -0.087229185 0.0020262992 -0.6000174 0.5717333 0.89508986
-0.7207541 0.32971314 0.58384335 -0.77654153 0.55470705 -0.6442603 -0.96788716 -0.07763596
0.6149465 0.31252626 -0.44033682 -0.7414714 -1.2867819 -0.6365618 -0.34785637 0.77564234
-0.3033001 -0.31749952 0.7216531 -0.4450782 -0.16157703 -0.13132425 -0.65078217 0.034297097
-0.0998256 0.5000815 -0.43718427 -0.5628533 -0.6039664 0.9054504 0.3991668 -0.52047455
0.75812954 -0.2961363 -0.3757796 -0.23566164 0.12978281 0.9334613 -0.13940424 0.7220213
0.5721675 0.4746917 -0.47514907 0.9447153 0.76763254 -0.033627126 -0.295866 -0.75252384
00000000: 37b4 96be 4d6d 8f3f 488a 273f 52be 93be
00000010: bfe7 043d dcc0 64bf 5523 1c3f 73ac 4b3f
00000020: ac27 a0bf 274d a53f ad23 803f 6c37 e4bf
00000030: e2c2 0b3f 27ab 97bc c0ec a6bf 2217 0cbf
00000040: 70f7 543f d10d 3b3e 8f39 e9bd 11b0 b5be
00000050: b0a7 b6bf 6608 21bf 4303 2a3d ea2c 8d3f
00000060: c778 80be 0c62 b9be f57c 3c3f 8481 e3bd
00000070: dc17 b8be 3bfb bb3e 3215 88bf a1bd 37be
00000080: 1dd2 773e b4fa c73e 09c8 08bf da69 82bf
00000090: 6afc 31bf dd17 9d3f a9f0 2a3d 0507 d1bd
000000a0: eaad 253f b5c2 c3be 3810 86be 5b8d 33be
000000b0: da8f 493e 49f0 1e3f e087 70be a8cc 773f
000000c0: 43e2 bd3e 2aa9 4e3f a552 f6be 2711 873f
000000d0: 91ba 583f cbf9 03bf e144 c4be 4ec5 f1be
000000e0: 18c3 083f f5d9 773f 786b 42bf a490 1b3f
000000f0: 134b 303f 9218 5cbf e404 f33e 6935 1ebf
00000100: e049 6cbf 60e2 14be 6ee3 033f 812e 9ebe
00000110: e93a 91bc db04 44bf 758e 8fbf 9c13 13bf
00000120: 2c99 72be 41a1 413f b4d9 2dbe 9094 0fbf
00000130: ded8 153f 4952 21be 7a89 fabd a23c a7be
00000140: 9c05 2bbf 22aa 09be 19a6 43bc 3eeb 273f
00000150: 2ba8 12bf f13e 18bf 5c29 52bf 16c1 3c3f
00000160: 2677 563e 5311 193d 725f 183f 5960 8abe
00000170: 07bb aebe 8ef6 cabe 684e 0c3e cfa4 693f
00000180: b8ec ddbd 2d2d 613f aa1d ef3e 3871 a93e
00000190: ecf2 08bf 4a3c d23f 5d00 d73e ea68 11be
000001a0: b8f4 04be 48a3 1dbf f41a 153f f044 fd3e
000001b0: 3f1e 50be 58d4 9e3f f921 7b3f 77a8 87bf
000001c0: 80d2 c13e cbab 77be 3413 8fbf b398 a7be
000001d0: ec98 433f 2df1 19be 7f0a 32be 58d7 66bf
000001e0: 9604 8ebf fe9a 9abe dd2a 38be 5318 423f
000001f0: 2af0 63be a8f6 1ebf 6cb9 d03e 7a78 29ba
00000200: 00b6 abbe 4dc9 7a3e a0bb 3fbf 6ad8 36be
00000210: cf68 57bd 5fff 513f 0227 a9be 6a6b 71bf
00000220: a8c3 82bf a0a8 473f 1f11 943e b44f 99be
00000230: 4915 113f d2b5 93be 32b1 62be db34 a9be
00000240: 97b5 9e3d 2549 313f e800 cbbd e2b0 2b3f
00000250: 6ecc 133f a5ea 143e 1230 173f 6eb3 523f
00000260: 9db1 4e3f 4ba8 f5be 06f6 7cbe ed8a 3bbf
00000270: 93c3 3f3f 1a15 4a3f 75f7 0f3f e5b1 5c3f
00000280: 26f9 373f 95e7 0fbf 417c 773f 7771 9ebf
00000290: 0434 63bf 5ebb 19bf 0963 983f 6d48 103f
000002a0: 4bb0 8bbe 36e4 e6be e339 9ebf a4d4 f2be
000002b0: bb10 cdbe 1151 a83f 9019 f6be 92c6 acbe
000002c0: 6552 3f3f 5955 d2be 0f16 d8be 227a 47be
000002d0: de19 5cbf 93f6 4dbe 8a14 023f 43f1 033e
000002e0: 1f6a fcbe 4e2c 00bf 39a9 1ebf 838e 3b3f
000002f0: 0269 0b3f 9e25 17bd 77e1 4e3f e0ad e7be
00000300: 3315 69be 0ff2 abbd 8621 063e 4c48 3c3f
00000310: 0a15 f03e cb42 5b3f a157 3a3f 7278 bb3e
00000320: a9b1 3fbf cb1d 123f e371 813f 37a5 b2bd
00000330: a9cb 043b be9a 19bf 1d5d 123f 9c24 653f
00000340: 5783 38bf 29d0 a83e c276 153f 6dcb 46bf
00000350: 4801 0e3f 3eee 24bf 74c7 77bf 9aff 9ebd
00000360: 226d 1d3f 7103 a03e d473 e1be 12d1 3dbf
00000370: 45b5 a4bf b7f5 22bf 3b1a b2be 7f90 463f
00000380: 274a 9bbe 4c8f a2be 42be 383f 4ae1 e3be
00000390: 7374 25be dd79 06be a999 26bf 1d7b 0c3d
000003a0: 5d71 ccbd 5705 003f 9ed6 dfbe 2717 10bf
000003b0: 8b9d 1abf 99cb 673f 975f cc3e d23d 05bf
000003c0: c714 423f 2d9f 97be 2f66 c0be 4951 71be
000003d0: c9e5 043e 52f7 6e3f fcbf 0ebe 63d6 383f
000003e0: 9279 123f ca0a f33e bd46 f3be ddd8 713f
000003f0: 9183 443f 99bc 09bd c07b 97be 67a5 40bf

fc_out.bias f4 [10]
-0.06535209 -0.15419245 -0.12369028 -0.16185169 -0.15996195 0.15474275 -0.25030017 0.07061552
0.019667204 0.019386057
00000000: 51d7 85bd a0e4 1dbe 5451 fdbd 73bc 25be
00000010: 11cd 23be e274 1e3e 5827 80be df9e 903d
00000020: 1e1d a13c 82cf 9e3c
