models/B2_161.pt (torch_old, 3768 bytes, 4 tensors)

fc1.weight f4 [50, 4]
-0.13260446 0.92071897 1.7788926 -1.3896848 0.21243332 0.4241331 0.5892709 0.873615
-0.43168682 1.4772297 -2.3207102 -1.4244419 1.2836691 -0.8915374 -1.0298783 0.7680237
-0.6933546 0.244389 -1.7444948 -0.75751966 -0.2247845 -0.7732779 1.576355 0.8408953
1.2708277 -0.06752874 -0.6782345 0.9245298 -1.0327123 0.8321361 -1.7520448 -1.9436255
0.8172779 0.11910579 1.6164128 0.43323156 -0.45798257 -0.7247179 1.1419778 -1.7088456
-1.4664811 0.537344 -1.3203872 -1.4608773 -0.8998066 1.8392177 -0.21506543 -0.86388016
0.73720235 0.12431847 1.9820137 1.1032635 -1.4606103 0.91340834 -0.8778745 -2.018115
0.44486403 -0.03837571 1.1121793 1.0629928 -0.1526674 -0.31060815 -0.3481859 -0.9288224
0.35050598 0.67667544 1.3851143 0.5356227 0.38137946 0.79930353 1.1311842 -0.1470645
-1.0177184 0.0979582 -1.3674284 -0.3730097 -1.3607482 0.76154244 -1.7129066 0.034447316
0.32408538 1.3640009 -2.0396862 -1.2156818 -0.59840745 1.4713051 -1.5209978 -0.5339849
-0.7243424 0.8785276 -0.79512954 0.2962093 1.915575 -0.16992447 -0.42482105 -0.97432977
0.5195075 -1.2467116 0.6403145 -1.6782112 0.823526 -0.39312682 0.6967384 -1.7862825
0.91302574 0.9699987 -0.57323277 -0.4973179 -0.20232153 -1.2295189 -0.5155938 0.9394783
0.7139038 0.52136827 -0.22448164 1.3669529 1.0727197 -0.071026236 -0.53825223 0.9954185
0.12766796 0.037879575 1.3704487 0.87257034 -0.20340174 1.6086617 0.06825199 -1.1232207
1.0104089 1.2248065 1.2946432 1.1898799 0.9152045 -0.6359798 1.6201952 0.27345437
-1.1268389 -0.3928271 -1.9201119 -1.0449297 -0.2742496 1.0530269 0.4781301 -0.44568428
0.3781739 -0.5923364 0.32527417 1.3682373 -0.086261936 -0.50577533 -2.29573 0.15668765
-1.0982804 0.46563324 -1.6474919 -1.8277206 -1.527745 0.63823074 -0.7127283 -1.5221894
-1.0750649 -1.1468251 0.38561264 1.4313391 -1.0848801 0.82067853 -0.26611832 -0.34462333
-1.1498026 -0.14181755 -1.4757905 -1.0183198 0.9396753 0.8017846 1.675301 1.5602372
-0.44762257 1.3546473 -2.3041327 -1.9213363 0.3064826 1.1010314 -1.8829738 -0.64288294
0.5985476 -1.3874216 -0.46247214 -1.3440379 -1.0120349 -0.29685813 -2.3914871 -1.2690525
0.60937375 -0.7823749 -0.38111693 0.7431316 0.318368 -1.2403773 -1.5712594 0.4652561
00000000: 77c9 07be 3db4 6b3f c1b2 e33f 31e1 b1bf
00000010: 1f88 593e f927 d93e 75da 163f 3ca5 5f3f
00000020: 0e06 ddbe dd15 bd3f 8486 14c0 1d54 b6bf
00000030: 454f a43f cc3b 64bf 0dd3 83bf 349d 443f
00000040: b07f 31bf 1c41 7a3e 9b4b dfbf cfec 41bf
00000050: e82d 66be 8af5 45bf 00c6 c93f ea44 573f
00000060: 7baa a23f 824c 8abd c7a0 2dbf fcad 6c3f
00000070: eb2f 84bf df06 553f 0143 e0bf b8c8 f8bf
00000080: 2039 513f bded f33d 9de6 ce3f 87d0 dd3e
00000090: b17c eabe 1d87 39bf 542c 923f 74bb dabf
000000a0: a7b5 bbbf 608f 093f 7302 a9bf 07fe babf
000000b0: ba59 66bf 7c6b eb3f 1d3a 5cbe 4027 5dbf
000000c0: 4bb9 3c3f af9a fe3d a0b2 fd3f bd37 8d3f
000000d0: 47f5 babf 21d5 693f 62bc 60bf cc28 01c0
000000e0: 38c5 e33e d92f 1dbd e45b 8e3f 2610 883f
000000f0: d854 1cbe 0808 9fbe 6c45 b2be 4ec7 6dbf
00000100: 8575 b33e 9a3a 2d3f 6d4b b13f 921e 093f
00000110: 2b44 c33e 289f 4c3f a5ca 903f 1498 16be
00000120: 9944 82bf 4f9e c83d e507 afbf 21fb bebe
00000130: ff2c aebf 72f4 423f 8640 dbbf a118 0d3d
00000140: 85ee a53e 9597 ae3f 388a 02c0 769b 9bbf
00000150: 3b31 19bf ba53 bc3f 0eb0 c2bf 3cb3 08bf
00000160: 816e 39bf 2fe7 603f 9c8d 4bbf bfa8 973e
00000170: 9031 f53f ae00 2ebe 2582 d9be ad6d 79bf
00000180: 72fe 043f 3f94 9fbf a7eb 233f a0cf d6bf
00000190: 9ad2 523f eb47 c9be 735d 323f e8a4 e4bf
000001a0: 0ebc 693f d651 783f 62bf 12bf 74a0 febe
000001b0: 602d 4fbe e060 9dbf f5fd 03bf a681 703f
000001c0: 66c2 363f 6478 053f 84de 65be 50f8 ae3f
000001d0: e14e 893f 3476 91bd e6ca 09bf bfd3 7e3f
000001e0: 64bb 023e 9d27 1b3d dd6a af3f c560 5f3f
000001f0: 8c48 50be a0e8 cd3f b3c7 8b3d b2c5 8fbf
00000200: 1455 813f 76c6 9c3f deb6 a53f fc4d 983f
00000210: d84a 6a3f 92cf 22bf 8e62 cf3f 3602 8c3e
00000220: 423c 90bf a220 c9be 3ac6 f5bf 42c0 85bf
00000230: 726a 8cbe 96c9 863f 78cd f43e bb30 e4be
00000240: 02a0 c13e 5ca3 17bf 568a a63e 6622 af3f
00000250: 19aa b0bd 7e7a 01bf 3eed 12c0 ba72 203e
00000260: 7494 8cbf 7b67 ee3e 04e1 d2bf c0f2 e9bf
00000270: 268d c3bf 1763 233f 5d75 36bf 1ad7 c2bf
00000280: ba9b 89bf 2acb 92bf 056f c53e 1f36 b73f
00000290: 5add 8abf fd17 523f a940 88be 7872 b0be
000002a0: bb2c 93bf 9f38 11be b4e6 bcbf 4e58 82bf
000002b0: 8f8e 703f c141 4d3f 4370 d63f dab5 c73f
000002c0: c92e e5be 1565 ad3f e976 13c0 59ee f5bf
000002d0: 4aeb 9c3e 99ee 8c3f 4905 f1bf fa93 24bf
000002e0: 6a3a 193f 0897 b1bf 26c9 ecbe 6f09 acbf
000002f0: 5c8a 81bf cafd 97be 200e 19c0 5070 a2bf
00000300: ebff 1b3f b949 48bf c221 c3be df3d 3e3f
00000310: 2101 a33e afc4 9ebf 071f c9bf 0c36 ee3e

fc1.bias f4 [50]
0.4444744 -0.12894645 -0.81918234 0.5510331 -1.5275668 0.5820302 0.7117555 -0.9316041
1.6322705 0.4490088 -0.73376167 -1.0654036 0.5183992 -1.1063349 0.7231071 -0.02934897
0.37790036 0.3202545 -1.193673 -1.0966142 -0.6425067 -1.3209683 -0.36199412 -0.3124884
0.09367713 -0.7022553 -0.12960863 0.24006398 -0.11154672 0.52733505 0.41448784 -0.9096811
0.3403651 1.4784064 -0.7312417 -0.95677733 0.14526883 -0.0031961175 -0.4337882 -1.468656
0.22690186 -1.6961126 -1.1125873 0.1745385 -0.95536935 -1.663446 -1.3261456 -0.5670824
0.5933844 0.8604287
00000000: 2692 e33e 8a0a 04be efb5 51bf 8110 0d3f
00000010: 4f87 c3bf eeff 143f 9c35 363f 9b7d 6ebf
00000020: 3dee d03f 7be4 e53e ced7 3bbf 255f 88bf
00000030: cfb5 043f 629c 8dbf 8c1d 393f 406d f0bc
00000040: 287c c13e 66f8 a33e 47ca 98bf db5d 8cbf
00000050: 527b 24bf 7d15 a9bf 4b57 b9be 7bfe 9fbe
00000060: ccd9 bf3d 01c7 33bf 20b8 04be 55d3 753e
00000070: 9b72 e4bd 6eff 063f c037 d43e dce0 68bf
00000080: 5644 ae3e 6c3c bd3f a832 3bbf 5cef 74bf
00000090: 5ac1 143e f475 51bb 7d19 debe ebfc bbbf
000000a0: f658 683e 381a d9bf 4369 8ebf 38ba 323e
000000b0: 1693 74bf cceb d4bf 24bf a9bf 502c 11bf
000000c0: 0ae8 173f 0e45 5c3f

fc_out.weight f4 [10, 50]
-0.93531084 0.13242896 -0.494111 -0.2976371 -1.3824048 -0.9391431 0.5834848 -1.1846163
-0.8937634 -0.99704796 -0.07261117 0.19922559 -0.53124386 -1.38999 0.266354 0.10730952
0.8358244 0.3680109 -0.016791822 0.024387212 -0.6084386 -0.22186798 -0.33760214 -0.5748586
-0.54757684 -0.60304844 -0.22113782 0.50138617 0.34074953 0.5141776 0.61071944 -1.1811745
0.19002496 -0.11178708 -0.9644438 -0.8752084 0.9752262 -0.28047526 -1.2902243 -0.8861638
0.29869944 0.34534052 -1.0819674 0.6406369 -1.0631171 -0.88826936 -0.17707722 -1.4518619
-0.4109958 0.17265 -1.1873254 0.33510208 -0.55425054 -0.3753097 -1.0327791 -0.6849865
0.31963313 -0.80226415 -1.0980464 -0.70777917 -0.33596557 -0.5749835 -0.5135098 -0.71865135
-0.055907857 -0.1217265 0.42175093 0.9970192 0.039683826 -0.23608764 -0.87174165 -0.6234391
0.14348206 -0.69459534 -0.6653831 -1.3089361 -0.2802979 0.7301994 0.113322616 0.63785875
0.97611326 -0.43948898 0.583553 -0.09922285 -0.62322927 -0.21713072 0.68260115 -0.6303099
-1.0437379 -0.4933386 -0.046869542 -0.18012542 -0.79556125 0.5923939 -1.191044 -0.8552306
-0.5375469 -1.1188326 0.09383212 0.59619945 -0.9087848 0.025928404 -0.55651087 -0.22554702
-0.8127518 -0.1151507 0.23126408 -0.71766555 -0.50881684 -1.1123055 -0.78114486 0.029997831
-0.20002109 -1.080089 -0.026152134 0.21199909 0.1928777 0.28993115 -0.010524307 -0.100168414
-0.7952665 -0.51067364 -0.1861079 -0.39485273 -0.81097305 -1.0317277 -0.2067204 0.044157945
0.39432 0.46826726 0.4808952 -0.67258537 0.17920762 -0.5319727 -0.6390687 -0.2527451
0.3650217 -0.21082102 -0.92926276 -0.8997084 0.35886732 -0.6380238 -0.8431875 0.8163413
-0.9602085 -0.79778546 -0.26687068 -1.0422825 0.20664512 0.5023731 -0.8609226 0.5396039
-0.76635224 -0.2804171 -0.7377643 -0.4625171 0.7195787 -0.9078181 -0.29167637 -1.0772935
-0.6537612 -0.34484223 -0.38902918 -0.76653963 -0.1013748 0.00444746 0.43565837 0.22794957
-0.32958195 -0.2257708 -0.45081863 -0.5417295 0.06491621 -0.52239716 -0.5992833 -0.7548195
0.310407 0.47397938 0.26862234 0.16465834 0.5749673 -0.482359 0.12682956 -0.3423071
-0.98703784 -0.18155393 0.36833584 -0.26993176 -0.59928787 -0.9336952 0.22357243 -0.5912895
-0.9945726 0.6517097 -0.9073832 -0.35067213 -0.18542135 -1.088862 0.050887905 0.39836872
-0.965372 0.427435 -1.0166556 -0.14391883 -1.027664 -0.49394935 0.104629315 -0.70149904
-0.62546176 -0.9414293 -0.8125856 -0.2498265 -0.37668177 -0.9830153 -0.050139207 -0.1368304
0.46519145 0.20692213 -0.09207315 -0.273063 -0.57629067 -0.30163112 -0.11550166 -0.5545057
-0.6447182 -0.83464485 -0.2495428 0.5834624 0.1810497 0.139358 0.8812015 -0.77117836
0.0920171 -0.30779296 -0.72466415 -0.18685992 0.47471473 -0.21331644 -0.86705303 -0.46290684
0.3052365 -0.37534368 -0.65513855 0.76824 -0.79641086 -0.89589536 -0.2734344 -1.1318296
0.10206816 0.60635954 -0.7829855 0.2319036 -1.0168484 0.20007376 -0.9571279 -0.152499
00000000: 8870 6fbf 759b 073e 1efc fcbe e463 98be
00000010: a4f2 b0bf af6b 70bf 435f 153f 82a1 97bf
00000020: aecd 64bf 893e 7fbf 2ab5 94bd cb01 4c3e
00000030: 99ff 07bf 31eb b1bf 8d5f 883e 18c5 db3d
00000040: 96f8 553f ed6b bc3e 018f 89bc b1c7 c73c
00000050: a2c2 1bbf 5c31 63be 30da acbe ef29 13bf
00000060: ff2d 0cbf 6261 1abf f471 62be d85a 003f
00000070: b976 ae3e 25a1 033f 1c58 1c3f ba30 97bf
00000080: e795 423e a0f0 e4bd cae5 76bf a80d 60bf
00000090: 6da8 793f 749a 8fbe 1226 a5bf a1db 62bf
000000a0: 22ef 983e 79d0 b03e e87d 8abf c800 243f
000000b0: 3914 88bf 9f65 63bf bb53 35be 9cd6 b9bf
000000c0: 0b6e d2be 29cb 303e 47fa 97bf 8092 ab3e
000000d0: 5de3 0dbf 9828 c0be 1b32 84bf 465b 2fbf
000000e0: f4a6 a33e 2f61 4dbf c98c 8cbf 0431 35bf
000000f0: ae03 acbe 1e32 13bf 6175 03bf 89f9 37bf
00000100: a3ff 64bd be4b f9bd bdef d73e a63c 7f3f
00000110: 828b 223d f5c0 71be 762a 5fbf b499 1fbf
00000120: f6ec 123e 00d1 31bf 8c56 2abf 388b a7bf
00000130: 3583 8fbe 59ee 3a3f b015 e83d b64a 233f
00000140: 8fe2 793f b304 e1be bb63 153f 5935 cbbd
00000150: f48b 1fbf 8457 5ebe f3be 2e3f fd5b 21bf
00000160: 3499 85bf e196 fcbe 47fa 3fbd cc72 38be
00000170: e7a9 4bbf 20a7 173f 2174 98bf 65f0 5abf
00000180: ac9c 09bf e835 8fbf 0e2b c03d 87a0 183f
00000190: 1fa6 68bf ce67 d43c 7f77 0ebf ccf5 66be
000001a0: 8110 50bf 21d4 ebbd 7ed0 6c3e eeb8 37bf
000001b0: d241 02bf 0760 8ebf 1cf9 47bf 03be f53c
000001c0: 54d2 4cbe 5b40 8abf 003d d6bc 4a16 593e
000001d0: bb81 453e db71 943e 256e 2cbc 1925 cdbd
000001e0: 9696 4bbf 82bb 02bf 1293 3ebe 232a cabe
000001f0: ee9b 4fbf a70f 84bf 83ae 53be f6de 343d
00000200: 50e4 c93e bac0 ef3e e537 f63e 8e2e 2cbf
00000210: 3482 373e 5d2f 08bf 029a 23bf ce67 81be
00000220: 20e4 ba3e 77e1 57be 2ae4 6dbf 4a53 66bf
00000230: 75bd b73e 8755 23bf 23db 57bf befb 503f
00000240: 39d0 75bf ab3b 4cbf 46a3 88be 8369 85bf
00000250: c79a 533e 869b 003f 6c65 5cbf 7b23 0a3f
00000260: a92f 44bf d592 8fbe 1fde 3cbf 0bcf ecbe
00000270: 4f36 383f c466 68bf 9b56 95be c1e4 89bf
00000280: e55c 27bf 298f b0be d52e c7be f13b 44bf
00000290: 979d cfbd 00bc 913b 9d0e df3e 9d6b 693e
000002a0: f7be a8be 7630 67be b3d1 e6be c9ae 0abf
000002b0: caf2 843d d2bb 05bf a16a 19bf da3b 41bf
000002c0: abed 9e3e 6dad f23e de88 893e 329c 283e
000002d0: 0f31 133f c2f7 f6be 9cdf 013e e042 afbe
000002e0: 83ae 7cbf 46e9 39be 8496 bc3e 7f34 8abe
000002f0: ee6a 19bf a606 6fbf 2cf0 643e c05e 17bf
00000300: 4f9c 7ebf 72d6 263f 444a 68bf 4c8b b3be
00000310: 18df 3dbe d45f 8bbf d66f 503d fcf6 cb3e
00000320: 9f22 77bf c3d8 da3e c521 82bf 755f 13be
00000330: 7e8a 83bf eee6 fcbe e547 d63d 7195 33bf
00000340: 431e 20bf 8301 71bf 9c05 50bf 85d2 7fbe
00000350: 6fdc c0be e4a6 7bbf c55e 4dbd 451d 0cbe
00000360: 932d ee3e 65e3 533e d990 bcbd eace 8bbe
00000370: c987 13bf 656f 9abe 228c ecbd 16f4 0dbf
00000380: 410c 25bf 49ab 55bf 2688 7fbe cb5d 153f
00000390: 1865 393e ddb3 0e3e 6c96 613f f26b 45bf
000003a0: 7673 bc3d 0a97 9dbe 9783 39bf 3558 3fbe
000003b0: cf0d f33e a06f 5abe 30f7 5dbf 2002 edbe
000003c0: f547 9c3e 0c2d c0be 29b7 27bf 60ab 443f
000003d0: 95e1 4bbf 6659 65bf 98ff 8bbe cbdf 90bf
000003e0: 1d09 d13d 613a 1b3f bd71 48bf 2378 6d3e
000003f0: 1728 82bf 23e0 4c3e 5606 75bf b328 1cbe

fc_out.bias f4 [10]
0.06222325 0.0705245 0.15916984 -0.003443449 0.16551939 0.113874994 0.14866757 0.08802404
0.16517217 0.053577203
00000000: cedd 7e3d 266f 903d 6bfd 223e 7dab 61bb
00000010: ea7d 293e 4b37 e93d 503c 183e f345 b43d
00000020: e522 293e c573 5b3d
