models/C2_9849252.pt (torch_old, 14173 bytes, 6 tensors)

fc1.weight f4 [50, 4]
0	0x3f6e123f	0.9299659
1	0xbf4a8885	-0.7911456
2	0xbba49e98	-0.0050237887
3	0xbf508db6	-0.81466234
4	0xbe71da77	-0.23618494
5	0x3f33ca15	0.7023023
6	0x3f740d29	0.9533258
7	0xbea93865	-0.33050838
8	0xbf80491d	-1.0022312
9	0x3f402027	0.7504906
10	0xbf844dc3	-1.0336231
11	0x3e08ddbf	0.1336584
12	0xbeb67146	-0.35633296
13	0xbc4b3f04	-0.012405161
14	0xbdec4136	-0.115358755
15	0x3fc8912a	1.56693
16	0xbe159ecb	-0.14611356
17	0x3f81f378	1.0152426
18	0x3fa5fcbb	1.2967752
19	0xbe4fa581	-0.20277978
20	0x3c066810	0.008203521
21	0xbf704466	-0.9385437
22	0xbfa8dbca	-1.3192074
23	0xbf27a90a	-0.6549231
24	0x3fa8a8e3	1.317654
25	0xbfa1273d	-1.25901
26	0x3fe239bd	1.767387
27	0xbeb2c10a	-0.34912902
28	0xbf7c05c7	-0.98446316
29	0x3f183685	0.5945819
30	0x3c18a123	0.009315762
31	0xbf649d28	-0.893023
32	0x3f994868	1.1975222
33	0x3f2a0751	0.66417414
34	0x3ecb05bf	0.3965282
35	0xbf574d7f	-0.84102625
36	0x3f851641	1.0397416
37	0x3f410c79	0.75409657
38	0x3c53fc27	0.012938536
39	0xbf693a16	-0.9110426
40	0xbf4e7ac4	-0.80656075
41	0xbd8ddd74	-0.069270045
42	0xbf847eaa	-1.0351155
43	0x3f8ae45a	1.0850937
44	0xbf53ff58	-0.828115
45	0xbf8b5fb9	-1.0888587
46	0x3dd59ff3	0.104308985
47	0xbf819905	-1.0124823
48	0x3ed56379	0.41677454
49	0xbf1c0f4a	-0.6096083
50	0x3e032c35	0.12809832
51	0xbf4aae75	-0.7917245
52	0x3f0569e8	0.52114725
53	0x3dd78bff	0.10524749
54	0x3fcd0546	1.6017234
55	0x3f4bb64a	0.79575026
56	0xbf34379a	-0.7039734
57	0xbf1fce1a	-0.6242386
58	0x3f298bc6	0.662289
59	0xbf5c07a7	-0.85949177
60	0x3e1468e3	0.14493136
61	0x3da804cd	0.08204041
62	0xbf87b782	-1.0602877
63	0x3f3aafbb	0.72924393
64	0x3f3694eb	0.7132098
65	0x3c246c23	0.010035547
66	0x3e2a3fac	0.16625851
67	0x3efe65ff	0.49687192
68	0x3d2687b4	0.04065676
69	0xbf8a5e38	-1.0810003
70	0x3f680211	0.90628153
71	0xbf52804a	-0.82227004
72	0xbdb17b7c	-0.08666131
73	0xbf475522	-0.7786428
74	0x3e6bd8c8	0.23031914
75	0x3f31f42e	0.69513214
76	0xbf7eba52	-0.9950305
77	0xbf5b0f06	-0.855698
78	0xbf92702c	-1.1440482
79	0xbf330210	-0.6992502
80	0xbdd73288	-0.10507685
81	0x3e017099	0.12640609
82	0x3f06a676	0.5259775
83	0xbf62045e	-0.88287914
84	0x3f810024	1.0078168
85	0xbdc025eb	-0.09382232
86	0x3e9d4c5e	0.30722326
87	0x3fb835bc	1.4391398
88	0x3e1e8fe1	0.15484573
89	0x3f544824	0.8292258
90	0x3f88c906	1.0686347
91	0xbf5ce9d8	-0.8629432
92	0x3f2e3b11	0.6805888
93	0x3de25e52	0.110531464
94	0x3f7ecab6	0.9952806
95	0xbfa885a3	-1.3165783
96	0x3e0d6e74	0.13811666
97	0xbf2f4de7	-0.68478245
98	0x3fb7c0dd	1.4355732
99	0xbecf4225	-0.40480152
100	0xbf2cfe04	-0.675751
101	0x3f81fbe2	1.0154994
102	0xbf9a0113	-1.2031578
103	0xbedf90cb	-0.43665156
104	0x3dfe6e6d	0.12423406
105	0x3ed19936	0.40937203
106	0x3f963c3c	1.1737132
107	0x3fa9eec3	1.3275989
108	0xbe08865c	-0.13332504
109	0xbf8f5c15	-1.1199976
110	0x3fd058c9	1.6277095
111	0xbf112a73	-0.567054
112	0xbe25a969	-0.16177906
113	0xbf889a16	-1.0672023
114	0xbf255d31	-0.64595324
115	0xbf20553f	-0.62630075
116	0x3e9e8765	0.30962673
117	0xbf679be4	-0.90472245
118	0xbf0dd111	-0.55397135
119	0x3eb0db2c	0.34542215
120	0xbf006608	-0.5015569
121	0x3f84d4e2	1.0377467
122	0xbf0f3cbf	-0.55952066
123	0x3e825879	0.25458124
124	0xbf70226a	-0.9380251
125	0x3ea0c614	0.31401122
126	0xbebebd6a	-0.37253886
127	0x3f49c2d1	0.7881289
128	0xbf38c4ec	-0.7217548
129	0x3f08a45c	0.5337579
130	0xbfa807b0	-1.3127346
131	0xbf8af1eb	-1.0855078
132	0xbf66573e	-0.8997687
133	0x3f8ea5b0	1.1144314
134	0x3f41485e	0.7550105
135	0x3d7fe9c3	0.062478792
136	0xbf54a78b	-0.8306815
137	0x3e07dba5	0.13267381
138	0x3e4f8e10	0.20269036
139	0xbe866ce1	-0.26254943
140	0xbe8a1e0e	-0.26976055
141	0xbe615757	-0.22005974
142	0x3fa00b05	1.2503363
143	0xbeef9213	-0.46791133
144	0x3f839c47	1.0282067
145	0x3f8d6e25	1.1049238
146	0xbfa57b76	-1.2928302
147	0x3fbcf9c1	1.4763719
148	0x3e8575be	0.26066393
149	0x3e7945aa	0.24342981
150	0x3dcb6c3b	0.09932753
151	0xbf362a2c	-0.711581
152	0xbed488bd	-0.41510573
153	0xbed6436f	-0.41848323
154	0xbf94e252	-1.1631567
155	0xbf8b81b1	-1.0898954
156	0xbeefaada	-0.46810037
157	0xbf9927e1	-1.1965295
158	0xbf895c28	-1.0731249
159	0x3f9db2b0	1.2320156
160	0x3ed5359c	0.41642463
161	0xbfa2e3d6	-1.272578
162	0xbf352b24	-0.7076895
163	0xbf3b5fdc	-0.73193145
164	0xbecbf448	-0.3983481
165	0xbf0c74e4	-0.5486586
166	0x3f610242	0.8789407
167	0x3f8c6088	1.0966959
168	0xbed25a3b	-0.41084465
169	0xbe69193f	-0.22763537
170	0x3f8edb92	1.1160758
171	0xbe8c3947	-0.2738745
172	0x3f4c22e2	0.79740727
173	0xbf16153a	-0.5862614
174	0xbf0f8f77	-0.56078285
175	0x3f311be9	0.6918321
176	0x3f8e54aa	1.1119587
177	0xbf7a6d9f	-0.9782352
178	0xbf256edf	-0.646223
179	0xbf4ea5ba	-0.8072163
180	0x3f2a381b	0.6649186
181	0x3f3e3f31	0.7431517
182	0xbe8e0854	-0.2774073
183	0x3f8c2683	1.0949253
184	0xbf3da209	-0.7407537
185	0x3dced1f4	0.10098639
186	0xbf5e3935	-0.8680604
187	0xbf84be23	-1.0370525
188	0xbf822fe4	-1.0170865
189	0xbf831d2c	-1.0243278
190	0xbf93f442	-1.1558917
191	0xbf871e3b	-1.0556101
192	0x3e153e6c	0.14574593
193	0xbf9af4c8	-1.2105951
194	0xbde08adb	-0.109639846
195	0x3f9614f4	1.1725144
196	0xbf09f920	-0.5389576
197	0xbf372dfa	-0.7155453
198	0xbfc50aed	-1.5393959
199	0xbf0b47a3	-0.54406184

fc1.bias f4 [50]
0	0xbf58d33c	-0.8469732
1	0x3dc38fec	0.09548935
2	0x3e196860	0.14981222
3	0xbd3948e9	-0.04523555
4	0x3ec04229	0.37550476
5	0x3ec1c9ba	0.37849218
6	0x3e15093e	0.14554307
7	0x3d64f4c4	0.05589749
8	0x3e0a7775	0.13522132
9	0xbe09e551	-0.13466384
10	0x3e1934cc	0.14961547
11	0xbe1bceef	-0.15215658
12	0xbf93d71f	-1.1550025
13	0x3f5a9bc2	0.8539392
14	0xbe539e73	-0.20665912
15	0x3eb5a03a	0.35473806
16	0x3f8d90ea	1.1059849
17	0xbe6ab32c	-0.22919911
18	0x3f2bc455	0.67096454
19	0xbde17457	-0.11008518
20	0xbef0bf9b	-0.47021183
21	0x3e9041dc	0.28175247
22	0x3efa0af7	0.4883649
23	0xbde8be66	-0.113644406
24	0xbe9ca6d3	-0.30596027
25	0xbf2f0b74	-0.6837685
26	0x3e6ef73f	0.23336504
27	0x3e7346c2	0.2375746
28	0x3ddc5ee8	0.107602894
29	0x3f58bfdf	0.8466777
30	0xbd66d00e	-0.05635076
31	0x3ecf524c	0.40492475
32	0x3d9aeda5	0.07564858
33	0x3ebae444	0.36502278
34	0xbe9c998d	-0.305859
35	0xbe4773e2	-0.194778
36	0x3f24dee9	0.64402634
37	0x3e82b87e	0.2553138
38	0x3f36ffc2	0.71484005
39	0x3eb5c3b1	0.35500863
40	0xbf211e49	-0.62936836
41	0x3e0186be	0.12649056
42	0xbf2323c2	-0.6372644
43	0x3f6026e7	0.8755936
44	0xbee06863	-0.4382964
45	0x3e14dff1	0.14538552
46	0x3e1cf10a	0.15326324
47	0xbf01ed29	-0.507525
48	0x3ef37083	0.47546777
49	0x3e892c32	0.2679153

fc2.weight f4 [50, 50]
0	0xbe0a6320	-0.13514376
1	0x3e7cd4b2	0.24690512
2	0x3eb893ab	0.36050162
3	0xbe092ba5	-0.13395555
4	0x3d9cbb30	0.07652891
5	0xbe0a2be4	-0.13493305
6	0x3d914be4	0.07094553
7	0xbdca6a59	-0.098835655
8	0xbc540ad0	-0.012942031
9	0x3e515dcb	0.20445935
10	0xbd096927	-0.033547547
11	0x3c6a80e4	0.0143129565
12	0xbf9250bd	-1.1430889
13	0xbd9a26bb	-0.075269185
14	0xbeeb009f	-0.4589891
15	0x3da51a79	0.0806169
16	0x3d9c50dc	0.0763261
17	0xbc28e73b	-0.010309036
18	0x3ef2d6fa	0.4742964
19	0xbf9e0336	-1.234473
20	0x3d939316	0.07205789
21	0x3e4271a2	0.1898866
22	0xbe8c0871	-0.2735019
23	0x3e0624ef	0.13100027
24	0xbe039338	-0.12849128
25	0xbeae5268	-0.34047246
26	0xbddde96f	-0.108355395
27	0xbda65248	-0.08121163
28	0x3e5b0e6a	0.21392217
29	0xbe959fa2	-0.29223353
30	0xbe2f4f1b	-0.1712002
31	0x3e098ad9	0.13431872
32	0xbf09f403	-0.5388796
33	0xbe15e6be	-0.14638802
34	0xbcadd0a3	-0.02121765
35	0xbf06e2bc	-0.5268972
36	0x3ed660f5	0.41870847
37	0xbe82383b	-0.25433525
38	0x3eb0fbe6	0.34567183
39	0x3e9fb545	0.31192985
40	0xbf06bd60	-0.52632713
41	0x3ee2765c	0.44230926
42	0xbe179fa3	-0.1480699
43	0xbd126813	-0.035743784
44	0x3e43a74a	0.19106784
45	0x3e8d247c	0.27566898
46	0xbe88a960	-0.26691723
47	0xbe4627fa	-0.19351187
48	0xbe0c572e	-0.13705131
49	0xbe2b810a	-0.16748443
50	0xbd1ccca6	-0.038281105
51	0xbe2951c2	-0.16535094
52	0xbdb3e844	-0.087845355
53	0xbe40dd2a	-0.18834367
54	0x3d575758	0.052573532
55	0x3de11bd1	0.10991634
56	0x3d86bc9e	0.065789446
57	0xbe1a0461	-0.15040733
58	0xbeb3cbc2	-0.35116392
59	0xbe678501	-0.2260933
60	0xbe173d34	-0.14769441
61	0xbdefc716	-0.117078945
62	0x3f34bd66	0.706015
63	0x3e985d02	0.2975846
64	0x3e40d76c	0.18832177
65	0x3e6bab3e	0.23014542
66	0xbe878435	-0.26468053
67	0x3e9de869	0.30841377
68	0x3dbd1080	0.09231663
69	0x3f56dcd2	0.83930695
70	0xbd8f0c5c	-0.06984779
71	0xbd7cf640	-0.06175828
72	0x3ecdd460	0.40201092
73	0x3e82f3c2	0.25576597
74	0x3e64b932	0.22336271
75	0x3dbb786b	0.09153827
76	0xbd6fad69	-0.058514986
77	0xbc07b5b0	-0.008283064
78	0x3e3b90fe	0.18317029
79	0xbdc8e172	-0.09808625
80	0x3e336d74	0.17522222
81	0xbd6fd19b	-0.058549505
82	0xbc53a6d8	-0.012918197
83	0x3eb16297	0.3464553
84	0x3e85639e	0.26052564
85	0xbe767889	-0.24069418
86	0x3ec11ad1	0.37715772
87	0xbeb06bdb	-0.34457287
88	0xbf381333	-0.71904296
89	0x3e44d9de	0.19223735
90	0xbd5085be	-0.050908796
91	0x3e391115	0.18072923
92	0xbeabd64b	-0.3356193
93	0x3ec8d466	0.39224547
94	0xbda03a9c	-0.07823679
95	0xbe63f827	-0.22262631
96	0x3e3857d3	0.18002252
97	0x3e35ce04	0.1775437
98	0x3de1f616	0.11033265
99	0x3e2efce4	0.17088658
100	0xbec99177	-0.39368793
101	0xbec1cbf9	-0.3785093
102	0xbdc5cb39	-0.09657902
103	0x3d9aa99c	0.07551882
104	0xbf1c9812	-0.6116954
105	0x3dd039ba	0.101672605
106	0xbea664f7	-0.32498905
107	0x3e3e74a6	0.18599185
108	0xbeba1bb0	-0.3634925
109	0x3d82cc5b	0.06386634
110	0x3eb89dd3	0.3605791
111	0x3dc1d48e	0.0946437
112	0xbd03fd79	-0.032224152
113	0xbe7edc8b	-0.24888818
114	0xbe90c860	-0.28277874
115	0xbbd2d6ec	-0.006434312
116	0xbfdc134f	-1.7193393
117	0xbec416e7	-0.38298723
118	0xbfdde585	-1.7335669
119	0x3f88599c	1.0652347
120	0xbeddfc15	-0.43356386
121	0xbfbf89b2	-1.4963896
122	0xbe89a881	-0.2688637
123	0xbe5ec167	-0.21753465
124	0xbe0bd1c8	-0.13654244
125	0xbda7a664	-0.08186033
126	0xbe12e65f	-0.14345692
127	0x3d49b59a	0.049245454
128	0xbdb96128	-0.09051734
129	0xbe865ce8	-0.26242757
130	0x3eeebee2	0.46630007
131	0x3eec291a	0.46125108
132	0x3e669f65	0.22521742
133	0xbe8bceaa	-0.2730611
134	0x3d245599	0.040120695
135	0xbeb9a2d2	-0.36257035
136	0x3e84f2b0	0.25966406
137	0xbe6f2088	-0.23352253
138	0x3eaa779c	0.3329438
139	0x3d48458c	0.04889445
140	0xbd9e1463	-0.07718732
141	0xbefad780	-0.48992538
142	0xbf2db844	-0.6785929
143	0xbf994a99	-1.197589
144	0x3e610e38	0.2197808
145	0x3e45a585	0.19301422
146	0x3e8837d6	0.266051
147	0x3ee6a7f6	0.4505002
148	0xbf9fc123	-1.2480816
149	0x3f4d72a4	0.8025305
150	0x3d81b67e	0.06333636
151	0xbe6cf566	-0.23140487
152	0xbd72083f	-0.059089895
153	0xbe52d66d	-0.2058961
154	0xbe56f5a4	-0.20992142
155	0x3ef147f8	0.4712522
156	0xbe887267	-0.26649782
157	0xbdc7e12a	-0.097597435
158	0x3da7b966	0.08189659
159	0x3e21ac89	0.15788473
160	0x3ec40150	0.3828225
161	0x3ba3d989	0.0050002974
162	0xbe1ee05d	-0.15515275
163	0xbee2b91d	-0.44281855
164	0xbd7f8377	-0.062381234
165	0x3da7f48a	0.08200939
166	0xbdc87d4c	-0.097895235
167	0x3f1329d8	0.57485723
168	0x3e383fc2	0.17993072
169	0xbfa26ea2	-1.2690012
170	0xbe3d4f86	-0.18487367
171	0xbe2a0362	-0.16602853
172	0xbe80f7db	-0.251891
173	0xbe363513	-0.17793684
174	0xbe79fce7	-0.24412881
175	0xbec496f5	-0.3839642
176	0xbd0cc161	-0.034364108
177	0x3e6f4e21	0.23369648
178	0xbc37e62f	-0.011224314
179	0xbec59a00	-0.38594055
180	0x3e6f6c29	0.23381104
181	0xbe19821e	-0.14991042
182	0xbebca27d	-0.3684272
183	0x3de09bd8	0.10967225
184	0xbdc6be32	-0.097042456
185	0x3d87bf0b	0.066282354
186	0x3ea200ba	0.3164118
187	0x3d16f8df	0.036858436
188	0x3f05efdf	0.5231914
189	0xbd4e799e	-0.050408952
190	0xbd4e0e6a	-0.050306715
191	0x3ee12aca	0.43977958
192	0xbea439a4	-0.32075226
193	0x3e8595d1	0.26090863
194	0x3e88824d	0.26661912
195	0x3e819570	0.25309324
196	0xbf2edf12	-0.6830913
197	0xbed9a4db	-0.42508587
198	0xbe49f62f	-0.19722818
199	0xbe963500	-0.2933731
200	0xb9401650	-0.00018318859
201	0xbf25eae0	-0.64811516
202	0xbc9b58af	-0.018963186
203	0x3ebe6c34	0.37191927
204	0xbe98f975	-0.2987782
205	0x3d84f7de	0.064925894
206	0x3d8bb486	0.068215415
207	0xbe2372ff	-0.15961836
208	0x3dc48694	0.09595981
209	0xbe25f47b	-0.16206543
210	0x3c7d72f6	0.015469303
211	0xbebee34a	-0.37282783
212	0x3f073c64	0.52826524
213	0x3e1aefd9	0.15130557
214	0x3cda553a	0.026651967
215	0xbe5c9786	-0.21542177
216	0xbe11599c	-0.1419434
217	0xbed5167e	-0.41618723
218	0x3c826ec8	0.015921965
219	0xbcdfe7eb	-0.027332267
220	0xbea7f287	-0.3280222
221	0xbd5be4ae	-0.053684883
222	0x3f3dc8df	0.7413463
223	0x3e006312	0.12537792
224	0x3e55d2b3	0.20881157
225	0x3ec13a3a	0.37739736
226	0x3e0b6357	0.13612114
227	0x3dbe7144	0.092989475
228	0xbebc315d	-0.3675641
229	0x3e9d2718	0.3069389
230	0x3eb26fcf	0.34850928
231	0x3e382521	0.17982914
232	0x3db4d783	0.08830168
233	0x3e56b13d	0.20966049
234	0xbbdcd42e	-0.006739161
235	0xbe245ff5	-0.1605223
236	0x3e1c5825	0.15268
237	0xbeb8c551	-0.3608804
238	0xbefee62a	-0.49784976
239	0x3e8677e9	0.2626336
240	0x3eaf3684	0.3422128
241	0x3d234543	0.039860975
242	0x3e108608	0.14113629
243	0x3babbc05	0.0052409195
244	0xbe926e4b	-0.28599772
245	0x3e8eebf0	0.2791438
246	0xbd39aceb	-0.045330923
247	0xbea21246	-0.31654567
248	0x3e6322d1	0.2218125
249	0x3f053b68	0.5204377
250	0x3de7de4d	0.113216974
251	0x3eb1a89c	0.3469895
252	0xbe3537d0	-0.17697072
253	0xbe7a7384	-0.24458128
254	0x3d30885a	0.043098785
255	0xbdcf65bb	-0.101268254

fc2.bias f4 [50]
0	0x3e126c64	0.1429916
1	0x3c8f70e8	0.017509893
2	0xbd2831b7	-0.041063037
3	0x3d7bb11b	0.061448198
4	0xbb55f7d4	-0.0032648938
5	0xbe620bb9	-0.22074784
6	0x3e0e0b16	0.13871416
7	0x39ba924e	0.0003558569
8	0xbe11289e	-0.1417565
9	0x3e92da5d	0.28682223
10	0x3da77f75	0.081786074
11	0x3de61fbb	0.11236521
12	0x3e392ffd	0.18084712
13	0x3dead5df	0.11466574
14	0x3e4869eb	0.19571654
15	0xbbb7b4a9	-0.005606253
16	0xbdad9278	-0.08475202
17	0x3e250788	0.16116154
18	0x3e54c71e	0.20779082
19	0x3decacde	0.11556409
20	0x3d96a9eb	0.07356628
21	0x3ca9530b	0.02066948
22	0xbe03c5e4	-0.12868458
23	0x3d351a31	0.04421443
24	0x3e02f95a	0.12790433
25	0xbe113ab4	-0.1418255
26	0x3c885954	0.016644157
27	0x3d699fb3	0.057037067
28	0xbe650e2c	-0.22368687
29	0xbe1cfde1	-0.15331222
30	0x3df6f2e0	0.120580435
31	0x3eb8ee1b	0.3611916
32	0x3e00c781	0.12576105
33	0xbc5223ea	-0.012825945
34	0x3d8b72c6	0.06809001
35	0xbdb850a9	-0.0899976
36	0x3e434aa3	0.1907144
37	0x3d1759ff	0.03695106
38	0xbe370db9	-0.17876329
39	0xbdae453c	-0.08509299
40	0x3e86cc76	0.26327866
41	0xbda6e24b	-0.08148631
42	0xbc6366dd	-0.013879505
43	0x3e0a88c7	0.13528739
44	0x3e36b625	0.1784292
45	0x3e672635	0.22573169
46	0x3dc820c5	0.09771875
47	0x3e7c87e0	0.24661207
48	0xbe46fae9	-0.19431652
49	0xbdf31f12	-0.118711606

fc_out.weight f4 [10, 50]
0	0x3dec3fb6	0.115355894
1	0xbe5523e3	-0.20814471
2	0xbdfd0db2	-0.12356128
3	0x3d9f26a9	0.07771046
4	0x3e1a4f81	0.15069391
5	0x3ee143e2	0.43997103
6	0x3dbcdb1a	0.09221478
7	0xbf597c9a	-0.8495575
8	0x3e9df8ad	0.30853787
9	0x3cfe7e5d	0.031066114
10	0xbf4c833e	-0.7988776
11	0xbe906526	-0.2820217
12	0x3e81e203	0.25367746
13	0xbead65e2	-0.33866793
14	0xbdfe5c12	-0.12419905
15	0xbd108bf5	-0.035289723
16	0x3eef53f6	0.46743745
17	0xbee9b0c9	-0.4564269
18	0x3ec89811	0.39178517
19	0x3e312df9	0.17302693
20	0x3e2ae109	0.16687407
21	0xbe77beac	-0.2419383
22	0xbf059d65	-0.5219329
23	0xbd7b97a8	-0.061423928
24	0xbe901615	-0.28141847
25	0xbdff8fb5	-0.12478582
26	0x3ee78d5e	0.45225042
27	0x3ef74e11	0.48301747
28	0x3efc963b	0.49333367
29	0xbf6837f0	-0.90710354
30	0x3dee2ae7	0.11629277
31	0x3d7e3bd2	0.062068768
32	0x3ee87d62	0.4540816
33	0xbf6ed960	-0.9330044
34	0xbedd2f22	-0.43200022
35	0xbd8c8eae	-0.068631515
36	0x3effedb5	0.49986044
37	0x3f0c3772	0.547721
38	0xbf11f9a8	-0.5702157
39	0xbed58379	-0.41701868
40	0xbee904f7	-0.455116
41	0x3edc9103	0.43079385
42	0xbe38c755	-0.18044789
43	0x3db57d6f	0.08861815
44	0xbe6d381f	-0.2316594
45	0x3ef7fc3e	0.48434633
46	0xbe7f1556	-0.24910483
47	0x3f0e0249	0.55472237
48	0x3e38e30d	0.18055363
49	0xbf492f9e	-0.78588283
50	0x3ec0effe	0.376831
51	0xbe8914c5	-0.26773658
52	0x3e14767e	0.14498326
53	0x3f0793b6	0.52959764
54	0xbe2a98db	-0.16659872
55	0x3dca8c97	0.09890097
56	0xbd882c6b	-0.06649097
57	0xbe5ab662	-0.21358636
58	0x3f05c1a5	0.52248603
59	0xbd6e9141	-0.058243994
60	0xbf2fd015	-0.68676883
61	0x3da85c68	0.0822075
62	0x3f21531f	0.6301746
63	0xbec95f30	-0.39330435
64	0xbeb59029	-0.35461548
65	0x3ca4ca5b	0.020116022
66	0x3ed43194	0.41444075
67	0xbf192840	-0.5982704
68	0x3df4b46c	0.11948475
69	0x3c101c0b	0.008795748
70	0x3e4b2375	0.19837745
71	0xbe30c589	-0.17262854
72	0x3cfbf16d	0.03075477
73	0xbee00fb1	-0.43761972
74	0xbe5a5e2b	-0.21324985
75	0x3e9140bc	0.283697
76	0x3ea9e0d3	0.3317934
77	0x3ea37e87	0.3193247
78	0x3e9de3fb	0.30837998
79	0xbf49fcd8	-0.78901434
80	0xbe135f36	-0.14391789
81	0x3ec79914	0.38983977
82	0xbe19e20f	-0.15027641
83	0xbf160bc9	-0.5861173
84	0xbedd213f	-0.43189427
85	0x3f2ac8de	0.6671275
86	0x3e4eccc3	0.20195298
87	0x3ec1645e	0.37771887
88	0xbf27c0ae	-0.6552838
89	0xbe1b6311	-0.1517451
90	0xbefe76f0	-0.49700117
91	0x3e69d1ac	0.2283389
92	0x3e95768a	0.29192
93	0xbe800cef	-0.25009868
94	0x3d8e22ab	0.06940206
95	0x3f08aa33	0.53384703
96	0xbd96007d	-0.07324312
97	0x3eb7d3f4	0.35903895
98	0xbdefb3ab	-0.11704191
99	0xbefd2043	-0.49438676
100	0x3e8675b2	0.2626167
101	0xbd1ab5b5	-0.037770946
102	0xbe052fa8	-0.1300646
103	0x3f0bed6e	0.54659164
104	0xbe40ba6d	-0.18821116
105	0xbd56d049	-0.05244473
106	0x3d96bb1a	0.073599055
107	0xbcb6376f	-0.02224323
108	0x3df8c65f	0.12147211
109	0xbea18cd8	-0.31552768
110	0xbef0176a	-0.46892864
111	0x3e39e0e3	0.18152194
112	0x3e225c7f	0.15855597
113	0xbecce5fb	-0.4001921
114	0xbe90bd9b	-0.28269657
115	0xbf10e573	-0.5660011
116	0x3e664db6	0.22490582
117	0xbef97b94	-0.48727095
118	0x3f0e4979	0.5558086
119	0x3df121b5	0.11774007
120	0x3ea221de	0.31666464
121	0xbbfaf107	-0.007658127
122	0xbe468ca0	-0.19389582
123	0xbf000214	-0.5000317
124	0xbea2a9b8	-0.3177011
125	0x3e3971e9	0.1810986
126	0x3ee7839c	0.45217597
127	0x3f291d8e	0.6606072
128	0x3f346f00	0.7048187
129	0xbf0ec548	-0.5576978
130	0xbe619c06	-0.22032174
131	0x3e87288d	0.26398125
132	0x3e36709c	0.17816395
133	0xbe684da4	-0.22685868
134	0xbe79171e	-0.24325225
135	0x3e8506c8	0.25981736
136	0x3e511637	0.2041863
137	0x3eea6fdd	0.4578847
138	0xbec9a9fb	-0.39387497
139	0xbe879a00	-0.2648468
140	0xbed6da25	-0.41963306
141	0x3f0d4ae6	0.5519241
142	0x3e0675df	0.13130902
143	0xbe919528	-0.2843411
144	0x3d65d389	0.05610994
145	0x3f0b30d5	0.54371387
146	0xbe55f724	-0.20895058
147	0x3eaca720	0.33721256
148	0x3e90dd33	0.28293762
149	0xbf1b1a79	-0.6058727
150	0x3d7f16d3	0.062277626
151	0x3db0a1a2	0.08624579
152	0xbee17e23	-0.44041547
153	0x3e9c01fe	0.3047027
154	0xbe008945	-0.12552364
155	0x3e4dc302	0.20093921
156	0xbe3c5ff4	-0.18395978
157	0xbbb9ab81	-0.005666197
158	0x3f2510b3	0.64478606
159	0xbecf8199	-0.40528563
160	0xbe78c3de	-0.24293467
161	0x3e0c25cb	0.13686292
162	0x3e8e14de	0.27750295
163	0xbe9619c8	-0.29316545
164	0xbe39d018	-0.18145788
165	0xbf2eaead	-0.68235284
166	0x3ec54515	0.38529268
167	0xbf1ba99e	-0.6080569
168	0x3f14673e	0.57970035
169	0x3c982d87	0.018576397
170	0x3e40c683	0.18825726
171	0xbf23aaad	-0.63932306
172	0xbf18c9aa	-0.59682715
173	0xbd8a994e	-0.06767522
174	0xbeaa1b3f	-0.33223912
175	0x3dee41bb	0.11633631
176	0x3ee27cd8	0.44235873
177	0x3e60fc53	0.21971254
178	0x3eb1bc66	0.3471405
179	0xbed13090	-0.40857363
180	0xbe9144d5	-0.28372827
181	0x3f015a62	0.5052854
182	0x3f039423	0.51397914
183	0xbf035f83	-0.51317614
184	0x3de3219b	0.11090394
185	0x3e58b9bd	0.21164604
186	0x3f01fc00	0.50775146
187	0x3f0dd27c	0.553993
188	0xbef1dfea	-0.47241145
189	0xbeedc765	-0.46441188
190	0xbeee71ea	-0.46571285
191	0x3e5b0a7a	0.21390715
192	0x3ec65cae	0.38742584
193	0xbe51989c	-0.20468372
194	0xbd430a75	-0.047617394
195	0x3ed884d1	0.4228883
196	0xbecf07a4	-0.40435517
197	0x3f2a35b8	0.6648822
198	0x3e99db1b	0.30049977
199	0xbe86dcb9	-0.26340273
200	0x3f0ac5cd	0.5420807
201	0xbe9dfe01	-0.30857852
202	0xbeceb407	-0.40371725
203	0x3ee70856	0.45123547
204	0xbe833acf	-0.25630805
205	0x3eb2ee5b	0.34947476
206	0x3e4b663f	0.19863223
207	0xbdd92999	-0.10603637
208	0x3ef78a56	0.4834773
209	0xbe906b83	-0.28207025
210	0xbed0a081	-0.40747455
211	0xbe8fa4d5	-0.28055444
212	0x3eb10ae8	0.34578633
213	0xbe7ac808	-0.24490368
214	0xbe192f8a	-0.14959541
215	0xbee3a040	-0.444582
216	0x3efb0657	0.49028274
217	0xbf06b4d2	-0.5261966
218	0x3efe3de4	0.49656594
219	0xbc2898ae	-0.010290308
220	0x3e64570e	0.22298834
221	0xbdce9bfc	-0.100883454
222	0xbe0025cc	-0.12514418
223	0xbee401c1	-0.44532588
224	0x3de825b4	0.11335316
225	0x3e8ebf83	0.27880487
226	0x3eb930a4	0.36169922
227	0x3f07cb4c	0.5304458
228	0x3f00b137	0.5027041
229	0xbeb1be08	-0.34715295
230	0xbe8d9c2e	-0.27658218
231	0x3e6f327a	0.23359099
232	0x3ed98f0a	0.42491943
233	0xbe167c19	-0.14695777
234	0x3d0625ef	0.03275102
235	0x3dd1704a	0.102264956
236	0x3dc014e1	0.09378982
237	0x3f0d9260	0.55301476
238	0xbed0d461	-0.40787032
239	0xbc55480d	-0.0130176665
240	0xbeb3fbfb	-0.35153183
241	0x3e170e41	0.14751531
242	0x3db827a3	0.08991935
243	0xbe9f7e7c	-0.31151187
244	0xbece1df9	-0.40257242
245	0x3ec32f41	0.3812199
246	0xbe3fabd7	-0.18717895
247	0x3eeabf4d	0.45849076
248	0x3e4ee30d	0.202038
249	0xbeea50cc	-0.45764768
250	0x3e589d22	0.21153691
251	0x3e115db3	0.141959
252	0xbed7bdfd	-0.42137137
253	0x3f12abee	0.57293594
254	0xbdfd4406	-0.1236649
255	0x3df74829	0.1207431

fc_out.bias f4 [10]
0	0xbe326e0c	-0.17424792
1	0xbe931cec	-0.28733003
2	0x3cc05595	0.023478309
3	0xbe03e5ec	-0.12880677
4	0x3d8bab9e	0.06819843
5	0xbe3ab157	-0.18231712
6	0xbd5a813d	-0.053345907
7	0xbe754a72	-0.2395418
8	0xbe171810	-0.14755273
9	0x3ddcbaa1	0.10777784
