models/demo_J5_6610165.pt (torch_old, 3816 bytes, 4 tensors)

fc1.weight f4 [50, 4]
1.1566398 -1.5615516 1.0055444 3.1705306 -1.5121614 0.44895634 -1.0241594 1.6385082
2.0587463 -2.2925663 1.3671439 1.7246984 -1.6356863 1.1211934 -0.38332415 1.6207165
2.4963732 -2.0983183 1.3066971 1.9538774 -0.51648945 0.042534243 -1.6120745 1.4237248
-0.6367603 -0.42617404 -0.72259706 -0.9386642 -0.28156552 0.412157 -1.7793691 -0.95699745
0.9299904 1.1691521 0.1627512 -0.67507476 1.8442627 -1.6454742 1.2813207 1.9417531
0.34793055 0.10443759 0.0759629 -0.8665893 1.0347043 -1.1991771 2.8833854 1.154281
-1.1208131 0.43695575 -2.182176 -0.5226096 -1.7713994 -0.5101158 -0.954933 0.680531
0.31765085 0.07205949 -0.6087395 -1.1281575 -0.08167037 0.85908103 -2.032874 -1.1080775
-0.90172964 -0.89348966 -0.033184737 -0.085908286 -0.7822825 0.17952424 -1.8625543 -0.8810272
-0.95661443 -1.3023741 -0.10824379 1.1511835 -0.20421539 0.25059733 -1.4985112 -0.62893873
-0.76105595 2.2369266 0.39365673 -2.363719 2.752765 -0.8779926 -0.47061366 2.9524298
-1.418736 -0.13022602 -0.5446529 -0.94147104 1.5171318 -1.2482928 -1.1308538 1.0271807
-0.46839282 0.7131723 -1.6507592 -0.54246336 0.49386063 0.65381706 0.9039799 0.8733477
-0.011871897 -1.525686 -1.8185111 0.48937628 0.9448015 -0.11419577 -1.4282995 0.95919317
-1.9023616 1.3474846 -0.4647744 -2.885611 -1.0555037 0.40544683 -0.38315693 -0.9258314
-0.13165222 0.9815079 -1.9751376 -0.6348069 -1.683 0.5530095 0.40601134 0.7123365
-1.5859716 0.8221369 -1.9955035 -0.26827294 -0.9416591 -0.5781174 -1.6796467 -0.7312783
-0.24648 2.0486019 1.5473472 -1.0320419 -0.38468945 -0.8133851 -0.2841121 1.373282
0.42980933 -0.63153136 -0.48465943 1.3241078 -1.8678476 0.7538056 0.818707 1.300132
2.1374893 -1.1860847 0.3694141 3.4639425 0.78507376 1.0550302 -1.6823134 1.3614362
-0.5063744 1.1430231 -0.7875065 -1.3342957 2.2155826 -2.1384783 1.0897388 1.1133214
1.1142231 1.0580748 0.24482858 -0.7690635 1.2437737 -1.7514722 0.05403141 3.1033084
0.41110787 0.27226046 -1.4726275 0.98995167 -0.0071380516 0.08561709 -0.1584351 1.0943525
-1.0491629 0.5634258 -2.192045 -0.8283921 0.41584077 -0.40371212 -0.05263056 1.2006341
1.2688768 -1.5705425 1.0311453 3.1362567 0.46029004 0.46564832 -1.0000696 0.6019116
00000000: c60c 943f ece0 c7bf aeb5 803f f9e9 4a40
00000010: 818e c1bf 9bdd e53e a817 83bf a3ba d13f
00000020: 80c2 0340 68b9 12c0 92fe ae3f ebc2 dc3f
00000030: 2b5e d1bf 4483 8f3f 1043 c4be a373 cf3f
00000040: 94c4 1f40 d94a 06c0 da41 a73f a818 fa3f
00000050: a738 04bf 6338 2e3d 7558 cebf 9d3c b63f
00000060: b902 23bf 7c33 dabe 1ffc 38bf 4c4c 70bf
00000070: 5b29 90be 3e06 d33e 5ec2 e3bf c9fd 74bf
00000080: da13 6e3f c7a6 953f 40a8 263e b3d1 2cbf
00000090: cd10 ec3f e69e d2bf 5102 a43f 5e8b f83f
000000a0: f423 b23e 60e3 d53d 7092 9b3d ccd8 5dbf
000000b0: 3171 843f a37e 99bf 6389 3840 7bbf 933f
000000c0: ce76 8fbf aab8 df3e c6a8 0bc0 bec9 05bf
000000d0: 37bd e2bf f396 02bf 7d76 74bf 4837 2e3f
000000e0: 22a3 a23e ed93 933d 5ad6 1bbf 7767 90bf
000000f0: cc42 a7bd bcec 5b3f 9c1a 02c0 7cd5 8dbf
00000100: c1d7 66bf bdbb 64bf b8ec 07bd aff0 afbd
00000110: aa43 48bf 34d5 373e 2e68 eebf 008b 61bf
00000120: afe4 74bf 32b4 a6bf ecae ddbd fb59 933f
00000130: d71d 51be 4b4e 803e 37cf bfbf 2102 21bf
00000140: 90d4 42bf ce29 0f40 608d c93e 2c47 17c0
00000150: 4d2d 3040 1fc4 60bf 46f4 f0be 9cf4 3c40
00000160: 2499 b5bf f859 05be 5f6e 0bbf 3f04 71bf
00000170: 6031 c23f 0fc8 9fbf d1bf 90bf a87a 833f
00000180: 2fd1 efbe 7692 363f 144c d3bf e1de 0abf
00000190: 4ddb fc3e 8e60 273f 3a6b 673f b793 5f3f
000001a0: 5882 42bc ae49 c3bf f9c4 e8bf 878f fa3e
000001b0: 83de 713f 79df e9bd 85d2 b6bf af8d 753f
000001c0: 9680 f3bf 607a ac3f e9f6 edbe daad 38c0
000001d0: bf1a 87bf ba96 cf3e 252d c4be 4903 6dbf
000001e0: d7cf 06be 1a44 7b3f 4fd1 fcbf b482 22bf
000001f0: 8b6c d7bf 0892 0d3f b8e0 cf3e af5b 363f
00000200: 1e01 cbbf 9077 523f a96c ffbf 125b 89be
00000210: 9210 71bf 80ff 13bf aafe d6bf 0e35 3bbf
00000220: 4165 7cbe 4b1c 0340 790f c63f f319 84bf
00000230: 04f6 c4be 023a 50bf 2477 91be b4c7 af3f
00000240: f80f dc3e 0aac 21bf 4825 f8be 5d7c a93f
00000250: a115 efbf 67f9 403f c896 513f ba6a a63f
00000260: a0cc 0840 a0d1 97bf d823 bd3e 3cb1 5d40
00000270: 98fa 483f 3b0b 873f 0c56 d7bf 8b43 ae3f
00000280: c1a1 01bf 954e 923f 079a 49bf 34ca aabf
00000290: 1bcc 0d40 d4dc 08c0 907c 8b3f 5181 8e3f
000002a0: dd9e 8e3f ff6e 873f 58b4 7a3e 58e1 44bf
000002b0: fa33 9f3f 3e30 e0bf 0a50 5d3d 9b9c 4640
000002c0: bb7c d23e b965 8b3e 0f7f bcbf 796d 7d3f
000002d0: 51e6 e9bb 0358 af3d d03c 22be be13 8c3f
000002e0: f84a 86bf ac3c 103f 774a 0cc0 8111 54bf
000002f0: 15e9 d43e 5bb3 cebe 2493 57bd 61ae 993f
00000300: 8e6a a23f 8907 c9bf 92fc 833f 6eb8 4840
00000310: 23ab eb3e 7569 ee3e 4802 80bf e116 1a3f

fc1.bias f4 [50]
1.9963019 1.1377021 3.9911635 0.9390574 3.2351818 0.6573609 -0.45264184 -0.53710526
-0.22884583 2.7660902 0.24951816 2.8116012 -1.4691213 0.19434465 0.2729528 -0.5937399
-0.33058992 -1.0328724 0.44927865 -0.787207 -1.3926542 2.4392576 -1.223644 1.0921593
-0.29794097 0.2670037 1.3397409 0.8503007 -2.2153826 -1.4536161 -1.0430166 0.26788023
-1.030721 -0.6553397 -0.86287713 1.0659959 1.3014877 0.60551983 2.4765403 0.957536
-1.3243424 2.4044452 0.21107453 2.220601 0.5265942 1.0114791 -0.7308422 1.1545846
2.1561377 -0.14046378
00000000: d286 ff3f 39a0 913f 396f 7f40 1166 703f
00000010: 380d 4f40 ce48 283f acc0 e7be bb7f 09bf
00000020: 9056 6abe 9f07 3140 b081 7f3e 46f1 3340
00000030: 2b0c bcbf 4902 473e 78c0 8b3e 57ff 17bf
00000040: 1543 a9be 2a35 84bf da07 e63e 6686 49bf
00000050: 7e42 b2bf cc1c 1c40 5ea0 9cbf e0cb 8b3f
00000060: b88b 98be b5b4 883e a17c ab3f 4fad 593f
00000070: d4c8 0dc0 1810 babf 9181 85bf 9927 893e
00000080: aaee 83bf 58c4 27bf 84e5 5cbf 8e72 883f
00000090: 2697 a63f 5903 1b3f a37f 1e40 1421 753f
000000a0: 0d84 a9bf 6ee2 1940 ec23 583e 541e 0e40
000000b0: e1ce 063f 2678 813f 7918 3bbf 6ec9 933f
000000c0: 29fe 0940 bdd5 0fbe

fc_out.weight f4 [10, 50]
1.6019099 -0.11590133 -1.3266226 -0.32370114 -0.03144132 -0.33805233 0.27865002 -0.9532963
-0.16682728 -2.1484973 -0.30245757 -1.8950491 -0.3953505 -0.2201124 -0.06171879 -0.7395152
0.28826898 -0.7848656 -0.38523546 -0.6558983 1.9791871 0.64148945 -1.3991203 -1.7883894
0.14805584 0.39017186 -0.55133814 -0.110830426 2.9732914 -0.61657035 -0.26553938 -0.48656636
-0.35520858 -0.8557606 1.3165362 -0.3956421 -0.3384006 -0.12601152 1.0956001 -0.27449358
-1.5826513 0.7895574 -0.3041081 1.601277 -0.47498935 -0.20177822 0.017125634 0.122418046
1.1659343 -0.22074738 1.4446192 -0.15524533 -1.3741201 -0.3355511 -0.9297135 -0.3437035
0.25650337 -0.20163697 -0.12836108 -1.5250376 -0.3048071 -1.2191738 -0.0631331 -0.4881819
0.22682968 -0.58887094 -0.0497876 -0.40353444 -0.40463108 -0.21896133 1.9993715 1.1584487
-0.23236515 -0.97415316 0.10605531 0.033484418 -0.34638777 -0.64361197 1.8277733 -0.49535364
-0.6085733 -0.6239266 -0.34525472 -0.8008368 1.3671709 -0.48143753 -0.83459514 -0.109752335
1.3330309 -0.29515594 -0.5756312 0.002114154 0.15359217 1.4558011 -0.2837841 -0.34821722
-0.5414989 -0.2842494 1.4724416 -0.25689864 1.0511458 -0.40687007 -1.2762747 -0.025576768
-1.1510246 -0.46358487 0.2526349 -0.44426018 0.015473783 -1.1702405 -0.2019899 -1.0125512
-0.2711852 -0.4644855 0.06961498 -0.2808321 -0.094385065 -0.52025914 -0.23523127 -0.63675326
1.8726192 1.371227 -0.41126013 -0.9531792 -0.26597658 0.20658341 -0.4612534 -0.5215976
2.2308424 -0.5159078 -0.36085954 -0.54436815 -0.1516156 -0.6008189 1.651686 -0.6015398
-0.52675307 -0.44694695 1.4657798 -0.22709814 -0.5675225 -0.0805248 0.06657085 1.2434192
-0.080720074 0.1367381 -0.62149596 -0.5240321 1.2627057 -0.37916136 1.3516631 -0.43407136
-1.2540991 -0.47412637 -1.0564984 -0.03629964 -0.29240936 -0.4270718 -0.11107279 -1.2972589
-0.1514073 -0.89828646 -0.500238 -0.28014544 -0.15267304 -0.50977504 0.21323012 -0.6530303
-0.5737479 -0.42023692 2.010858 1.2806988 -0.61774725 -0.7362846 -0.43021172 0.04708978
-0.6380675 -0.51975214 2.052188 -0.43911165 -0.43874514 -0.47137365 -0.28636625 -0.32383347
1.4940752 -0.4920861 -0.30583873 -0.042914435 1.3546479 -0.48516634 -0.49114233 -0.3165832
0.10962513 1.3161609 -0.12970543 -0.20794386 -0.071255796 -0.2850129 1.0713481 -0.028398387
1.3802834 -0.5454207 -1.4295957 -0.20204978 -1.0709077 -0.14391397 -0.042283535 -0.23116314
0.18795374 -0.63319874 0.269228 -0.9511559 -0.20304705 -0.14077604 -0.11445439 -0.5866924
-0.1656187 -0.636129 -0.549632 -0.4279058 2.5045176 1.2290864 -0.35488877 -0.6495266
-0.44739258 0.19869924 -0.5645735 -0.20341627 2.3456612 -0.54181147 -0.20325926 -0.37796664
-0.40511358 -0.31318125 1.3231697 -0.3532557 -0.26573518 -0.4134701 1.1429331 -0.3162316
-0.6614451 -0.4578324 0.12473878 1.281989 -0.5465691 -0.19269826 -0.5544246 -0.41322768
1.0250235 -0.27656978 1.1768574 -0.3882754 -1.0599078 -0.29190275 -1.2187073 -0.424772
00000000: 620b cd3f ad5d edbd c5ce a9bf 28bc a5be
00000010: 9dc8 00bd 3215 adbe 37ab 8e3e 3a0b 74bf
00000020: c5d4 2abe fb80 09c0 b8db 9abe f890 f2bf
00000030: 616b cabe 2565 61be d8cc 7cbd de50 3dbf
00000040: fe97 933e f4ec 48bf 953d c5be f3e8 27bf
00000050: 0156 fd3f a738 243f 6016 b3bf f2e9 e4bf
00000060: f39b 173e 9bc4 c73e 7f24 0dbf 10fb e2bd
00000070: 684a 3e40 8ed7 1dbf c7f4 87be 3a1f f9be
00000080: e6dd b5be 2013 5bbf 4284 a83f 9a91 cabe
00000090: d842 adbe 2a09 01be a03c 8c3f 6c8a 8cbe
000000a0: 5194 cabf 6f20 4a3f 0fb4 9bbe a5f6 cc3f
000000b0: ce31 f3be f39e 4ebe 0f4b 8c3c 50b6 fa3d
000000c0: 563d 953f 9a0b 62be 48e9 b83f a2f8 1ebe
000000d0: 2be3 afbf 5bcd abbe b401 6ebf e8f9 afbe
000000e0: 6954 833e ec79 4ebe 1671 03be 6f34 c3bf
000000f0: ad0f 9cbe e30d 9cbf ed4b 81bd faf2 f9be
00000100: 0a46 683e 3fc0 16bf 15ee 4bbd 119c cebe
00000110: ce2b cfbe 6637 60be 68eb ff3f 0c48 943f
00000120: 21f1 6dbe 1a62 79bf 8733 d93d f526 093d
00000130: bd59 b1be c1c3 24bf 7af4 e93f fe9e fdbe
00000140: 76cb 1bbf a7b9 1fbf 3ac5 b0be a403 4dbf
00000150: 75ff ae3f fb7e f6be 07a8 55bf d5c5 e0bd
00000160: c2a0 aa3f ae1e 97be 915c 13bf 9e8d 0a3b
00000170: 4447 1d3e b157 ba3f 264c 91be 8749 b2be
00000180: ac9f 0abf 2389 91be f778 bc3f 3888 83be
00000190: f28b 863f 4651 d0be f85c a3bf 5f86 d1bc
000001a0: c654 93bf ff5a edbe 5d59 813e 1276 e3be
000001b0: c085 7d3c 71ca 95bf 71d6 4ebe 479b 81bf
000001c0: c9d8 8abe 0bd1 edbe 4c92 8e3d 3ac9 8fbe
000001d0: f54c c1bd b42f 05bf 77e0 70be 4302 23bf
000001e0: fcb1 ef3f 5e84 af3f b090 d2be 8d03 74bf
000001f0: 152e 88be 9a8a 533e 6829 ecbe 6c87 05bf
00000200: 1fc6 0e40 8912 04bf 95c2 b8be b65b 0bbf
00000210: 1f41 1bbe 44cf 19bf 726a d33f 83fe 19bf
00000220: 4ad9 06bf 3bd6 e4be ac9e bb3f 6a8c 68be
00000230: 2849 11bf 30ea a4bd 4c56 883d 5c28 9f3f
00000240: 9150 a5bd 1305 0c3e 5c1a 1fbf f826 06bf
00000250: 57a0 a13f 7021 c2be 4c03 ad3f 9a3e debe
00000260: 5286 a0bf b1c0 f2be 573b 87bf eeae 14bd
00000270: aeb6 95be 28a9 dabe 227a e3bd 940c a6bf
00000280: 840a 1bbe 1af6 65bf 990f 00bf 396f 8fbe
00000290: 5256 1cbe 9e80 02bf ff58 5a3e fe2c 27bf
000002a0: 24e1 12bf 4b29 d7be e6b1 0040 f0ed a33f
000002b0: af24 1ebf 267d 3cbf b644 dcbe 37e1 403d
000002c0: 6458 23bf 7a0e 05bf 0c57 0340 3ed3 e0be
000002d0: 34a3 e0be e357 f1be 999e 92be 80cd a5be
000002e0: db3d bf3f b6f2 fbbe e596 9cbe 0cc7 2fbd
000002f0: 1a65 ad3f b967 f8be 0277 fbbe 3117 a2be
00000300: 2483 e03d f677 a83f 80d1 04be 3cef 54be
00000310: 8fee 91bd 36ed 91be ef21 893f bca3 e8bc
00000320: 20ad b03f b1a0 0bbf fefc b6bf 23e6 4ebe
00000330: 8113 89bf 2f5e 13be 8031 2dbd 08b6 6cbe
00000340: f276 403e 5019 22bf 41d8 893e f47e 73bf
00000350: 91eb 4fbe 9827 10be 1067 eabd 7931 16bf
00000360: f397 29be 5ad9 22bf afb4 0cbf 7816 dbbe
00000370: 044a 2040 b452 9d3f fbb3 b5be 6047 26bf
00000380: a410 e5be d077 4b3e e487 10bf 5b4c 50be
00000390: 501f 1640 28b4 0abf 3223 50be d884 c1be
000003a0: 0c6b cfbe 4b59 a0be a05d a93f eedd b4be
000003b0: 710e 88be 5ab2 d3be a24b 923f 1ce9 a1be
000003c0: 7754 29bf 0269 eabe 0c77 ff3d 3718 a43f
000003d0: f4eb 0bbf b152 45be c5ee 0dbf 9492 d3be
000003e0: f833 833f 8e9a 8dbe 43a3 963f 09cc c6be
000003f0: 0fab 87bf 4774 95be 9afe 9bbf b77b d9be

fc_out.bias f4 [10]
-0.13837293 -0.25960574 -0.52140635 -0.24992053 -0.3890455 -0.44790342 -0.25985038 -0.50311524
-0.42160782 -0.17453669
00000000: a2b1 0dbe 0beb 84be e37a 05bf 2beb 7fbe
00000010: f930 c7be 9953 e5be 1c0b 85be 29cc 00bf
00000020: fbdc d7be bfb9 32be
