models/dumb2_34534.pt (torch_old, 3816 bytes, 4 tensors)

fc1.weight f4 [50, 4]
00000000: 54d0 0a3f c930 d43e 27d5 dbbe 8bb5 1cbf
00000010: 538a 54be 5604 d93d 2ba7 74bf a1b2 83be
00000020: abcc 8fbf e56f 553f 28f7 26bf 3646 71bc
00000030: fc5d 66bf 93d1 95be a33f 65bd 3d61 893f
00000040: 1721 34bf ee34 5b3f bc94 1ebe beaa 06bf
00000050: ad03 c43e db29 e8be 04df 2e3f b05f f93e
00000060: 3c69 503d 3f62 2ebf c75b 963f 072a 84bf
00000070: 3215 70bf 0840 40bf 9157 653f 3234 553d
00000080: 82a9 b83e d0b4 2f3f 53bd 753f 6a16 693f
00000090: 8d00 663f 9bba 553f 6c68 1cbf b001 85bf
000000a0: db10 bdbe b782 a13d 044d b93d 0989 8cbe
000000b0: a01f 53be 39e1 a3be a9a9 013e 610b 99bf
000000c0: 7ad7 74bf 73dc 8f3f d088 a13f 2a65 9ebe
000000d0: 602c e5bd 2ff2 bf3e e0f2 153f 4f31 0ebf
000000e0: a27f f83d 1c68 ebbe d11d 953f 8442 b6be
000000f0: 736d 10be cef0 b13e 5c57 ba3c e43e d4be
00000100: 6be9 433f 89c5 623c 02c7 993f e005 643f
00000110: ca55 59be 7303 8ebf e595 593f fde4 3c3f
00000120: c274 63be b19d 6bbe 6396 15be 24bd 5dbf
00000130: 5fa8 113e 62b4 50be e0a3 513f 88ef 13bf
00000140: 8c18 863f 75c1 29bf d10a 6ebf bebe 80bf
00000150: 1729 f1be d0c5 55bf bcfa 873f 9f51 8e3e
00000160: 8c64 1cbf 3b57 97bf f7f9 913f f3e3 d4bd
00000170: d1da 84bf c87c 363f e560 723f 58b8 dd3d
00000180: 6a1f 083f 8618 dc3e a5bc 87bf 8277 343f
00000190: 043c 5d3f 8607 d13d 909f 56be ebe0 6abf
000001a0: 760e 91bf 0032 773f 9f08 ad3e ca50 9bbf
000001b0: 3182 1d3f a2d0 42bf b0ea 0abf 72b0 51bf
000001c0: 8ed8 6c3f 3201 15bf 781a 273f 103a 123f
000001d0: 53c0 f93e fabd e9be 9e7f 1ebf a4df 963a
000001e0: fd45 4d3f 400f 81bf 6ef6 763f 9a90 1d3f
000001f0: 71a5 773d 1cce 633f fb05 8f3f 9bb2 b23e
00000200: 19de 28bf ec67 973f 7d2d 893f 91ce b0be
00000210: 7b9e e7be 1d14 d9bc d4ea cf3e eb95 99bf
00000220: 7c39 af3e 12e2 683d 3712 dbbe 10da 09bf
00000230: e429 623f 36d6 ddbe 0fbb 1cbf 1609 90bf
00000240: 34d1 0f3f 8450 5cbd 6fa3 8dbf ceb9 0a3f
00000250: 30e0 8ebf 35de 803e 8485 533f 81c0 76be
00000260: a46d 813f c71f 953f 5c6e 57bf 0cad 8f3f
00000270: a31f 823f 3c18 0ebd f619 7a3e 9bd3 edbe
00000280: b4f4 d1be 0cdc 39bf 0c4a 18bd d03e 91bd
00000290: 2c6f 0fbf 488d 563d 2477 6b3e e113 fc3d
000002a0: 8818 ef3e 7d37 183f 498f d9be 2e4c 5bbf
000002b0: d062 cf3e 6ab7 ddbd d3a5 223d 6469 81bf
000002c0: d014 783f 9539 883f 59b6 913f b471 d1be
000002d0: e8e9 923f 6f7d 0d3e 0ec2 89bf a5f9 243f
000002e0: 75b4 403e d477 963f 42d0 b13c d2a3 2c3f
000002f0: 74b7 cebe b22c 2ebf 83c3 903f b139 963f
00000300: ea74 833f 3615 513f 0d57 a0bf 93d9 fc3e
00000310: 8a73 dbbe c7d3 d6bd 7868 a03e 7bd9 b73d
0.54224133 0.4144347 -0.4293606 -0.6121451 -0.20755892 0.1059653 -0.9556758 -0.2572222
-1.1234335 0.8337386 -0.6522088 -0.014726212 -0.8998716 -0.29261455 -0.05596889 1.07328
-0.7036299 0.8562764 -0.15486425 -0.5260428 0.38284054 -0.45344433 0.68309045 0.48705816
0.05088161 -0.6811866 1.1746758 -1.0325326 -0.9378234 -0.75097704 0.8958674 0.05205173
0.36066824 0.6863527 0.9599201 0.91049826 0.8984459 0.8348786 -0.61096835 -1.039114
-0.36926922 0.0788626 0.09047893 -0.274483 -0.20617533 -0.3200777 0.12662376 -1.1956598
-0.9564129 1.1239151 1.2619877 -0.30936557 -0.111901045 0.3748946 0.5857372 -0.5554399
0.12133719 -0.45977867 1.1649724 -0.35597622 -0.14104252 0.34754032 0.022746734 -0.41454232
0.7652804 0.013841041 1.2013857 0.89071465 -0.21224132 -1.1094803 0.84994346 0.7378691
-0.22212508 -0.23009373 -0.14608149 -0.8661673 0.14224385 -0.2038131 0.8189068 -0.5778737
1.0476241 -0.66310817 -0.92985255 -1.005821 -0.47101662 -0.8350496 1.0623393 0.27796647
-0.6109092 -1.1823496 1.1404408 -0.1039504 -1.0379277 0.7128415 0.946791 0.108261764
0.53172934 0.4298746 -1.0604445 0.70494854 0.864197 0.10206513 -0.20959306 -0.9174945
-1.1332538 0.9656067 0.3379564 -1.213403 0.6152678 -0.760996 -0.54264355 -0.8190986
0.92517936 -0.5820495 0.65274763 0.57119846 0.48779544 -0.45652753 -0.6191348 0.0011510742
0.8018492 -1.0082779 0.9646977 0.6154877 0.06046051 0.8898637 1.11737 0.3490189
-0.65963894 1.182859 1.0717007 -0.34532598 -0.45238099 -0.026498849 0.40608847 -1.1998876
0.34223545 0.056856222 -0.42787334 -0.5384836 0.8834517 -0.43327492 -0.6122293 -1.1252773
0.56178594 -0.053787723 -1.1065501 0.54189765 -1.1162167 0.2516953 0.82625604 -0.24096872
1.0111585 1.1650323 -0.8415277 1.1224685 1.0165905 -0.03469108 0.24423966 -0.46450505
-0.41007006 -0.7260139 -0.03717999 -0.07092059 -0.5602901 0.05238083 0.22994667 0.12308479
0.46698403 0.5945967 -0.4249213 -0.85663116 0.40505075 -0.10825999 0.039708924 -1.0110288
0.9690676 1.0642573 1.1383773 -0.4090706 1.1477633 0.1381738 -1.0762346 0.6444343
0.18818839 1.1755319 0.02170575 0.6743747 -0.4037434 -0.6803695 1.1309665 1.1736356
1.0270054 0.8167299 -1.2526566 0.49384746 -0.42861587 -0.10489612 0.31329703 0.08977028

fc1.bias f4 [50]
00000000: f8e5 d93e b66d 14bd b925 bc3e f91a 27be
00000010: 361f a53e 8733 5f3e 935e a7bd 3e61 09be
00000020: f63b 083e f5d5 133d 95aa b13e 35b3 a2be
00000030: a7ca 663c 892b b13d 9797 b0be 0092 d23e
00000040: 4892 cf3e 454b ff3c a340 cbbd 640e a63d
00000050: be2d debe 34b1 613e a264 d7be 9fd7 4ebe
00000060: 9e1a c5be 3df1 0f3e bf63 dc3d 2824 eb3e
00000070: def3 c1be 2b03 763e 9d09 c8be b9c1 e7bd
00000080: e8bf 7fbe 03df 8d3e b685 19be 430d 76be
00000090: ba2f 113e 0198 43be c1a8 b03e cdc2 e33e
000000a0: 5071 2e3e cb49 5a3e 5893 b73e 5bd3 97be
000000b0: 10c1 ff3e bdb5 093f c14a 663e 1403 0c3d
000000c0: cb8d 9bbe 021e 1f3e
0.42558265 -0.03623744 0.3674753 -0.16318883 0.32250375 0.21797 -0.081723355 -0.13416001
0.13304123 0.036092717 0.34700456 -0.3177735 0.014086402 0.08650882 -0.34490654 0.41127014
0.4054129 0.031163821 -0.09924438 0.081082135 -0.43394274 0.22040254 -0.42068964 -0.2019944
-0.3849687 0.14056869 0.107612126 0.45926023 -0.37881368 0.24024646 -0.39069834 -0.113162465
-0.2497555 0.27709207 -0.14992413 -0.24028496 0.14178362 -0.19100954 0.3450375 0.4448456
0.17035413 0.21317212 0.35854602 -0.2965344 0.49951982 0.53792936 0.22489454 0.034182623
-0.30381617 0.15538791

fc_out.weight f4 [10, 50]
00000000: 9221 b93d 0941 ad3d e03e 96be 29fe 6dbe
00000010: 9aa1 42be 3872 4c3e 61f9 963e 78bf 87be
00000020: 78e2 5abe 1dac dfbd df76 71be 2679 033d
00000030: c768 503e ec3e 43be b8b7 3b3b 598c 493e
00000040: 34c4 ffbd d21a 943d cdac 543e e78d 4c3e
00000050: fc84 1c3d 5d57 983e a0bc 483e 0c19 9ebd
00000060: 4de7 0f3e 8d44 a53c 7f55 7ebe dbe7 423c
00000070: 23ef 16be f70f 133e 83ad fcbc bd21 67be
00000080: 93c0 c3bb 1a9c 6bbe a77d 59bd 1c4c 4fbe
00000090: a113 253e 1603 fabd 7730 343e cb1c 19be
000000a0: a276 54be 9e05 5cbd 3622 9cbe 66a5 8cbe
000000b0: a6bc 963c c13e 2fbd f59d c93c 5dfb 46be
000000c0: 899b f13c 7ce3 9f3e 3cd7 babd 9666 78be
000000d0: 6390 b0bd ee95 1abe 1098 20be e212 31bd
000000e0: a26b 2ebe d2b9 443d c7f6 8a3d c8da 9f3e
000000f0: a3aa 553e 808b 79be dde3 94be 0017 003e
00000100: 5efc 603e 1d19 bdbd b904 a3bd 96db 2dbe
00000110: e9d2 5abe e808 f33d a951 873e b6f7 ae3c
00000120: bc0e 683e a442 1c3e 29bc 50bd bf63 3cbc
00000130: b855 98bd 47da e03d 9af6 15be aec7 143e
00000140: 483e 203e 757b 60be 8323 00be 877a 633e
00000150: 9d7f 23bd 88fe 783e e682 a5bb 57f9 883e
00000160: 3208 a9bd 5b0d 0fbc 77b9 41be 22c4 a2bc
00000170: 4bd3 f5bd 0c76 9dbe c096 913e a286 a4be
00000180: 3c22 a6bd ec90 463e 7aed 723e 33ad c43d
00000190: c281 b1bc 9958 2abe 3c27 6ebe d455 ff3d
000001a0: 35d9 89be ad04 20be 61d5 a83e 6d14 babd
000001b0: ab6d c4bd 6292 e63d 9adb 71bc 47b1 6f3d
000001c0: c768 643e d74d 223e bc4b 1bbe bfce 33bd
000001d0: cf86 82ba 70ff a3bd 80e0 a33c e6c8 c6bc
000001e0: 6f8e 01be 7cdc 42bd e4bf 0f3d 250d 5f3e
000001f0: 31bc d43d 63c3 493d 19ca f53d 3677 ba3d
00000200: 7168 69be bf2f cabd d923 833d 2538 1c3e
00000210: e6cd 95bd 6cf3 46be d3ce dd3c 3d76 15be
00000220: 5392 fabd b894 9a3d 140f e73b 88d3 a03e
00000230: 10fa a23e d453 743d 03a9 463d 5e86 81be
00000240: a1fe 73be 0021 fa3d 0cca 083d 0e58 9ebe
00000250: 4aa9 a4be f393 57bd 29ec d63d 7469 3e3e
00000260: cbb8 e93d a970 77bd 4939 ca3d 3d2e 9e3d
00000270: f8ee 903d 3143 553e 31f3 fc3d 3997 d43d
00000280: c89d a3be 8de7 5e3e 539a 1bbe ad10 4bbe
00000290: 4454 4a3e a05b 8abe 0a3d c03c e392 52be
000002a0: 3a52 583e fd54 56be 39f4 5bbe 7ab1 10bc
000002b0: 890c f63d cab1 743c b5ae 903d 5e41 ab3e
000002c0: 098b 88bd 6a9d a73e 574d ad3d 0a59 39be
000002d0: 9bcf 91be c85b c13b 5e03 6d3e 676a b0bd
000002e0: e3cd 963d 68af 473d 1768 003e 4adf 6bbc
000002f0: 4a50 abbe 7e22 43be ed03 6fbd 9561 123d
00000300: 0b64 33be 25f5 82be ddfd 7f3e 7b43 e2bd
00000310: b0d2 4ebe 5a34 8a3c fadb 84bb 9c6b 24be
00000320: b883 bc3d 53cd 5cbd d747 553e d760 4a3e
00000330: ae80 4ebe 485a 7c3d 3b2f 86be f494 01be
00000340: 9adc 59bd eada 7b3e 13fc 303d 9057 613e
00000350: be41 77bd c5c8 0abe 0c02 6e3d 481e 90be
00000360: ad4e 72bd 8108 21be 471c 393d 352f 36be
00000370: d70d b3bd 7d90 0cbe 86f9 b23d cf27 18be
00000380: 13bf a1be c1d7 bc3d 1d5c 8c3d 382c 60be
00000390: 905c 593e 36ee 973e a24b 8e3e cfa0 10bc
000003a0: df1f 4d3e 5ad6 7dbe e7d7 0dbe 0a37 773e
000003b0: 5a05 8f3d 40ab 0bbe 288b adbe d780 6fbe
000003c0: fa83 a3be 9ca9 013e 94e1 34be 61d6 19be
000003d0: a966 51bd d450 343e d6cf 743e 28b0 473e
000003e0: 191d afbe 1e42 8cba fc4a 923e dab2 b6bd
000003f0: 51ba 84be 18cb 39be 0f6f bfbd 965d ee3d
0.09039606 0.0845967 -0.29344845 -0.23241486 -0.19006959 0.19965446 0.29487136 -0.26513267
-0.21375453 -0.109215 -0.23580502 0.032097958 0.2035247 -0.19066972 0.002864344 0.19682445
-0.12488595 0.07231678 0.20769043 0.19976006 0.03821276 0.29754153 0.19603205 -0.07719621
0.14053078 0.02017429 -0.24837302 0.011896099 -0.14739661 0.14361559 -0.030844456 -0.22571464
-0.0059738844 -0.23008767 -0.053098347 -0.20243877 0.16120769 -0.1220762 0.17596613 -0.1495239
-0.2074838 -0.053716294 -0.3049485 -0.2746994 0.018400501 -0.042784456 0.024611453 -0.19431825
0.02949311 0.31228244 -0.09123084 -0.24257883 -0.086212896 -0.15096256 -0.15683007 -0.0432309
-0.17033246 0.048028775 0.0678535 0.31221604 0.20865874 -0.24369621 -0.29080096 0.12508774
0.2197127 -0.092333056 -0.07959885 -0.16978297 -0.21369518 0.11866933 0.2642949 0.021358352
0.2266187 0.15259796 -0.050960694 -0.011498391 -0.074382246 0.10979133 -0.14644852 0.14529297
0.15648758 -0.21922095 -0.12513547 0.22214709 -0.039916623 0.24315846 -0.0050510047 0.2675273
-0.08253516 -0.008731212 -0.18918405 -0.019868914 -0.120031916 -0.30754125 0.28435326 -0.32133967
-0.081119984 0.19391221 0.23723403 0.09603348 -0.021668319 -0.1663536 -0.23257154 0.12467542
-0.26923528 -0.15626784 0.32975295 -0.09085927 -0.0959123 0.11258389 -0.01476183 0.058518674
0.22305594 0.15850006 -0.15165609 -0.04389834 -0.0009958389 -0.08007705 0.02000451 -0.024265718
-0.1265199 -0.04757355 0.03509511 0.21782358 0.10387457 0.0492586 0.12001438 0.09104769
-0.22793747 -0.09872388 0.06403322 0.15255792 -0.07314663 -0.19428796 0.02707616 -0.14595886
-0.122349404 0.07547897 0.007051358 0.31411386 0.31831408 0.059650257 0.048501026 -0.25297827
-0.23827602 0.122133255 0.033395812 -0.30926555 -0.32160407 -0.05263133 0.10494263 0.18594915
0.114121996 -0.060410175 0.098742075 0.07723663 0.0707683 0.20826413 0.123510726 0.10380406
-0.31956315 0.21768017 -0.15195589 -0.1983058 0.19758707 -0.2702303 0.023466606 -0.20563845
0.21125117 -0.20930858 -0.21479882 -0.008831376 0.1201411 0.014934966 0.07064573 0.3344831
-0.06667144 0.32737285 0.08462017 -0.18100372 -0.28478703 0.0059008338 0.23145816 -0.08614045
0.073634885 0.048751265 0.12539707 -0.014396498 -0.33459693 -0.19056126 -0.058353353 0.035737593
-0.17518632 -0.25577655 0.24999185 -0.11048027 -0.20197558 0.016870666 -0.0040545436 -0.16056675
0.09204811 -0.05390675 0.20828186 0.19763504 -0.20166275 0.061609536 -0.2620791 -0.12654477
-0.053188898 0.24595228 0.043209147 0.22006059 -0.06036543 -0.1355315 0.05810742 -0.28148103
-0.059157062 -0.157259 0.045192983 -0.17791446 -0.08742874 -0.13726993 0.08738999 -0.14858936
-0.3159109 0.09220839 0.06853507 -0.21891868 0.21226716 0.29673928 0.27792078 -0.008827402
0.20031689 -0.247888 -0.13851891 0.2414209 0.069834426 -0.13639545 -0.3389523 -0.23388992
-0.31936628 0.12662357 -0.17664176 -0.15023185 -0.051123295 0.17608958 0.23907408 0.19500792
-0.34201887 -0.0010700857 0.28572834 -0.08920832 -0.25923398 -0.1814388 -0.093473546 0.11638944

fc_out.bias f4 [10]
00000000: 0969 9c3d 2fa8 17bc 6004 27be 1612 f5bd
00000010: 0b61 03be 1b38 61bd 9af7 84bc 6854 cf3d
00000020: d07a 90bd acd9 b43d
0.07637221 -0.009256407 -0.16310263 -0.1196634 -0.12829988 -0.054985147 -0.016231347 0.10123521
-0.070546746 0.0883058
