models/G3b_9849252.pt (torch_old, 3768 bytes, 4 tensors)

fc1.weight f4 [50, 4]
000000 9d 27 13 40 f5 44 0a c0 c4 7b b3 3f fb 72 d7 3f
       2.2992928 -2.1604588 1.4022145 1.6831964
000010 3b 05 c0 be 95 54 57 3f 39 48 97 bf 3e 94 82 bf
       -0.3750399 0.84113437 -1.1818916 -1.020149
000020 fd 1a 4d bf 3f a8 0c 3f 0e b2 0e c0 50 19 2e bf
       -0.80119306 0.54944223 -2.2296176 -0.68007374
000030 61 e3 34 bf e1 fa ac 3e a7 a1 42 bf 98 77 fe 3f
       -0.7065945 0.33785155 -0.7602791 1.9880247
000040 eb d5 a8 be 5c 74 99 3f 04 fc e7 be 35 23 a8 bf
       -0.32975706 1.1988635 -0.4530946 -1.3135744
000050 b3 47 85 3f a7 5d fc bf 8f 8e c9 3d 61 b5 8b bf
       1.0412506 -1.971608 0.09841644 -1.0914727
000060 5c 4e c2 3f 80 cc ba bf 0c 83 6a 40 65 47 ac 3f
       1.5180163 -1.4593658 3.6642485 1.3459288
000070 fe c6 af bf ae be 7b 3f 19 4b 1c c0 1f f1 4b bf
       -1.3732603 0.9833783 -2.4420836 -0.79664797
000080 52 9e d0 3e 0d 1f ba 3f 85 8b b0 3f 9c 18 eb bf
       0.4074579 1.4540726 1.3792578 -1.8366885
000090 7a 35 89 3f c9 cf 38 3f 1f e8 3d bd 08 fd 3a bf
       1.0719445 0.72192055 -0.046363946 -0.73042345
0000a0 bc 0b 2b bf 0f bd 54 be 8c 44 0a c0 42 fa 85 3f
       -0.6681478 -0.20775245 -2.1604338 1.0466998
0000b0 ec 14 52 bf 66 56 8c bf b0 93 34 be 90 ac 55 bf
       -0.82063174 -1.0963867 -0.17634463 -0.83466434
0000c0 09 fe 56 3f 78 30 84 bf 6a 1e e6 3e 08 94 f7 bf
       0.83981377 -1.0327291 0.4494508 -1.934205
0000d0 4f 4b 89 3f 10 75 e4 be 87 d0 3d 3f 40 5e d6 3f
       1.0726107 -0.44620562 0.7414631 1.6747513
0000e0 86 22 2b bf 2e e3 28 bf 9c d7 de 3e 38 83 23 bf
       -0.66849554 -0.6597165 0.43523872 -0.638721
0000f0 ee 25 a8 3e ae b9 cf bd fe b2 c2 bf 3c fc b4 3f
       0.32841438 -0.101428375 -1.5210874 1.4139476
000100 63 c4 b4 3f 78 67 30 bf 38 92 52 3f f3 a9 02 40
       1.4122432 -0.6890788 0.8225436 2.0416229
000110 89 57 0b 3f 0c d4 ca bf 49 75 20 40 47 b2 56 3f
       0.54430443 -1.5845962 2.5071585 0.8386578
000120 79 46 04 bf 93 7f b2 be 12 01 92 bf c9 52 97 3f
       -0.5167003 -0.34862956 -1.1406577 1.1822139
000130 f6 e5 ec bf 07 50 4c 38 bc 34 fe be 86 03 f5 bf
       -1.8507679 4.871192e-05 -0.49649608 -1.91417
000140 20 0d 40 bd b0 b4 8b 3d e8 65 10 3e 9a 0d 1d bf
       -0.046887517 0.06821573 0.14101374 -0.6134888
000150 a5 0c e8 3f 40 1e 66 bf 51 52 84 3f e7 4a 48 40
       1.8128859 -0.8988991 1.0337621 3.1295717
000160 e7 39 39 bf 73 92 da 3f d4 b1 16 bc a6 31 10 c0
       -0.72353977 1.7075943 -0.009197671 -2.2530303
000170 a9 af 42 bf 20 9c c6 3f c5 d7 ff 3d 35 6c 0f c0
       -0.76049286 1.5516396 0.12492327 -2.2409794
000180 02 18 03 3f b6 84 87 bf 8d 18 4b 3f 85 3d cf 3f
       0.5120851 -1.0587375 0.79334337 1.6190649
000190 ea 71 64 bf 01 b5 9d 3f c3 c7 fe bf e1 bd ae bf
       -0.8923632 1.2320863 -1.9904712 -1.3651696
0001a0 40 fd bb be fc 97 66 3f b5 4a de 3e 96 7c c4 3f
       -0.36716652 0.9007566 0.43416372 1.5350521
0001b0 0c 95 cf be 1b 11 59 bf 10 24 9a 3f 08 06 43 3f
       -0.405434 -0.84791726 1.2042255 0.7618108
0001c0 6a eb 9a 3e f2 0c c4 bf d8 1e 00 3e 99 db fd bf
       0.30257732 -1.531645 0.12511766 -1.9832641
0001d0 b9 b1 85 3f e0 de d1 bf a7 05 59 bf 32 da cb 3f
       1.0444862 -1.6396141 -0.8477425 1.5925963
0001e0 2f 04 11 bf e6 23 8d 3f 80 cb bd bf 93 78 8f bf
       -0.5664701 1.102658 -1.4827728 -1.1208671
0001f0 60 88 36 bf cc 2f b6 3d 36 05 ae be 09 9a 1b 3f
       -0.7130184 0.08895835 -0.3398835 0.60781914
000200 98 62 81 bf 98 a7 52 3f f2 31 eb bf 49 e2 d5 bf
       -1.0108213 0.8228698 -1.8374617 -1.6709682
000210 8e f5 b3 bf 08 71 cf 3f 59 b8 66 bf c9 c5 5c bf
       -1.4059312 1.6206369 -0.9012504 -0.86239296
000220 3d cc 60 bf ec 62 38 3e 61 76 de bf 79 97 7c bf
       -0.8781164 0.18006486 -1.7379876 -0.9866863
000230 40 72 58 bf ba 15 b6 3e bd 19 93 3f 71 a4 02 bf
       -0.8454933 0.3556345 1.149223 -0.5103217
000240 ad 31 82 3f c9 d7 8e 3f a5 45 04 c0 5b 5c 17 40
       1.017141 1.1159602 -2.0667508 2.365012
000250 0d 3f a4 3f 5a 6f 47 bf 66 f3 8f bf df c6 92 3e
       1.2831742 -0.77904284 -1.1246154 0.28667352
000260 e9 46 61 3f 68 56 db bf 4b 01 a1 bf c4 83 70 3f
       0.87998825 -1.7135744 -1.257852 0.9395106
000270 75 15 aa be 5c 8d aa bf 77 55 aa bf 1d 14 a2 3f
       -0.33219495 -1.332439 -1.3307332 1.2662388
000280 34 00 c7 3f 48 4b 1a c0 ea 2a 12 be 53 1b 9b 3f
       1.5546937 -2.4108448 -0.14274183 1.2117714
000290 4a 06 62 bf 60 57 83 bd e5 88 84 bd a3 e0 a9 3f
       -0.88290846 -0.0641315 -0.06471423 1.3271679
0002a0 0e ca ad bf 37 22 38 3f 28 09 fc 3e 77 19 8c bf
       -1.3577287 0.7192721 0.49225736 -1.0945271
0002b0 cc f7 b3 3f 50 f0 98 bf aa 5e da be 0c 33 04 40
       1.4059997 -1.1948338 -0.42650348 2.0656157
0002c0 f7 1d 17 40 7f 8f 0e c0 fe 8c 47 3f 68 9d 66 3f
       2.361204 -2.2275083 0.7794951 0.9008393
0002d0 4c 60 cc 3e 57 23 81 3f 7b df 97 bf 68 65 fa 3f
       0.3991722 1.008891 -1.1865076 1.9562197
0002e0 dd be 81 bf 0d 66 bf 3e a2 62 3d bf 95 27 bb bf
       -1.0136372 0.37382546 -0.73978627 -1.4621454
0002f0 8e eb 75 bf 72 57 8a bf ed c2 5c bf 79 7b 80 bf
       -0.9606255 -1.0807936 -0.86234933 -1.0037681
000300 e9 eb 55 3f 10 43 f3 bf b0 a2 2b 3f 8d a1 38 40
       0.83563095 -1.9004841 0.67045116 2.8848603
000310 2b 89 23 bf 9f 9e 1d bf 69 72 da bf e1 91 2f 3f
       -0.63881177 -0.6157016 -1.7066165 0.6858197

fc1.bias f4 [50]
000000 18 0c 39 40 cc eb 52 bf c7 b1 29 bf 64 31 ee 3e
       2.8913631 -0.8239105 -0.6628689 0.46522057
000010 b6 49 6d bf 8d 95 2d bf df 13 38 40 ab a2 b7 3d
       -0.926906 -0.6780632 2.8762128 0.08966573
000020 c7 28 1d 3e a7 32 db 3c d5 ee 3f 3e 90 30 53 3d
       0.15347587 0.026757551 0.18743451 0.051559985
000030 17 89 c9 bf ee e0 ba 3f ec 58 17 be 86 03 82 3f
       -1.5744962 1.4599893 -0.14780015 1.0157325
000040 95 e8 13 40 3a 8b d7 3f 7a c2 98 3f 7a e3 92 bf
       2.3110707 1.6839364 1.193435 -1.147567
000050 c4 4b 7d be a0 83 d4 3f 92 b7 8c bf a6 1b 65 bf
       -0.24735934 1.6602669 -1.0993521 -0.89495313
000060 17 6e cd 3f d8 a9 de bf 3d 9d ed 3e 27 77 b0 3f
       1.6049222 -1.7395582 0.46409026 1.3786362
000070 26 0a 8f bf e5 5d d6 3f a9 ba c3 bf 45 66 e1 3e
       -1.1174972 1.6747404 -1.5291339 0.44023338
000080 e5 50 1e bf 7f a1 44 bf 77 31 99 bf a8 38 ce be
       -0.61842185 -0.76808923 -1.196822 -0.402776
000090 cf 3d bb 3f 90 2e b2 3f 38 28 06 40 1c 5b 09 3e
       1.4628237 1.392046 2.0962048 0.13413662
0000a0 db 68 1f 40 09 60 45 3e 6f 6f 9a bf 73 54 e9 3f
       2.4907749 0.19274916 -1.2065257 1.8228897
0000b0 be ac fd 3f e5 e2 66 3f 4c ea a5 be b6 75 d4 be
       1.9818342 0.90189964 -0.32405317 -0.41496056
0000c0 e6 a4 e5 3f 1e af c8 3f
       1.7940948 1.5678442

fc_out.weight f4 [10, 50]
000000 54 a8 8b bf 4b 44 d1 be 82 9b 7f be 6a 89 82 bc
       -1.0910745 -0.40872416 -0.24961665 -0.015934665
000010 44 32 9e bf 87 3e ce be 30 64 c9 bf 67 ec 1d 3e
       -1.235909 -0.4028208 -1.57337 0.15422212
000020 88 bc 1d c0 60 ff 8c bc be dc 21 be 88 20 28 bd
       -2.464632 -0.017211616 -0.15806863 -0.04104665
000030 90 02 f6 bf 32 57 2b 3f de 44 4b be be a4 e1 be
       -1.9219532 0.66929924 -0.1985049 -0.44071
000040 d8 d3 8a 3f 45 8c f5 be c7 64 01 be 92 8a 25 40
       1.08459 -0.4795858 -0.126361 2.5865827
000050 b9 42 8a 3e e6 1e a0 3f e5 4d 3d 40 48 3f 29 40
       0.2700403 1.250943 2.9578793 2.6444874
000060 12 bf 02 3f 85 84 45 bf 1d 03 67 3b 63 cc 68 3e
       0.510728 -0.77155334 0.0035249658 0.22734217
000070 f2 2b ba bf 26 81 32 3e 42 46 6b bf 9d 46 84 be
       -1.4544661 0.17432079 -0.9190408 -0.25835124
000080 c8 6a 9d bf 23 a5 d7 3e 63 4b 62 be 9e 48 5a 3f
       -1.2298212 0.42118177 -0.2209907 0.85267055
000090 06 8d 59 be 50 a8 cc bf d1 cb ca 3e a0 0d 94 3d
       -0.21245202 -1.5988865 0.39608625 0.07229161
0000a0 9b de 8b bf 25 e1 b6 be 2a 5a 9b 3f 68 6d f1 3e
       -1.0927309 -0.35718647 1.2136891 0.47153783
0000b0 1c 9e 82 3f 71 df 99 be e8 c0 d0 bf f8 7b 11 3d
       1.0204501 -0.30053285 -1.630887 0.035518616
0000c0 8b c0 8b 3f f5 22 9c be c6 be 9f bf 35 cf 85 be
       1.0918134 -0.3049542 -1.2480094 -0.2613465
0000d0 e9 f8 e7 be a6 52 08 be 6b a4 50 bf 1b 52 8b bf
       -0.4530709 -0.13312778 -0.8150088 -1.0884432
0000e0 3d 2a 55 bf 29 ad a2 be 44 9a ab bf 9b a3 0e 3e
       -0.83267576 -0.31772736 -1.3406453 0.13929598
0000f0 95 f6 d9 be e2 03 75 3e 1b 29 e6 bf 02 32 fc 3e
       -0.4257094 0.23927262 -1.7981294 0.49256903
000100 0e 25 40 3e 3b 61 c6 be 7d 39 7a 3f 01 65 3a bf
       0.18764135 -0.38746056 0.9774397 -0.7281037
000110 f1 71 8c be ce 27 e9 3f 50 3a b9 bd 76 f3 80 3f
       -0.2743068 1.8215272 -0.09044325 1.0074298
000120 99 77 03 40 f7 d8 f0 3f d0 c9 0e 3f f1 57 e2 be
       2.0541747 1.8816212 0.5577669 -0.4420772
000130 61 2b 23 bf 51 88 21 3e 39 f6 c7 bf ea b3 69 3f
       -0.63738066 0.15774657 -1.5622016 0.9129015
000140 83 70 5b bf 54 92 04 be 6e 90 38 bf b6 3b 0e bf
       -0.85718554 -0.12946445 -0.7209538 -0.5555986
000150 9d 46 1d bf ce e9 5f 3f 70 7d e5 be 2c 23 41 bf
       -0.6143587 0.8746613 -0.44822264 -0.75444293
000160 fc 86 53 3f 50 e1 40 be f4 59 85 bf ea cf f1 bd
       0.82627845 -0.1883595 -1.0418077 -0.118072346
000170 6c 5b 92 3f 23 b9 39 3f 52 e7 80 be c9 a5 6c be
       1.143415 0.7254812 -0.25176483 -0.23110117
000180 6f 4a de be 80 ee 5f bc 75 f7 b2 3f c7 9d ec be
       -0.43416163 -0.013667703 1.3981768 -0.46214125
000190 42 07 94 bf 73 0f 0c bf 69 f4 04 bf 54 5b 09 bf
       -1.1564715 -0.54711074 -0.5193544 -0.5365498
0001a0 51 a0 1a bf e6 7f 4c bf 8d 17 8d bf 8a 65 b3 be
       -0.60400873 -0.7988266 -1.1022812 -0.35038406
0001b0 55 19 00 c0 30 48 dc 3c 1c 2c 33 be c0 44 09 3e
       -2.0015461 0.02688989 -0.17497295 0.13405132
0001c0 2d 16 b8 bf cf 61 6c 3f 38 f2 60 3d 54 c4 e2 be
       -1.4381768 0.92336744 0.054918498 -0.4429041
0001d0 f4 6a 7e 3f 1d f5 2c bf 7b ae aa be 65 d6 e0 3f
       0.9938195 -0.67561513 -0.33336243 1.7565428
0001e0 c8 71 aa 3d 98 d0 a1 3f 2e f0 f9 3f 6e a5 03 40
       0.08322483 1.2641783 1.9526422 2.056972
0001f0 b8 c1 d6 3e 05 12 a0 be 54 99 42 be 2b 9a a5 3e
       0.4194467 -0.31263748 -0.19003803 0.32344183
000200 6f 76 98 bf f8 82 22 3f 96 1a 16 bf 28 fb f8 be
       -1.1911143 0.6348109 -0.58634317 -0.48629117
000210 d9 c9 3b bf f1 6d e1 be d8 b0 cf be 3c 46 21 3f
       -0.7335487 -0.4402919 -0.4056461 0.62997794
000220 97 1f 0e bf fb 46 17 bf b6 b1 17 3f 8c 87 79 3e
       -0.5551695 -0.5909268 0.5925554 0.24368113
000230 80 b8 84 bf 3c 0f 84 be 20 c9 d2 3f ca 56 47 3f
       -1.0368805 -0.25792873 1.6467628 0.77866805
000240 fa 81 84 be ff aa 6d be 63 e3 04 bf 78 f1 48 bd
       -0.25880414 -0.23209761 -0.51909465 -0.049058408
000250 87 0f 97 3f 50 b5 c9 be a9 40 81 bf eb 0a de be
       1.1801614 -0.39396143 -1.0097858 -0.43367705
000260 3b c8 dd be 35 35 11 bf ca 12 9b be b0 2c 60 bf
       -0.43316826 -0.5672181 -0.30287772 -0.8756819
000270 7e ca 78 bf a2 da db be 2f e0 9d bf d1 57 9a be
       -0.9718398 -0.4294024 -1.233404 -0.30145124
000280 bf 60 d5 be 50 2f 0d be f0 bc 3d bf a6 bf 2f 3f
       -0.41675374 -0.1378758 -0.7411642 0.6865181
000290 f4 19 94 bd 3a 17 a6 be d5 44 a2 3f b2 5e 21 bf
       -0.07231513 -0.32439595 1.2677256 -0.6303512
0002a0 11 2d a4 be 2a 2b 1a 40 80 dc a3 3d 9a fa 87 3f
       -0.32065633 2.4088845 0.080010414 1.0623353
0002b0 7e 65 03 40 97 8c 05 40 13 73 25 3f 9c 77 11 bf
       2.0530696 2.086706 0.64628714 -0.56823134
0002c0 d1 8d 92 be 52 4b d8 3d 14 d5 cc bf 9f cc 4c 3f
       -0.28623822 0.10561241 -1.6002526 0.79999727
0002d0 2f 09 24 bf 31 59 4c be 9a 08 ff be 42 07 1d bf
       -0.64076513 -0.19955899 -0.4981125 -0.613392
0002e0 30 8c 32 bf cb e6 4a 3f 72 88 93 be 1b 9e 07 bf
       -0.6974516 0.7925841 -0.28815037 -0.52975625
0002f0 d4 f3 69 3f ca cd 73 be d2 6b 93 bf 68 b2 b0 bc
       0.9138768 -0.23808971 -1.1517279 -0.021569446
000300 24 f6 a4 3f 52 28 66 3f b0 7f d5 be a6 3c a6 be
       1.2887616 0.89905274 -0.4169898 -0.32468146
000310 87 99 35 be bc 0a f8 bd c0 1e 54 3f 8a e9 0d bf
       -0.17734347 -0.121114224 0.8285942 -0.5543448
000320 1b 40 94 bf 52 01 3e bf ae 30 71 be 84 a6 65 be
       -1.1582063 -0.74220765 -0.23553726 -0.22426802
000330 d9 43 8e be e4 d6 3c bf 5a 45 4f bf c9 f9 10 bf
       -0.2778614 -0.737654 -0.809652 -0.5663114
000340 46 43 a2 bf a0 b2 93 3c d3 6a ca be 74 fa 46 be
       -1.267678 0.018029511 -0.39534625 -0.19431478
000350 1b 11 af bf 10 45 fe 3e 55 9a 8d 3e f2 68 0f bf
       -1.3677095 0.49662066 0.27656808 -0.5601951
000360 ea 1c 41 3f 7e c6 3d bf f5 c8 2a be e8 89 17 40
       0.75434744 -0.74131 -0.16678222 2.3677921
000370 48 bc d5 3d 39 e6 99 3f b7 2f 08 40 c5 01 bf 3f
       0.104363024 1.2023383 2.1279123 1.4922415
000380 9d bd 4a 3f 50 7b 22 bf e0 71 a3 be 04 a0 24 3e
       0.79195577 -0.6346941 -0.31922817 0.16076666
000390 b2 8e b7 bf 63 27 82 3f 78 fa d6 be 73 95 89 be
       -1.4340422 1.016827 -0.41987967 -0.26871833
0003a0 80 1e 1b be a1 6e 4d be 6b e9 35 bf ec d8 25 3f
       -0.15148354 -0.20061733 -0.7105929 0.6478412
0003b0 3d 3c dc be 17 1a c1 be 30 de 47 3f df 49 bc be
       -0.43014708 -0.37715217 0.78073406 -0.3677511
0003c0 ee 5e 30 bf a3 d7 8c be d3 6a 91 3f 8f fd ee 3e
       -0.6889485 -0.27508268 1.1360725 0.46677825
0003d0 db 1a 2c bf ab e3 cd be c6 d6 5d be 72 53 6c 3e
       -0.6722848 -0.4021276 -0.21663961 0.23078707
0003e0 c5 40 a8 3f b6 e3 a7 be 5c 64 a6 bf ab 20 b4 be
       1.3144766 -0.32790917 -1.2999377 -0.35181174
0003f0 08 c8 1d bf 83 cd 1b bf 33 ed a8 be 9f d5 1c bf
       -0.6163335 -0.6086046 -0.3299347 -0.6126346

fc_out.bias f4 [10]
000000 ce c6 ce bc 6f b1 fe be 3b 7b a9 be 77 00 d9 be
       -0.025241282 -0.49744746 -0.3310183 -0.42383167
000010 ff 6b de be 1d 03 b1 be 62 74 ae be f9 ad 04 bf
       -0.4344177 -0.34572688 -0.34073168 -0.5182796
000020 a6 62 cb be cb 8d 06 3e
       -0.397237 0.13140027
