models/H1a2_9849252.pt (torch_old, 3768 bytes, 4 tensors)

fc1.weight f4 [50, 4]
1.1738771 -1.0350405 0.7389913 -1.5246701 -0.3573089 0.8234349 0.84242535 -0.46551284
-0.64852285 0.39676303 -2.1032653 -1.2411478 -0.45737734 0.08866677 -0.92700046 1.2673074
-0.33634633 1.2054433 0.30211794 -1.039404 0.55917984 -1.4895214 -0.71532047 -1.2987024
0.7647651 -0.7061179 3.013469 0.49348614 -1.9263154 1.5364102 -1.280516 -1.7406207
1.4398586 0.4218236 1.664753 0.19054925 1.0695443 0.7243242 -0.062405106 -0.7323458
-0.99192905 0.11609114 -1.641285 0.49321073 -0.82063174 -1.0963867 -0.17634463 -0.83466434
0.52985513 -0.7226862 0.48607036 -1.4945356 0.30555725 0.32083184 1.182927 0.8865357
-0.66849554 -0.6597165 0.43523872 -0.638721 0.47795552 -0.25097942 -0.28992665 0.78156495
0.9125553 -0.18933494 -0.16408752 0.99169827 0.07465081 -1.1149411 1.7219799 -0.0933079
-0.5346758 -0.33060348 -0.5246276 0.5082228 -0.7923836 -1.0583647 -0.9576372 -0.7279105
-0.046887517 0.06821573 0.14101374 -0.6134888 1.2870679 -0.37303218 0.310701 2.2158098
-0.20610613 1.190203 0.67512995 -1.104918 -0.066444814 0.85756695 1.6104934 -2.0047123
-0.3280634 -0.21861862 1.3177147 0.44780785 -0.79094666 1.1307313 -2.247173 -1.585797
-0.21336445 0.74695855 1.000758 1.0485713 -0.6277111 -0.62564987 1.6564653 0.44478127
-0.07540051 -1.1536235 -1.3870968 -0.3709138 0.4950995 -1.0901641 -0.6610737 0.39494234
-0.7748592 1.3111415 -1.1673357 -1.410719 -0.36600876 -0.2580158 0.3762882 0.3642092
-0.6086734 0.42070788 -2.4785514 -1.6432805 -1.3647326 1.5794488 -0.15829533 -1.5479903
-1.250551 0.5525505 -1.6048771 -1.0758548 -0.76871395 0.2788829 1.3527471 0.028541543
1.101553 1.0315144 -2.0452583 0.91422606 0.5520573 -0.047949925 -0.51394886 0.04137335
0.12867945 -0.9622539 -1.1626823 -0.258104 -0.16948456 -1.4951496 -0.45040426 1.5286117
0.38269696 -1.2388797 -1.8093756 -0.17447737 -0.4197618 -0.5272772 0.7422304 1.1699461
-0.6717768 0.0332963 1.2950423 0.1868911 1.0073991 -0.79626036 -0.36005643 0.71523744
1.5578159 -1.4241098 -0.059088875 -1.1079212 0.16267622 1.245397 -0.78371257 0.89918756
-1.196481 0.5566806 -1.0815052 -1.8519722 -0.9606255 -1.0807936 -0.86234933 -1.0037681
0.43022114 -1.4951062 -0.30505523 1.9423171 -0.9128141 -0.34166 -2.1649442 -1.315754
00000000: 9b41 963f 357c 84bf 892e 3d3f 6428 c3bf
00000010: 31f1 b6be a1cc 523f 30a9 573f b357 eebe
00000020: 9805 26bf 8624 cb3e e69b 06c0 eedd 9ebf
00000030: 5d2d eabe ec96 b53d e74f 6dbf 2137 a23f
00000040: 9635 acbe f74b 9a3f 34af 9a3e 310b 85bf
00000050: 6926 0f3f a3a8 bebf 3e1f 37bf e13b a6bf
00000060: a5c7 433f 25c4 34bf addc 4040 37aa fc3e
00000070: 8191 f6bf 17a9 c43f f3e7 a3bf a9cc debf
00000080: 494d b83f 43f9 d73e a016 d53f 581f 433e
00000090: d4e6 883f 506d 393f 7f9c 7fbd 047b 3bbf
000000a0: 10ef 7dbf 31c1 ed3d a015 d2bf 1e86 fc3e
000000b0: ec14 52bf 6656 8cbf b093 34be 90ac 55bf
000000c0: 96a4 073f f601 39bf 37de f83e f14c bfbf
000000d0: 0072 9c3e 1244 a43e 276a 973f 01f4 623f
000000e0: 8622 2bbf 2ee3 28bf 9cd7 de3e 3883 23bf
000000f0: 96b6 f43e 6080 80be 4471 94be a414 483f
00000100: 399d 693f 05e1 41be 8f06 28be f0df 7d3f
00000110: 86e2 983d 64b6 8ebf d669 dc3f 3618 bfbd
00000120: 83e0 08bf dc44 a9be ff4d 06bf e41a 023f
00000130: a7d9 4abf 7f78 87bf b627 75bf 5858 3abf
00000140: 200d 40bd b0b4 8b3d e865 103e 9a0d 1dbf
00000150: a4be a43f 13fe bebe 3414 9f3e d4cf 0d40
00000160: 7c0d 53be 9258 983f 51d5 2c3f f46d 8dbf
00000170: 3814 88bd 8289 5b3f a624 ce3f 354d 00c0
00000180: edf7 a7be 8fdd 5fbe e0aa a83f 1247 e53e
00000190: 7b7b 4abf cebb 903f afd1 0fc0 65fb cabf
000001a0: 367c 5abe ad38 3f3f d718 803f 9637 863f
000001b0: adb1 20bf 972a 20bf 0e07 d43f 5fba e33e
000001c0: 956b 9abd efa9 93bf 638c b1bf 6ae8 bdbe
000001d0: af7d fd3e 7f8a 8bbf 203c 29bf e235 ca3e
000001e0: 2c5d 46bf 7cd3 a73f 426b 95bf 7192 b4bf
000001f0: 8065 bbbe a61a 84be d9a8 c03e a179 ba3e
00000200: 05d2 1bbf 0667 d73e 96a0 1ec0 0457 d2bf
00000210: 8faf aebf 612b ca3f 2c18 22be 8c24 c6bf
00000220: 0e12 a0bf f373 0d3f 9d6c cdbf 9cb5 89bf
00000230: 70ca 44bf bdc9 8e3e d126 ad3f f4cf e93c
00000240: b0ff 8c3f aa08 843f 83e5 02c0 b80a 6a3f
00000250: a153 0d3f 2467 44bd 2792 03bf 1a77 293d
00000260: 8cc4 033e 4656 76bf c6d2 94bf 3526 84be
00000270: 5c8d 2dbe 1061 bfbf 639b e6be 8ca9 c33f
00000280: dbf0 c33e 9c93 9ebf 9f99 e7bf 32aa 32be
00000290: 05eb d6be a3fb 06bf d002 3e3f cbc0 953f
000002a0: 90f9 2bbf b361 083d f2c3 a53f 6160 3f3e
000002b0: 74f2 803f b8d7 4bbf 5159 b8be cd19 373f
000002c0: 8366 c73f 3b49 b6bf 2d07 72bd 5dd0 8dbf
000002d0: 9894 263e 2b69 9f3f 63a1 48bf 2831 663f
000002e0: 4a26 99bf 9f82 0e3f c36e 8abf 6d0d edbf
000002f0: 8eeb 75bf 7257 8abf edc2 5cbf 797b 80bf
00000300: f245 dc3e a45f bfbf 3330 9cbe d99d f83f
00000310: 2fae 69bf 0fee aebe 728e 0ac0 a16a a8bf

fc1.bias f4 [50]
-0.9527756 -0.23033944 -1.1932734 -0.1300041 -0.50522757 -0.40001532 1.9133791 -0.77631474
1.9645013 0.024833197 -0.06732293 0.051559985 -1.3391451 0.62256664 -0.14780015 0.25332555
1.1359453 0.70751613 0.50810206 -0.024338594 -0.24735934 0.610851 -0.10714356 -0.1691224
0.44136414 -1.8418536 0.03430695 0.73892677 0.81632745 0.8185663 -1.7068734 -0.055433545
-0.4562383 -1.3598652 -1.1428063 -0.1133815 0.29301944 0.5961999 0.9040409 0.29757807
0.8228086 -0.2196344 -0.4393652 0.98545563 -0.2390006 -0.011462085 -0.6605956 -0.41496056
0.7218438 -0.24475998
00000000: 1ae9 73bf 1ade 6bbe 2fbd 98bf cb1f 05be
00000010: 9856 01bf cfce ccbe 9be9 f43f 90bc 46bf
00000020: c774 fb3f fd6e cb3c 9be0 89bd 9030 533d
00000030: 1b69 abbf 8760 1f3f ec58 17be e3b3 813e
00000040: a866 913f c71f 353f fa12 023f bb61 c7bc
00000050: c44b 7dbe bb60 1c3f 156e dbbd 6c2e 2dbe
00000060: 7bfa e13e dcc1 ebbf 7285 0c3d 4e2a 3d3f
00000070: d6fa 503f 908d 513f d47a dabf 490e 63bd
00000080: 1198 e9be 1010 aebf 7a47 92bf 8f34 e8bd
00000090: a506 963e 8fa0 183f 396f 673f 275c 983e
000000a0: 96a3 523f d7e7 60be 7af4 e0be d246 7c3f
000000b0: 93bc 74be 78cb 3bbc cb1c 29bf b675 d4be
000000c0: c1ca 383f 5ca2 7abe

fc_out.weight f4 [10, 50]
-1.0739392 0.48795068 -1.0926094 0.12869632 -1.1496065 -0.3902686 -0.14875427 0.2899703
-1.6301513 -0.017211616 -0.024993272 -0.04104665 -1.7054173 0.49955192 -0.1985049 0.24768275
0.57710433 0.08029048 0.13061605 -0.7991278 0.2700403 0.7697215 0.86798406 -1.4859269
0.14787525 -1.0886654 0.11566766 0.20351082 -0.3443493 -0.5737948 -0.97286636 -0.24102733
-1.5501357 0.015510241 0.1087392 0.5801651 -0.07516583 0.026053913 -0.107757725 0.5346903
-0.23590957 -0.024060475 0.19305341 -0.51675266 0.15721096 -0.12807623 -2.3374808 0.035518616
0.6078229 -1.1140158 -0.55276644 0.89901155 -0.4739528 0.07366356 -0.8328999 -0.4557896
-0.42796808 -0.38712278 -0.49839407 0.13789769 -0.39775234 0.23927262 -1.3291334 0.21679401
0.18764135 0.20611145 0.4263018 -0.39303687 -0.075267725 -0.4664018 -0.09044325 0.5415195
0.67912865 -1.2385015 0.17258868 -0.6047719 -0.54798096 0.24680367 -0.3331672 0.18332836
-1.2115865 0.08536132 -0.707918 -0.89448416 -0.4152005 0.57618016 -0.22751921 0.053695623
0.14506027 0.305321 -0.5852279 0.39189315 0.38292995 -0.053727403 -0.7740342 -0.020625474
-0.84364307 -0.013667703 0.86340195 -1.1438648 -0.8014617 0.5763938 -0.633958 -0.25184336
-0.46717715 -0.4033999 -0.6772222 -0.70680594 -0.5764855 0.02688989 0.07777833 0.13405132
-1.1155647 0.4624991 0.054918498 0.19962196 0.39207473 -0.33004898 -0.030837247 -0.30124363
0.08322483 0.7053667 0.89904714 -1.4108568 0.090488315 -0.67727757 0.047844153 0.38039276
-0.43388528 -0.21261437 -0.89843965 -0.18206295 -0.95338887 -0.63320524 -0.61377597 0.3707882
-0.417445 0.14980923 0.3033314 0.7158438 -0.5293547 0.20697485 0.6076309 -0.191418
-0.12014369 0.017562466 -1.1920043 -0.049058408 0.64515555 -0.68551105 -0.33643848 0.833598
-0.5981221 -0.38401794 -0.09744005 -0.58669984 -0.5779895 -0.52891415 -0.9902016 -0.29915294
-0.34352612 -0.1378758 -1.1252446 0.36716217 -0.07231513 0.32108143 0.8082216 -0.2876975
0.015295196 -0.27954814 0.080010414 0.6727656 0.6206412 -1.2416371 0.29779014 -0.73179305
-0.07112434 0.18003792 -0.71105 -0.15209505 -0.766207 0.16833319 -0.6710122 -0.87786216
-0.68329155 0.76141566 -0.05877123 0.35359883 0.4926287 0.5282747 -0.66741383 0.46991867
0.45669627 -0.14553174 -0.22731477 -0.108835414 -0.7870162 -0.121114224 0.48691857 -0.82255894
-0.64150053 0.20315607 -0.5864952 0.03407365 -0.22907932 -0.5346708 -0.5931667 -0.88112086
-0.40996107 0.021189015 -0.20026208 -0.19431478 -1.1101651 0.10007418 0.27656808 0.14510582
0.15771784 -0.3056686 0.1450778 -0.6571811 0.104363024 0.6465081 0.87044257 -1.2447994
0.28880078 -0.98623055 0.07899955 0.11307656 -0.5310935 0.28982 -0.70717204 0.029914903
-0.6921615 -0.43274063 -0.9106353 0.38519838 -0.20836653 0.31148443 -0.023173187 0.2463988
-0.19209875 0.36869654 0.32028195 -0.3238505 -0.3942581 -0.13353693 -1.1177355 0.23078707
0.76987326 -0.89787227 -0.57231754 0.7927278 -0.9029834 -0.42391163 -0.27334577 -0.44164985
00000000: d776 89bf acd4 f93e a0da 8bbf f8c8 033e
00000010: 4e26 93bf 49d1 c7be 0a53 18be fd76 943e
00000020: cca8 d0bf 60ff 8cbc b1be ccbc 8820 28bd
00000030: 1d4b dabf 45c5 ff3e de44 4bbe 8ca0 7d3e
00000040: 1cbd 133f 566f a43d 37c0 053e a493 4cbf
00000050: b942 8a3e 780c 453f 3434 5e3f da32 bebf
00000060: 9c6c 173e 6359 8bbf 2be3 ec3d 2465 503e
00000070: 8d4e b0be 37e4 12bf c50d 79bf decf 76be
00000080: d96a c6bf aa1e 7e3c a8b2 de3d b385 143f
00000090: 8bf0 99bd 046f d53c 15b0 dcbd 77e1 083f
000000a0: 4792 71be 791a c5bc cbaf 453e e749 04bf
000000b0: e9fb 203e 6a26 03be 4999 15c0 f87b 113d
000000c0: 489a 1b3f 1298 8ebf 1a82 0dbf 9f25 663f
000000d0: f1a9 f2be ecdc 963d ee38 55bf 415d e9be
000000e0: a21e dbbe f534 c6be 822d ffbe 0d35 0d3e
000000f0: 32a6 cbbe e203 753e 0b21 aabf 40ff 5d3e
00000100: 0e25 403e e10e 533e 3b44 da3e 213c c9be
00000110: f725 9abd 37cc eebe 503a b9bd 06a1 0a3f
00000120: 60db 2d3f 3887 9ebf 16bb 303e 55d2 1abf
00000130: 7b48 0cbf 1aba 7c3e e494 aabe 6eba 3b3e
00000140: 4415 9bbf ead1 ae3d 1d3a 35bf eafc 64bf
00000150: 2995 d4be 8b80 133f ccfa 68be f1ef 5b3d
00000160: ae8a 143e 0953 9c3e 7fd1 15bf 38a6 c83e
00000170: 650f c43e 4411 5cbd 1b27 46bf c1f6 a8bc
00000180: fef8 57bf 80ee 5fbc e907 5d3f 296a 92bf
00000190: 982c 4dbf 8b8e 133f 124b 22bf 9df1 80be
000001a0: d831 efbe 6f8a cebe 6f5e 2dbf 3cf1 34bf
000001b0: 8e94 13bf 3048 dc3c 3f4a 9f3d c044 093e
000001c0: d3ca 8ebf afcc ec3e 38f2 603d b369 4c3e
000001d0: 05be c83e 2efc a8be 659e fcbc 9b3c 9abe
000001e0: c871 aa3d e992 343f f427 663f f596 b4bf
000001f0: f051 b93d 1062 2dbf 3bf8 433d d7c2 c23e
00000200: 3626 debe 95b7 59be 2400 66bf b66e 3abe
00000210: 4b11 74bf bd19 22bf 6c20 1dbf f3d7 bd3e
00000220: 5abb d5be 9767 193e 414e 9b3e 8a41 373f
00000230: ca83 07bf 37f1 533e b38d 1b3f 1503 44be
00000240: e50d f6bd 29df 8f3c 9993 98bf 78f1 48bd
00000250: ea28 253f a77d 2fbf aa41 acbe ae66 553f
00000260: 881e 19bf 009e c4be a68e c7bd f631 16bf
00000270: 1ff7 13bf eb66 07bf da7d 7dbf 932a 99be
00000280: a8e2 afbe 502f 0dbe 0408 90bf aefc bb3e
00000290: f419 94bd c964 a43e 9ce7 4e3f 164d 93be
000002a0: b498 7a3c ef20 8fbe 80dc a33d 5e3a 2c3f
000002b0: 57e2 1e3f f7ed 9ebf f377 983e ca56 3bbf
000002c0: a3a9 91bd dc5b 383e 5f07 36bf cebe 1bbe
000002d0: 2426 44bf 895f 2c3e 75c7 2bbf 93bb 60bf
000002e0: 32ec 2ebf 23ec 423f 1aba 70bd e80a b53e
000002f0: d439 fc3e 033d 073f a2db 2abf 2e99 f03e
00000300: 18d4 e93e 4606 15be 34c5 68be 1ae5 debd
00000310: e579 49bf bc0a f8bd 644d f93e 3993 52bf
00000320: 6139 24bf 2508 503e 8d24 16bf d090 0b3d
00000330: c593 6abe 30e0 08bf c6d9 17bf 2391 61bf
00000340: 6be6 d1be 9694 ad3c 8111 4dbe 74fa 46be
00000350: e419 8ebf b1f3 cc3d 559a 8d3e 9f96 143e
00000360: c980 213e 9880 9cbe 468f 143e 053d 28bf
00000370: 48bc d53d 8e81 253f 53d5 5e3f 9655 9fbf
00000380: b2dd 933e 9b79 7cbf 84ca a13d af94 e73d
00000390: bef5 07bf 4963 943e 3a09 35bf 1910 f53c
000003a0: 7f31 31bf 2e90 ddbe 651f 69bf b938 c53e
000003b0: 095e 55be e37a 9f3e b2d5 bdbc f84f 7c3e
000003c0: 89b5 44be cbc5 bc3e fffb a33e bccf a5be
000003d0: 33dc c9be e8bd 08be f511 8fbf 7253 6c3e
000003e0: 6a16 453f f5da 65bf 6783 12bf 36f0 4a3f
000003f0: ec29 67bf f20a d9be faf3 8bbe ee1f e2be

fc_out.bias f4 [10]
0.15340014 -0.31549788 -0.117768705 -0.049718246 -0.15262865 0.026942523 0.029413113 -0.12365764
0.32869488 0.08408686
00000000: ed14 1d3e f088 a1be b830 f1bd 5ca5 4bbd
00000010: af4a 1cbe 91b6 dc3c c5f3 f03c 3740 fdbd
00000020: b24a a83e bb35 ac3d
