models/H2a2_271828.pt (torch_old, 14173 bytes, 6 tensors)

fc1.weight f4 [50, 4]
000000 d8 70 c9 be 30 73 27 3f 40 7f 3c 3f 6e 07 88 3f
       -0.39343905 0.6541014 0.7363167 1.0627267
000010 52 d4 58 3f a2 67 5e 3f 7e 1d 50 3f c6 31 8a 3e
       0.84698975 0.8687688 0.81295 0.269911
000020 26 8f 21 3f 76 78 0e 3f 6d 8a 4c 3f d2 34 31 bf
       0.6310905 0.5565256 0.7989872 -0.6922122
000030 00 73 a0 be 80 8b 2b 3f 13 4e 68 bf bf 3a 8c bf
       -0.31337738 0.67009735 -0.9074413 -1.0955428
000040 63 7b b7 3e 6f 8f c1 be 89 a9 58 3e 6e fe 82 3e
       0.35836324 -0.37804744 0.21158423 0.2558474
000050 45 72 46 3f b5 a8 2d bf d4 8d 39 bf ac 35 b4 3e
       0.7751811 -0.6783555 -0.7248204 0.35197198
000060 53 6d 4b bf 0b 04 18 bf e5 e3 6b bf 3b dd 29 3f
       -0.7946369 -0.5938117 -0.92144614 0.66353196
000070 ba b0 78 bf a6 d5 26 bf d9 39 1f bf 4f 0b 95 3f
       -0.97144663 -0.6516975 -0.62197644 1.1644076
000080 a0 d4 6c 3f 02 cc 0c 3f 33 43 9e bf 59 f2 45 3f
       0.9251194 0.5499879 -1.2364258 0.7732292
000090 98 5f 0b 3e 8e df 4e bf 9f dd 81 3e cc ea 58 bf
       0.13610685 -0.8080987 0.25364396 -0.8473327
0000a0 cc e5 d7 be c0 68 cf 3e 81 4b ca 3e 31 5e a9 3f
       -0.4216751 0.40509605 0.3951073 1.323187
0000b0 27 55 5a bf c3 27 74 3f 3d 43 10 bd b5 3c b4 bf
       -0.8528618 0.9537317 -0.035220373 -1.4081026
0000c0 03 3f 3e bf ff 3f 31 bf d1 a0 97 3e 4d 93 81 3f
       -0.743149 -0.69238275 0.2961488 1.0123078
0000d0 6d 71 df 3d 88 4f 58 3d 11 63 88 bf 26 ec 3a bf
       0.10910306 0.052810222 -1.0655233 -0.73016584
0000e0 13 77 db 3e a3 7a f1 be 46 6c bc 3e 39 0c 00 3f
       0.42864284 -0.47163877 0.36801356 0.5001865
0000f0 6f 06 9b 3f 47 99 05 3e b2 f8 19 bf 1f 08 6d 3f
       1.2111338 0.13046752 -0.60145104 0.92590517
000100 3c ac ef be 74 d7 1d bf d2 73 54 bf 64 98 80 bf
       -0.46811092 -0.6165688 -0.8298923 -1.0046506
000110 0d 37 98 bf 0f c4 88 3f a5 8c 37 bf e1 2e c8 bf
       -1.18918 1.0684832 -0.7169898 -1.5639306
000120 15 59 31 bf b9 01 7e 3f a5 0e 68 be 93 52 b3 bf
       -0.69276553 0.9922138 -0.22661836 -1.4009575
000130 0e b8 a2 3e c9 84 01 3f ed 13 fc 3e ff 72 85 be
       0.31781048 0.5059324 0.49233952 -0.26064298
000140 bc d5 a1 bf 96 af da 3f 9c 05 00 3f 6d 25 26 3e
       -1.2643352 1.7084835 0.5000856 0.16225214
000150 47 05 dc 3d 04 f8 36 bf c7 17 a8 3f ed 29 26 bf
       0.10743194 -0.7147219 1.3132256 -0.64907724
000160 e7 3d 39 bf f9 a5 96 be e0 82 ea 3d 2e 98 6c 3f
       -0.7236008 -0.29423502 0.11450744 0.9241971
000170 19 76 a2 3e 85 b5 88 be d8 6c c4 3f 41 c8 a6 3f
       0.31730726 -0.26700988 1.5345716 1.3029863
000180 16 3a 00 3f 14 a0 ec 3d c9 61 a7 3e ee 00 99 bf
       0.5008863 0.1155397 0.32691792 -1.1953409
000190 05 69 22 3f 72 eb 8e 3f ee 74 93 3f 3f 25 b1 3f
       0.634415 1.1165602 1.1520059 1.3839492
0001a0 54 0d 3e 3f 18 87 e1 be e7 c3 73 be c0 ff f2 3e
       0.7423909 -0.4404838 -0.238052 0.47460747
0001b0 6d 40 9f bf 69 5f 8a 3f e2 7d 63 3d 99 6b 82 bf
       -1.2441536 1.0810367 0.055539973 -1.0189086
0001c0 96 9b c4 3e 10 97 9f 3f 60 22 1a bf 0a 28 8d bf
       0.38399953 1.2467976 -0.602087 -1.1027844
0001d0 7b 8a a6 be 65 86 2a 3f 35 80 b8 bf e8 17 99 bf
       -0.32527527 0.6661132 -1.4414126 -1.1960421
0001e0 3b 6e 6b 3e 76 89 b6 3f 36 99 a3 3f ce 1d 7a be
       0.22991268 1.42607 1.2781131 -0.24425432
0001f0 2e 20 11 3e c7 3d 59 3f 5a 72 c3 bf 3b 34 18 bf
       0.14172432 0.8485989 -1.5269272 -0.594547
000200 5d d4 8e be 33 84 e4 be 7f 2d 2c bf 79 53 b7 3f
       -0.27896395 -0.4463211 -0.6725692 1.4322349
000210 69 00 90 3e 12 5c 82 bf 09 e2 d2 3d 3d 8c 8c bf
       0.28125313 -1.0184348 0.10297019 -1.0980297
000220 6d 57 11 3f 1f 8e 0e 3f 80 21 55 3f 46 48 89 3f
       0.56774026 0.5568561 0.8325424 1.0725181
000230 62 c5 f9 be 4c 08 29 3f c9 e2 12 be 1d da 93 bf
       -0.48783404 0.66028285 -0.14344324 -1.1550938
000240 34 2b 34 3f 27 5c 44 3e 49 f4 a6 bf d1 6f b7 3f
       0.7037842 0.19175778 -1.30433 1.4330999
000250 48 79 fa be 09 ba 86 bf a3 74 00 3f 16 1d 39 bf
       -0.48920655 -1.0525523 0.50177974 -0.72310007
000260 f0 2f 88 3f e5 d1 e6 be 31 7a 57 3f d1 57 34 3f
       1.0639629 -0.45082012 0.84170824 0.704465
000270 cf 1f 8e 3f f6 fa 39 be ce 09 36 3d 81 64 1e bf
       1.1103457 -0.1816214 0.044442944 -0.61872107
000280 d7 e3 5e bf 27 3c 5b 3f 49 ce e9 bf b3 9e 8e bf
       -0.87066406 0.8563866 -1.8266078 -1.1142181
000290 3d 75 34 bf 03 94 9c bf 60 b5 89 be 2f 34 50 3f
       -0.7049139 -1.223267 -0.2689619 0.81329626
0002a0 ed 35 ba bf fd 4b 78 be e1 48 bf 3f d2 37 61 3e
       -1.4547707 -0.24247737 1.4944116 0.2199395
0002b0 86 27 05 3f fa 49 bc 3e f2 fe 0d 3e 9b 92 37 3f
       0.5201343 0.3677519 0.13866785 0.7170808
0002c0 d7 80 aa bf f7 19 89 3f 9c a8 db be 7e 6f 2c 3f
       -1.3320569 1.0711049 -0.42902076 0.67357624
0002d0 9c f2 50 3e b5 07 90 bf e8 83 31 bf 76 45 10 3e
       0.20405048 -1.1252352 -0.693419 0.14088997
0002e0 a8 3e 24 3e 80 c7 5e 3d 60 ce ab 3e 54 53 84 bf
       0.16039526 0.054389477 0.3355589 -1.033793
0002f0 d6 70 24 bf a7 50 2a bf d0 b1 05 be ee 0f 0e bf
       -0.64234674 -0.66529316 -0.13056111 -0.55493057
000300 84 49 7f bf 6f a5 81 bf 10 b0 9c be 3e ea 97 be
       -0.9972155 -1.0128611 -0.30603075 -0.296709
000310 16 98 a3 be d2 d4 f0 bd 69 3b a3 3f 23 60 82 3f
       -0.3195197 -0.11759342 1.2752506 1.0185589

fc1.bias f4 [50]
000000 09 d6 54 3f d6 3d 14 3f 67 12 bb be 0e 2a 1b bf
       0.8313909 0.57906854 -0.36537477 -0.60611045
000010 43 bf 32 3d 17 dc 04 bd 60 60 a2 be e5 1a e4 3e
       0.043639433 -0.032436457 -0.31714153 0.4455177
000020 32 80 4c bd 92 38 1f bf 7c ef 0d 3f e2 bd 80 be
       -0.049926944 -0.62195694 0.5544355 -0.2514487
000030 77 5a 5b 3e 1e d2 eb 3b 96 1f 88 3e c5 53 64 be
       0.21421228 0.007196679 0.26586598 -0.2229758
000040 d4 f6 30 be e1 12 39 bf ad b7 36 bf 41 dc 15 3f
       -0.17281657 -0.7229443 -0.71374017 0.58539206
000050 4f 88 82 be f3 73 42 3e b9 bd d6 3e fc 8c d6 3d
       -0.2549462 0.18989544 0.41941622 0.104761094
000060 82 a8 46 bd 95 82 5d 3e 99 bf f5 3e 8e d3 ec be
       -0.048500545 0.21631844 0.4799774 -0.46255153
000070 fb 7f 06 bc 90 d9 69 be 23 ab 23 3f b3 ef d7 3e
       -0.008209224 -0.228369 0.6393301 0.42175063
000080 8c 5a 63 3e 33 05 61 bf 1b 62 d4 3d d2 3f 52 be
       0.2220251 -0.8789856 0.10370275 -0.20532158
000090 e1 14 c5 3d 5c c3 bf be f2 91 05 bf fd 07 5f bf
       0.09623123 -0.37453735 -0.5217582 -0.87121564
0000a0 84 d3 e4 be e2 43 16 3f b5 2b aa bc 50 68 7d 3c
       -0.44692624 0.5869733 -0.020772794 0.015466765
0000b0 19 19 cb 3d 9e 61 03 be 90 78 a0 be 68 44 b5 bd
       0.099168964 -0.12830207 -0.31341982 -0.08850938
0000c0 a0 36 a0 bc 8e b9 e7 3e
       -0.019557297 0.45258754

fc2.weight f4 [50, 50]
000000 0f 1d 25 3c e3 11 fc 3e 9c 2d 8e 3f db 6a 4f be
       0.010077729 0.49232396 1.1107669 -0.20255606
000010 3d 4f 24 3b 7e a7 06 3e 42 57 8c 3d fe d3 ce be
       0.0025071644 0.1314983 0.068525806 -0.40396112
000020 53 7a 90 3e c3 7f 5a 3f 46 fd c7 be e7 4a a7 be
       0.28218326 0.853512 -0.3906042 -0.32674333
000030 45 0f a3 be 33 69 0c 40 63 a0 18 3e 31 1f 64 be
       -0.31847587 2.1939209 0.14904933 -0.22277524
000040 18 0c 62 3e b2 90 41 be fc f8 2b be bb f4 d0 3e
       0.22074926 -0.18902853 -0.16794199 0.40811715
000050 4c fe af bd 1d 0c 81 3e 27 1d 71 be a7 d7 91 3e
       -0.08593425 0.25204554 -0.23546277 0.28484842
000060 ab 8c 26 3f a8 d1 f8 be ca 29 71 bc ed 56 68 3e
       0.6505839 -0.48597455 -0.014719436 0.2268941
000070 1f 09 d2 bd 93 c5 86 be 8c a5 6c 3f d5 32 9f 3f
       -0.10255646 -0.26322612 0.92440104 1.2437388
000080 3e c2 ca 3d 01 e8 82 3f 20 5c 44 be e4 52 09 3e
       0.0990033 1.0227052 -0.19175768 0.13410527
000090 c0 d0 19 3e cb 89 62 3f dd b8 1e be b7 0e ab be
       0.15021038 0.88491505 -0.15500207 -0.33409664
0000a0 81 b2 68 bf 5e 89 1d be 9b 12 1a 3f 45 10 9a 3e
       -0.90897375 -0.15384433 0.6018464 0.30090538
0000b0 82 38 7e bd d1 77 bd 3e 4c fa 72 be 2a 12 83 be
       -0.06206561 0.37005475 -0.23728293 -0.25599796
0000c0 8c 42 4b 3e b3 b6 c0 bd bc a2 42 3e 69 9c a3 be
       0.19849604 -0.09409847 0.1900739 -0.3195527
0000d0 ee 80 a5 be c2 e4 ad bf 20 3f 32 be 50 9b 4f 3d
       -0.32324928 -1.3585436 -0.17406893 0.050685227
0000e0 41 fd b3 3e 63 26 99 3b 53 00 16 bd ed 1f 46 bf
       0.35154155 0.0046737655 -0.036621403 -0.77392465
0000f0 d7 d7 cc 3e 71 19 30 bf e6 e4 04 be ba f1 99 bf
       0.40008423 -0.6878882 -0.12977943 -1.2026894
000100 27 de 53 be 98 c7 85 3e aa a8 04 be cb 3f 15 be
       -0.20690213 0.2612884 -0.12954965 -0.14575116
000110 f9 2a b0 bf 21 34 1c bf 77 d3 c8 bd ef 7e 26 3e
       -1.3763114 -0.6101704 -0.09805959 0.16259359
000120 39 7e 8b 3e 2e c5 22 be 75 4e 1b bf 40 bd 3a 3e
       0.27244738 -0.1589553 -0.6066659 0.18236256
000130 65 5a b8 be 40 b7 dd 3d 72 0f cb bf b7 99 78 bf
       -0.36006466 0.10825968 -1.5864089 -0.9710955
000140 8b e6 8e bd fd f3 5c 3e 0d 3a f1 3e 8c b4 3e bf
       -0.06977566 0.21577449 0.47114602 -0.7449424
000150 a5 9c b2 3e 1d 0f 11 bf 26 56 88 3e 3a 3a 42 bf
       0.34885135 -0.56663686 0.26628226 -0.75870097
000160 14 1b e1 3d 90 02 54 be 4f 4a bb be bb f7 88 3d
       0.10991493 -0.20704103 -0.3658013 0.06687876
000170 9a 59 5b bd eb 92 c9 bd d9 7e ed bd a0 36 82 bd
       -0.053552248 -0.098424755 -0.1159646 -0.06358075
000180 36 ef 1f be 50 80 8a 3d 38 fd 93 bd 37 c5 70 3a
       -0.15618595 0.06762755 -0.07226032 0.0009184661
000190 9f f8 cc bd aa f7 35 be b3 b2 28 3e 9f 1e 3d 3f
       -0.10008358 -0.17770258 0.16474418 0.7387485
0001a0 1b a3 03 3e 20 03 4b 3e 71 a3 02 3c af 14 eb 3e
       0.12855189 0.19825411 0.007973538 0.45914218
0001b0 0b e5 05 3e 3b 29 96 3e 79 1a 11 3e 9c fc cb 3e
       0.13075654 0.2932833 0.14170255 0.39841163
0001c0 c2 74 bd b9 92 9d a4 3f ad d7 4c 3d f1 ae 49 3d
       -0.0003613588 1.2860587 0.050010372 0.049239103
0001d0 28 52 74 3e c1 93 65 be 59 10 c2 bc f3 f8 87 be
       0.23859465 -0.22419645 -0.023689436 -0.2655712
0001e0 b4 db ce 3e 3c a0 68 3e 24 f4 55 3e 08 d7 38 3e
       0.40401995 0.22717375 0.20893914 0.18050778
0001f0 ad 24 00 3f 50 ba 95 be 8f 5c 89 3e c5 a7 69 be
       0.5005596 -0.29243708 0.2682843 -0.22817905
000200 ba df b3 3e ad 51 72 3e 69 ee c2 be 35 17 a9 3e
       0.35131627 0.2366397 -0.38072518 0.33025518
000210 65 82 8c bd 99 5a 67 3e 37 8d 47 be 67 d8 86 bf
       -0.06860808 0.22593154 -0.19487463 -1.0534791
000220 db a6 67 3e e7 be 60 be 13 8c 9a 3e c1 61 87 3e
       0.22622244 -0.21947823 0.30184993 0.26441768
000230 7f 6e 22 3f 65 79 8f be 83 4d 3e bf 99 82 95 be
       0.63449854 -0.28022304 -0.74337023 -0.292012
000240 c3 d4 b3 3e da 4b 5e be a4 a7 42 be f0 4a 27 be
       0.35123262 -0.21708623 -0.19009262 -0.1633718
000250 b3 87 a5 be 7d 77 48 be df dd ab 3e 63 b9 9b 3e
       -0.32330093 -0.19576831 0.33567712 0.30414876
000260 cb 58 ee 3e 7b 4f 29 bf 26 f1 84 3e bd c6 81 be
       0.4655212 -0.661369 0.25965232 -0.25346938
000270 59 6d 42 be ac e9 81 bd f0 30 34 3e 43 79 84 be
       -0.18987025 -0.063433975 0.17596793 -0.25873765
000280 aa a4 79 3e 65 00 d9 be 5f d2 1a 3e eb b9 0c 3e
       0.2437922 -0.42383114 0.15119313 0.13742797
000290 81 a5 84 3e 61 19 a9 3d 72 cd f6 bd de a0 2e bf
       0.2590752 0.08256794 -0.12050904 -0.68214214
0002a0 49 18 42 3e a9 66 bd bb 5f d4 8b 3e 6d 53 f6 3d
       0.18954577 -0.0057800603 0.27310464 0.12027631
0002b0 bd de 25 be 10 62 7e be 44 c3 94 bd 1c cf 8d be
       -0.16198249 -0.24842095 -0.072638065 -0.27697074
0002c0 86 d1 37 3e 01 dc a0 be 30 33 2a bf ce 6d 68 be
       0.1795102 -0.3141785 -0.66484356 -0.22698137
0002d0 78 b3 af 3d eb 59 38 bd ec 82 82 3e cb bc 2f bf
       0.08579153 -0.045007627 0.2549051 -0.6864745
0002e0 e1 1b 8f 3e ce 1e 22 3f eb 40 7d 3d 4b c7 c2 3e
       0.27950957 0.63328254 0.06182949 0.38042673
0002f0 30 0b 1c 3e 2d 2a 32 be c2 45 b4 be 0f ff 52 be
       0.15238643 -0.17398901 -0.3520947 -0.2060511
000300 7a 77 f3 3e 0c f9 5b 3e b9 12 a9 be 04 63 14 3e
       0.4755209 0.21481723 -0.33022097 0.14490896
000310 61 ec 82 be 1c 36 9e 3e e8 9a a4 3d fa 37 66 3e
       -0.25570968 0.30900657 0.080373585 0.22482291
000320 22 fb e4 3c 55 3f 80 3e 30 3c 0c be 0a ae ba bf
       0.02795178 0.25048319 -0.13694835 -1.4584363
000330 69 be a4 bc 32 73 85 be d6 48 6f 3e 1b 12 05 3e
       -0.020110326 -0.2606445 0.23367628 0.12995188
000340 74 aa 2b 3d e9 fc d2 be 48 e5 12 3e 89 e0 01 c0
       0.041910604 -0.4120858 0.14345276 -2.0293295
000350 1f ec 1e 3e 7c 31 1e be ff 09 a7 3c 8b ca e8 3e
       0.1551976 -0.15448564 0.020390509 0.45467028
000360 e0 68 03 bc a8 62 d0 bf 8b d6 e1 bf b6 b1 9f be
       -0.00802061 -1.6280107 -1.7643598 -0.3119027
000370 ca 37 b3 bd f4 69 1e bd d2 03 a2 3e 33 3c 34 3c
       -0.08750875 -0.038675264 0.3164354 0.011000681
000380 16 2d 92 be be 4e c6 bd 94 94 18 3e 49 1d 8d bf
       -0.28550023 -0.09682988 0.14900428 -1.1024562
000390 de ee e0 bf 9b cc b7 be 6c 21 f7 be 50 f5 bc 3d
       -1.7572896 -0.3589829 -0.48267686 0.09226477
0003a0 1f bc 9f 3e 8b 6b 58 be 27 98 b6 bd 28 30 22 3d
       0.31198213 -0.21134774 -0.089157395 0.039596707
0003b0 f2 78 8a 3e a9 1d 82 3a 42 36 1f 3e 01 27 d4 be
       0.270454 0.0009927052 0.15548041 -0.41436008
0003c0 65 18 d8 3d 7e c2 d0 3e c8 59 ef be b0 7d 33 3d
       0.10551528 0.40773386 -0.46748185 0.043821037
0003d0 61 15 57 bd 24 fe 79 be 80 40 e0 3b 50 e3 0a be
       -0.052510623 -0.24413353 0.0068436265 -0.13563275
0003e0 ec 45 b9 3d c4 3d 28 bd bf 57 db 3c 75 a4 d9 3d
       0.0904654 -0.04107453 0.026775239 0.10627071
0003f0 64 1f 66 bf 19 ca c2 bf 34 59 1c 3d 0d f4 03 be
       -0.8989165 -1.5217925 0.03817101 -0.12886067

fc2.bias f4 [50]
000000 2d e1 e7 3d 88 62 e1 3d db b6 fd bd a9 2c d1 3c
       0.11322246 0.110051215 -0.123883925 0.025533991
000010 33 99 a7 3e 9a 0b 06 bc 5c 4b b7 3d c1 6d c9 3c
       0.3273407 -0.008181477 0.089499205 0.024588468
000020 af 5f 35 3e a8 e0 9e 3d 6d a8 25 3e 10 39 08 be
       0.17712282 0.077576935 0.1617753 -0.13303018
000030 c5 6d b8 3e e2 45 e3 bd d3 cb bc be 07 bd 2c 3d
       0.36021248 -0.110973135 -0.36874256 0.042172458
000040 a8 d2 69 3e 11 84 8f 3e 75 48 e0 bd 2b e4 c8 3e
       0.22834265 0.28030446 -0.1095132 0.39236578
000050 f1 7a cd 3e 6b eb 31 be 55 f8 8e bd cc c5 7d 3d
       0.4013286 -0.17374961 -0.06980959 0.061956212
000060 24 f2 f0 bc 0e da b0 3d 9e d2 ec 3d 81 24 9e bd
       -0.029412337 0.08635341 0.115636095 -0.07721806
000070 67 fe 4c 3d 22 e7 5a be 02 d3 9c 3e 80 4c 32 3c
       0.050047304 -0.21377233 0.30629736 0.010882497
000080 db 91 56 3b f0 54 2e 3d 36 f5 05 bc 1e 87 87 bd
       0.0032740745 0.04256147 -0.008176139 -0.066175684
000090 93 f6 95 bd 9d cb 6f 3e 62 1f f8 bd 1a 24 90 3e
       -0.07322421 0.23417516 -0.12115361 0.28152543
0000a0 30 0c 75 3e 46 9b 56 3e 9d d4 5e be b2 58 f3 3d
       0.2393043 0.2095767 -0.21760793 0.11882152
0000b0 18 fc e3 bd 44 c1 69 be 4c 22 2c 3e 0b 5e 66 3e
       -0.111320674 -0.22827631 0.16809958 0.22496812
0000c0 6f 89 da 3b 7d 68 13 3d
       0.0066692154 0.03598832

fc_out.weight f4 [10, 50]
000000 26 03 31 bf 42 ac b7 3e b8 2c 96 be 3c 72 bf be
       -0.6914543 0.3587361 -0.29330993 -0.3739184
000010 8b 8f f0 be 96 e3 a6 3e f5 08 ed 3d c6 60 e2 3e
       -0.46984515 0.3259551 0.11573974 0.44214457
000020 df ca fe be dc d4 30 3e 52 dd f3 be 11 1a 86 bf
       -0.49764153 0.172687 -0.47629791 -1.0476705
000030 aa 5d 67 3e e2 f0 2d 3e d7 5d ca bd 2f 85 fb 3d
       0.22594324 0.16986421 -0.0988118 0.12281262
000040 33 62 8c be af 62 a1 bd 38 a5 fe 3e 8a c2 fc be
       -0.2741867 -0.078801505 0.49735427 -0.49367172
000050 59 c1 27 be f2 35 1f 3f 67 f6 bf be 6d bc b1 3d
       -0.1638235 0.6219169 -0.37492678 0.086785175
000060 8e 2f e2 3e 7b 2b 96 3e 4a 45 51 3e 01 c3 e7 3e
       0.44176906 0.29330048 0.20436588 0.45265964
000070 e2 81 cb 3e 80 84 24 bf 86 fe 80 bf 36 60 6e 3e
       0.3974753 -0.6426468 -1.0077674 0.23278889
000080 4a 64 db be 76 a7 78 3e f1 23 80 3f 57 96 c4 3f
       -0.42849952 0.24282631 1.0010968 1.535838
000090 2c 68 ba bf ff 49 ea be b9 11 f6 3e 9c 03 37 3f
       -1.4563041 -0.4575958 0.48060396 0.7148988
0000a0 0f 8e 91 be 76 32 78 be a8 dc ec 3e b9 6d 18 3e
       -0.28428695 -0.24238 0.46262097 0.14885606
0000b0 2a 24 77 bf 64 38 76 3f 84 a5 1a bf bf d4 81 be
       -0.96539557 0.96179795 -0.60408807 -0.25357625
0000c0 f5 60 eb bd 93 ef 8f be 11 b6 2c bf 78 71 96 3d
       -0.114931025 -0.28112468 -0.6746531 0.07345861
0000d0 e1 bc 3a be 5e 5e f5 3d 3f aa a8 bd ab 62 06 3f
       -0.18236114 0.1198089 -0.08235597 0.52494305
0000e0 fe 1d 16 3d 74 9f 52 3c de 7c ea bd 66 50 01 3e
       0.036649697 0.012855399 -0.11449598 0.12628326
0000f0 39 6c c5 be 0b 8c 48 bf 18 8e 9b be 5f 32 85 3e
       -0.3855913 -0.7833869 -0.30381846 0.26014993
000100 7f 7a f5 be 90 ba 96 be 88 e1 a4 be af 91 49 bd
       -0.4794502 -0.2943921 -0.32203317 -0.0492112
000110 ff 90 e4 3d 10 11 e8 be 79 e3 27 be a9 69 8f be
       0.11160468 -0.45325518 -0.16395368 -0.280103
000120 a9 ce 18 bf b7 63 a8 3e 1d b5 e7 3e c0 2f 71 3c
       -0.5969034 0.32888576 0.45255366 0.014720857
000130 49 d8 9b 3e b4 93 04 3f 36 ca 0b 3e 1e cd e9 be
       0.3043845 0.5178788 0.13651356 -0.45664304
000140 ea d6 5c bf 8a a2 6d 3e a3 e9 11 bf 84 be 16 3e
       -0.8626543 0.23206535 -0.56997126 0.14721113
000150 df 62 d9 3e a4 59 4e 3f da 4f 84 bf 8f 71 d6 be
       0.42458245 0.8060553 -1.0336869 -0.41883513
000160 0e 5b d1 bd 48 f7 2f 3f 33 c7 92 3d 0b 43 35 bd
       -0.102224454 0.68736696 0.071669005 -0.04425339
000170 44 4b 9e 3e d9 f6 f4 3e 88 f9 3e bf 4f 74 3e 3f
       0.30916798 0.4784458 -0.74599504 0.7439622
000180 94 2b b5 be 89 85 f0 bd 30 0e bb 3d 34 0e 22 bf
       -0.3538481 -0.1174422 0.091335654 -0.6330292
000190 c0 62 48 bf 96 f8 cb 3e c4 da 82 be 01 9f cc 3d
       -0.7827568 0.39838094 -0.2555753 0.09991265
0001a0 f0 c6 3c 3e 76 f9 9f 3d a7 d2 9e be b2 77 95 bc
       0.18435264 0.07811253 -0.3102009 -0.018245552
0001b0 ca 94 3f be b3 9a 3c 3e e6 0a 33 bf c8 9b 99 be
       -0.18709102 0.18418388 -0.69938505 -0.30001664
0001c0 6d b2 55 be 30 2f 86 3e 78 68 75 be fa cc 22 bf
       -0.20868845 0.26207876 -0.23965633 -0.6359402
0001d0 2b 04 e3 be ca 67 05 bf 79 16 b3 3e 65 c8 e7 be
       -0.44339117 -0.52111495 0.34978083 -0.45270076
0001e0 55 f2 a5 3d 19 10 02 be 8d 6f 30 be c3 8b c4 3e
       0.08102862 -0.12701453 -0.17230053 0.3838788
0001f0 6e cc 0a 3f ae 83 37 3e 79 7e 5b be 64 c3 e5 3e
       0.54218185 0.17921326 -0.21434964 0.44875634
000200 58 1f aa 3e c3 18 b6 be 12 b9 04 bf f6 0e 4b 3e
       0.33227038 -0.35565767 -0.51844895 0.19829926
000210 98 8c 2a bf 02 52 3d 3e 86 38 1c 3f 4d 51 06 3f
       -0.6662078 0.18488315 0.6102375 0.52467805
000220 cc 5e 52 bf eb 87 f6 be 8f c6 a8 3e b3 c4 dc 3e
       -0.821759 -0.48150572 0.32963988 0.4311882
000230 88 49 5f be 92 c9 1a 3c be b4 d2 3e e7 72 28 3e
       -0.21805394 0.009447472 0.4115352 0.16450082
000240 c9 b7 95 be 85 85 2b 3f 24 94 f3 be 94 a7 e3 bd
       -0.2924178 0.6700061 -0.4757396 -0.11115947
000250 ea 1f 6a 3e 44 00 ff be 97 17 ff be 6a 0f b9 3e
       0.22863737 -0.4980489 -0.49822685 0.36144572
000260 8a 37 17 bd 9e 40 85 bd d0 f4 ee 3d fb 9f b8 3c
       -0.0369182 -0.065064654 0.11667788 0.022537222
000270 a3 a4 ca be 57 f3 d1 3e 22 3a 95 be 4d ea e3 bd
       -0.39578733 0.41005966 -0.29145914 -0.11128674
000280 fa dc 33 bf 73 d8 0e bd e5 d9 af be 78 35 f6 3e
       -0.7025906 -0.03487439 -0.34345928 0.48087668
000290 28 75 d3 3c 0b 5c 05 bd cb c0 54 be dc e9 bd be
       0.0258127 -0.032558482 -0.2077667 -0.37092483
0002a0 69 8e 50 3e 0d fa c7 be 69 05 6e be 57 1b 58 be
       0.20366825 -0.3905796 -0.23244251 -0.2110418
0002b0 73 aa da be 32 30 23 3e 80 c9 20 3f 12 1e 47 be
       -0.42708167 0.15936354 0.62807465 -0.19445065
0002c0 0a 01 0c 3e 77 8a d7 3d d2 5d be 3e e2 65 cf be
       0.13672271 0.10524457 0.37180954 -0.40507418
0002d0 63 b6 01 bf c2 f8 70 3e 39 76 e8 be 20 35 b2 3c
       -0.50668925 0.23532394 -0.45402697 0.021753848
0002e0 52 14 63 3f 53 8f cc 3e 8a 42 2b bf 98 68 72 be
       0.8870288 0.39953098 -0.66898406 -0.23672712
0002f0 3e 8d e0 3e 61 4f 44 3d 9d 51 9a bd 26 9b 1b 3e
       0.4385776 0.047927264 -0.07535098 0.15195903
000300 16 57 e4 bd 8b 86 ef 3e 91 c2 18 bf f1 14 0e 3f
       -0.11149423 0.46782336 -0.59671885 0.55500704
000310 2f e6 c1 be 6a 57 52 be e2 40 f6 3c 0f 1d c9 be
       -0.3787093 -0.20541158 0.030060235 -0.39279982
000320 09 ba 40 bf 67 44 c6 3e 59 fc 85 be 7b e6 0e 3e
       -0.7528387 0.38724062 -0.26169088 0.13955109
000330 24 26 45 bb ed 44 0f 3f 6f c2 89 be 75 fc 2e 3e
       -0.0030082548 0.5596455 -0.26906154 0.17088492
000340 95 85 f5 bd 55 16 57 bc 32 bf 03 bf 8c e7 20 be
       -0.119883694 -0.013127883 -0.51463616 -0.15713328
000350 c1 81 b4 3d 6f e3 58 3e c7 e2 52 3e 89 cc f0 be
       0.08813811 0.21180509 0.20594321 -0.47031048
000360 2d 99 96 bb 5d ec eb be 3c 3a 5c 3d 1c 63 83 be
       -0.0045958967 -0.46078768 0.053766474 -0.25661552
000370 09 88 27 be 12 ef 72 3d b0 73 30 bf a7 2c de 3e
       -0.16360487 0.059310026 -0.68926525 0.43393442
000380 d4 c0 8b 3e 78 0b 12 be 10 d0 78 3d 3c 60 98 3e
       0.27295554 -0.14262187 0.0607453 0.2976092
000390 b8 84 2b bd af f7 02 bf b3 de bd be b8 d3 24 3d
       -0.041874617 -0.51159185 -0.3708397 0.040240973
0003a0 bb e2 31 bf a6 99 39 3e 33 f5 9c 3e df 0e 64 3e
       -0.6948659 0.18125018 0.30655822 0.22271298
0003b0 cd 3e 80 bf e7 64 be be 32 ba 5e 3e 0f 11 36 3e
       -1.0019165 -0.37186357 0.21750715 0.17779945
0003c0 1e 1c b9 be 3f aa 5a be 71 ab 6c 3d 93 3b b7 3e
       -0.36154264 -0.21354006 0.057780687 0.3578764
0003d0 29 2c 19 bf 48 9f 6f 3f f8 f4 9c be fe 91 2e 3e
       -0.5983301 0.9360242 -0.30655646 0.17047879
0003e0 e8 09 a0 be 1f 96 f1 be c5 d9 dc be fc 30 ef 3e
       -0.31257558 -0.47184846 -0.43134895 0.4671706
0003f0 46 20 5f be 9d 96 9e be 28 e5 bd 3e 91 85 f6 3e
       -0.21789655 -0.30974284 0.37088895 0.48148778

fc_out.bias f4 [10]
000000 35 89 f2 3c 95 9a 16 be 51 9d 14 be 00 c3 cd bd
       0.029606441 -0.14707406 -0.14513136 -0.10046959
000010 e9 f8 80 be 2d 46 46 be d1 12 95 be d9 59 95 be
       -0.25189903 -0.19362707 -0.29115918 -0.2917011
000020 d7 26 eb bd be aa df 3e
       -0.114820175 0.43684953
