models/H2a2_230.pt (torch_old, 14173 bytes, 6 tensors)

fc1.weight f4 [50, 4]
0.5577493 -0.49646217 -0.3959568 0.35076654 0.8639235 1.0550399 0.6084954 0.9030529
-0.38396955 1.3461505 -0.1469726 0.3682048 -0.0020476985 -0.69116515 0.32097942 0.7057955
0.6390924 0.9062509 0.39812106 0.4058449 0.8875529 -0.94239277 0.75836796 -0.63844746
0.9103548 1.2254479 1.1663952 0.8420413 -1.096303 -0.5452671 0.9053458 0.20829904
-0.7628315 0.9886891 -1.4958966 -1.0437511 0.055047162 -0.58575827 0.27848345 -0.61068237
-0.39817247 0.68046206 -0.113458164 -1.0095633 -0.73432547 0.6907236 -1.2412983 -0.23850334
0.96762764 1.1656104 0.17450035 -1.0066859 0.6817643 -0.4730037 -0.9179059 -0.06730963
0.7474022 0.4872906 1.2310036 0.52795154 0.20019776 0.41405493 -0.5526943 1.0771613
0.95521545 -0.19302095 -0.6390224 -0.23509742 0.4352159 1.3086562 0.05079514 0.2970312
0.11336799 0.05200048 -0.8211217 1.4473937 0.3781817 0.27334946 0.90923816 0.8814545
-1.3206236 -0.49497917 0.5914439 0.8200395 0.0035465674 -0.41719598 0.2975702 0.35056916
-0.14990473 -0.419133 -0.6659754 -1.2139113 0.21105821 1.1773226 0.85263216 0.7546316
-0.635734 0.83369654 -0.2320536 -1.3735167 1.0118321 -0.06321953 -0.7511666 0.1452335
-1.1256356 -0.8754793 -0.9330009 0.70312613 0.18117428 -0.7936535 0.06534483 -0.7091939
1.0725268 0.6224874 0.868718 -1.0570123 0.4609203 0.80599856 -0.66436005 -0.003270951
0.8858406 -0.9271284 -0.3364938 -0.47327736 0.18352042 0.5348065 -0.31707728 0.56094617
1.0690231 -0.800827 -0.2569778 -0.44436115 -0.24750938 -0.12057796 -1.3652428 -0.3284231
0.18851304 1.2812333 0.3360438 0.42393318 0.50658023 -0.1926773 0.18652086 0.4617184
-0.19447589 0.84564567 -1.1091251 0.023625666 0.09243378 -1.0491691 -0.8090537 1.4079107
0.49669227 1.4530388 1.2299238 0.46829626 0.21605533 -0.7207367 -0.39638326 0.55954885
0.8973534 -0.29350704 -0.9570372 0.39335954 -0.3291085 0.9695427 -1.7191154 0.34826303
1.1105455 1.115307 -0.14128792 -0.46191907 0.4417695 0.81427544 -0.05135468 1.0399948
-0.6342275 0.40318447 -0.86880106 -1.4022701 0.08010626 0.034973383 0.15761256 -0.9474879
-0.00054139865 0.55459994 0.6033712 -0.6415105 -0.57550216 0.89124775 1.2851106 -0.18502659
0.8480035 0.7915832 -0.07947075 -0.7007442 -0.0023306196 0.9075181 0.5964577 1.1130098
00000000: a8c8 0e3f 4a30 febe daba cabe ac97 b33e
00000010: 172a 5d3f 8c0b 873f 5bc6 1b3f 7a2e 673f
00000020: a897 c4be a94e ac3f fc7f 16be 5785 bc3e
00000030: ae32 06bb 33f0 30bf 6a57 a43e 04af 343f
00000040: 8f9b 233f 0f00 683f 86d6 cb3e e7ca cf3e
00000050: ab36 633f a740 71bf 6724 423f 4b71 23bf
00000060: 030d 693f 7adb 9c3f 704c 953f 0590 573f
00000070: a853 8cbf a096 0bbf bec4 673f 584c 553e
00000080: ed48 43bf bb1a 7d3f 8a79 bfbf a399 85bf
00000090: 2279 613d 41f4 15bf 6295 8e3e ae55 1cbf
000000a0: 43dd cbbe c332 2e3f c15c e8bd 5f39 81bf
000000b0: c1fc 3bbf 43d3 303f dde2 9ebf 383a 74be
000000c0: 72b6 773f b932 953f 38b0 323e 15db 80bf
000000d0: 1b88 2e3f 8a2d f2be e2fb 6abf a2d9 89bd
000000e0: c055 3f3f 277e f93e 8791 9d3f d527 073f
000000f0: a400 4d3e 02ff d33e 607d 0dbf 6ce0 893f
00000100: 0089 743f 49a7 45be f996 23bf 61bd 70be
00000110: 9ed4 de3e 0c82 a73f 910e 503d 7914 983e
00000120: 7a2d e83d 75fe 543d 0835 52bf 3244 b93f
00000130: 08a1 c13e 76f4 8b3e d5c3 683f 01a7 613f
00000140: 320a a9bf e96d fdbe de68 173f 1cee 513f
00000150: 876d 683b b69a d5be 1f5b 983e cd7d b33e
00000160: a080 19be 9a98 d6be 5d7d 2abf 7261 9bbf
00000170: a51f 583e 82b2 963f 1a46 5a3f 892f 413f
00000180: 77bf 22bf 236d 553f 759f 6dbe 65cf afbf
00000190: b783 813f 3e79 81bd 744c 40bf 17b8 143e
000001a0: d414 90bf 691f 60bf 26d9 6ebf 1300 343f
000001b0: c085 393e e02c 4bbf 83d3 853d bb8d 35bf
000001c0: 8f48 893f 565b 1f3f 4e64 5e3f 2e4c 87bf
000001d0: bffd eb3e ec55 4e3f 8013 2abf 745d 56bb
000001e0: 73c6 623f 4958 6dbf ea48 acbe 6951 f2be
000001f0: c7ec 3b3e 14e9 083f f457 a2be 2b9a 0f3f
00000200: c0d5 883f 0003 4dbf 9892 83be 4e83 e3be
00000210: 1973 7dbe 94f1 f6bd 47c0 aebf 1327 a8be
00000220: 9009 413e 74ff a33f ef0d ac3e c50d d93e
00000230: 3eaf 013f 334d 45be 53ff 3e3e 5b66 ec3e
00000240: b024 47be 3c7c 583f d0f7 8dbf 9d8a c13c
00000250: ec4d bd3d 2c4b 86bf 251e 4fbf 6b36 b43f
00000260: 734e fe3e 2dfd b93f 256e 9d3f 87c4 ef3e
00000270: 9c3d 5d3e 3382 38bf bff2 cabe 983e 0f3f
00000280: f4b8 653f 8e46 96be 6400 75bf 6c66 c93e
00000290: e980 a8be f333 783f f90b dcbf 884f b23e
000002a0: 5b26 8e3f 61c2 8e3f c8ad 10be a880 ecbe
000002b0: 9d2f e23e 5b74 503f 4959 52bd 8d1e 853f
000002c0: bc5c 22bf 326e ce3e bf69 5ebf 967d b3bf
000002d0: c00e a43d 4040 0f3d 3065 213e 918e 72bf
000002e0: a6ec 0dba 43fa 0d3f 8976 1a3f 083a 24bf
000002f0: 1c54 13bf d028 643f 817e a43f 9c77 3dbe
00000300: c216 593f 32a5 4a3f 90c1 a2bd f963 33bf
00000310: 4fbd 18bb 1b53 683f 74b1 183f 1b77 8e3f

fc1.bias f4 [50]
0.8049954 0.29522312 0.58061224 -0.25300977 0.00084995164 0.71498597 0.67020607 0.39513564
-0.70855814 -0.9433422 -0.28493792 -0.6706039 0.008093357 0.82747704 0.75469863 0.6056005
-0.53434753 0.85005146 0.22968043 -0.13702993 0.089910306 0.69418687 0.18057948 0.2148816
-0.5226818 -0.06858372 -0.17909452 -1.2525018 -0.7676722 0.60698587 -1.2184541 0.37376428
-0.667016 -0.37934506 0.07326008 0.6858411 -0.34058478 0.28700113 0.17465357 0.2532404
0.5643627 -0.15638919 0.18518984 -0.26508224 0.11138266 0.09204614 0.53623515 0.19644143
-0.41169226 0.6647503
00000000: 2e14 4e3f 7c27 973e 01a3 143f 7f8a 81be
00000010: 4acf 5e3a 5209 373f a092 2b3f 384f ca3e
00000020: 1164 35bf e07e 71bf 62e3 91be b2ac 2bbf
00000030: 009a 043c 89d5 533f ee33 413f a208 1b3f
00000040: 00cb 08bf f99c 593f 5931 6b3e 9351 0cbe
00000050: e522 b83d 3bb6 313f d4e9 383e ec09 5c3e
00000060: 79ce 05bf 9f75 8cbd 8e64 37be fb51 a0bf
00000070: 2a86 44bf 6d63 1b3f 4ef6 9bbf 085e bf3e
00000080: 90c1 2abf 8439 c2be 6109 963d 4893 2f3f
00000090: 2161 aebe d0f1 923e 63d8 323e baa8 813e
000000a0: 137a 103f 7d24 20be 68a2 3d3e dcb8 87be
000000b0: 981c e43d b082 bc3d b546 093f f127 493e
000000c0: 54c9 d2be 132d 2a3f

fc2.weight f4 [50, 50]
0.0688722 -0.16447511 -0.005181721 -0.039468635 -0.074536435 -0.23701617 0.1415697 0.060904566
-0.08760709 0.27104717 -0.2724186 0.39422867 0.117612064 0.07478254 0.47779313 -0.0003465936
-0.12173279 0.46415392 0.23036727 -0.3371638 -0.020438844 -0.23016593 -0.19002958 0.057541694
0.10607624 -0.39453524 0.41688955 0.10608282 -0.06798038 0.073407575 0.11342275 0.08059769
0.20562962 0.51492995 -0.239085 0.36382446 -0.016053211 0.122832716 0.054502238 -0.25393096
-0.16593714 0.20195939 -0.20298825 -0.16753691 0.007126095 0.17845607 0.66645056 -0.095488116
-0.22944003 0.31187737 0.06516668 -0.08234083 0.11510185 0.113314636 0.30294466 0.23183519
-0.2519747 0.25942084 0.20447868 -1.1812427 0.43490428 0.25327107 -0.058232963 0.4646335
0.014683654 0.18734996 0.12265529 -0.35735637 -0.14660747 -0.08638856 0.19388048 0.13972914
-0.09452489 -0.047461204 0.31298724 0.09619439 -0.022524267 -1.0389063 -0.052963924 -0.30575135
-0.32764 0.024019849 -0.11811468 0.23423912 -0.2993783 0.21615835 0.015140515 -0.028152987
0.10898919 0.111451656 0.17004506 0.2401805 -0.32961398 0.06499918 0.57435185 0.110880435
0.3845683 0.17755449 0.26710147 -0.36310324 0.26364085 0.3555032 0.4975399 0.29844126
-0.11784269 0.17798515 0.08940458 -0.51653236 0.23605742 1.6534518 0.10466646 0.55145246
-0.24212575 -0.11546847 0.49319813 0.2890832 0.27086225 0.47010428 0.2079415 0.047720466
0.036278002 -0.42727622 -0.2617845 0.1025785 -0.042203534 -0.32640612 0.27045906 1.3966767
0.6671348 0.480097 0.31174776 0.4683501 0.1506267 0.79371053 -0.036520395 0.27826664
0.1375729 -0.17274824 -0.41225082 -0.10460989 0.026673635 0.61863816 -0.32253668 0.038695954
0.09646854 0.20866042 0.47650763 -0.13743871 -0.13759464 0.45498407 0.3413763 0.047227416
-0.194424 0.32690772 0.25798202 -0.032586444 -0.20860551 0.12800801 0.6290105 -1.6315266
0.59850264 0.46362096 -0.25579542 -0.11861745 -0.04425644 0.024486948 0.1196213 -0.39728996
-0.23392004 0.42590263 0.17719504 0.22422637 0.03579241 0.007074032 0.3281702 0.09281453
-0.32806596 -0.80789876 -0.32610145 0.05437782 -0.13437851 -0.2038093 -0.4692965 -0.15105233
-0.08984708 0.35955864 -0.40489864 -0.24334393 0.33078572 -0.058316965 0.2798032 0.0049142153
0.14674953 0.11781748 0.6076569 -0.035708636 -0.48298833 0.0459319 -0.15003738 -0.09990901
-0.21458972 -0.34094658 -0.29138523 0.10252389 0.119487286 0.13537854 -0.07257038 0.015435278
-0.18122202 0.229033 0.2665941 -0.26237792 0.23907971 -0.18190455 -0.26518884 -0.037021607
0.13138482 0.0564169 0.107118756 0.018053234 0.04779139 0.24686772 -0.19557095 0.3425728
0.33615977 0.19774723 -0.11441626 -0.18472247 -0.09257227 0.048300594 -0.14170936 0.14551646
0.11247474 -0.09631306 0.14400116 -0.06365895 0.28183424 0.3101192 -0.25948635 -0.20204337
-0.292714 -0.34567523 0.2826451 -0.08770892 0.04857537 0.07713151 0.24472725 -0.05206442
-0.33603096 -0.25084764 0.039777666 -0.105494514 -0.17450269 0.019850316 0.09421355 -0.19654131
00000000: de0c 8d3d 2a6c 28be 6dcb a9bb dda9 21bd
00000010: 8fa6 98bd 5eb4 72be a6f7 103e 1177 793d
00000020: 596b b3bd b2c6 8a3e 737a 8bbe 57d8 c93e
00000030: 98de f03d 9727 993d 4da1 f43e 01b7 b5b9
00000040: 0a4f f9bd 95a5 ed3e 66e5 6b3e bca0 acbe
00000050: 5d6f a7bc 9eb0 6bbe 1d97 42be d7b0 6b3d
00000060: 803e d93d 8600 cabe 8c72 d53e f341 d93d
00000070: 4c39 8bbd b656 963d 304a e83d 6710 a53d
00000080: 9290 523e 73d2 033f b3d2 74be 3347 ba3e
00000090: 0682 83bc b88f fb3d bd3d 5f3d 3d03 82be
000000a0: 6deb 29be 71ce 4e3e 27dc 4fbe cc8e 2bbe
000000b0: 0482 e93b 30bd 363e 819c 2a3f 468f c3bd
000000c0: 54f2 6abe 64ae 9f3e 1c76 853d 4fa2 a8bd
000000d0: 85ba eb3d 8111 e83d 901b 9b3e 3466 6d3e
000000e0: d402 81be cfd2 843e dc62 513e f632 97bf
000000f0: c6ab de3e bfac 813e b085 6ebd 71e4 ed3e
00000100: b593 703c abd8 3f3e b232 fb3d 6af7 b6be
00000110: 4520 16be 7cec b0bd 9b88 463e 2815 0f3e
00000120: 4496 c1bd ae66 42bd dd3f a03e 9001 c53d
00000130: d084 b8bc e2fa 84bf b3f0 58bd 718b 9cbe
00000140: 6ec0 a7be 46c5 c43c 1ce6 f1bd 61dc 6f3e
00000150: 1d48 99be 9d58 5d3e ec0f 783c 18a1 e6bc
00000160: b935 df3d c440 e43d 4b20 2e3e e1f1 753e
00000170: 2ac3 a8be 4a1e 853d b908 133f 4815 e33d
00000180: 23e6 c43e d8d0 353e 86c1 883e abe8 b9be
00000190: effb 863e 8404 b63e 8dbd fe3e 4bcd 983e
000001a0: 8257 f1bd bd41 363e c019 b73d 773b 04bf
000001b0: 09b9 713e 4fa4 d33f 5e5b d63d fd2b 0d3f
000001c0: d0ef 77be bc7a ecbd 7784 fc3e b702 943e
000001d0: 75ae 8a3e 82b1 f03e 9eee 543e 8976 433d
000001e0: 3e98 143d f3c3 dabe 9e08 86be ad14 d23d
000001f0: 9ddd 2cbd b41e a7be 9c79 8a3e 4dc6 b23f
00000200: 59c9 2a3f 46cf f53e 679d 9f3e 96cb ef3e
00000210: e33d 1a3e 9d30 4b3f 6996 15bd f778 8e3e
00000220: e9df 0c3e eae4 30be 8a12 d3be b63d d6bd
00000230: ab82 da3c 125f 1e3f 8723 a5be a67f 1e3d
00000240: 4c91 c53d 14ab 553e cff8 f33e bcbc 0cbe
00000250: 9ce5 0cbe acf3 e83e e0c8 ae3e 8971 413d
00000260: 1617 47be 7360 a73e 3816 843e 5d79 05bd
00000270: af9c 55be 8814 033e d506 213f ddd5 d0bf
00000280: 7837 193f ba5f ed3e 9ef7 82be b5ed f2bd
00000290: 3e46 35bd da98 c83c 03fc f43d 9769 cbbe
000002a0: bc88 6fbe e90f da3e 9e72 353e 999b 653e
000002b0: 109b 123d 48cd e73b ed05 a83e 8b15 be3d
000002c0: 43f8 a7be 74d2 4ebf c5f6 a6be 47bb 5e3d
000002d0: 859a 09be 63b3 50be a147 f0be 76ad 1abe
000002e0: bf01 b8bd 1218 b83e e04e cfbe 272f 79be
000002f0: bf5c a93e c5dd 6ebd 5d42 8f3e 6d07 a13b
00000300: 8245 163e 4a4a f13d 678f 1b3f 3843 12bd
00000310: 3f4a f7be 1723 3c3d 66a3 19be 189d ccbd
00000320: 68bd 5bbe 8d90 aebe 7230 95be 0cf8 d13d
00000330: c0b5 f43d aca0 0a3e c89f 94bd 40e4 7c3c
00000340: 4492 39be a087 6a3e 067f 883e 6656 86be
00000350: 50d1 743e 3045 3abe d5c6 87be f8a3 17bd
00000360: be89 063e 6815 673d 1461 db3d 60e4 933c
00000370: e8c0 433d e4ca 7c3e c043 48be b465 af3e
00000380: 221d ac3e 407e 4a3e 1253 eabd e327 3dbe
00000390: 8896 bdbd d8d6 453d 421c 11be 4402 153e
000003a0: 2859 e63d c83f c5bd 0a75 133e a05f 82bd
000003b0: 944c 903e f2c7 9e3e 65db 84be 75e4 4ebe
000003c0: 9cde 95be 58fc b0be dcb6 903e bca0 b3bd
000003d0: f8f6 463d 20f7 9d3d c899 7a3e 8041 55bd
000003e0: 400c acbe 1a6f 80be e8ed 223d 820d d8bd
000003f0: d5b0 32be 219d a23c 09f3 c03d 2042 49be

fc2.bias f4 [50]
0.34193206 0.16135013 0.10436206 -0.04059627 0.004144624 -0.13217236 0.21273094 0.06087708
0.156254 0.055821832 0.16743673 -0.12989755 0.2603764 0.23033676 -0.015955303 -0.0027875616
-0.027683025 0.102593 0.22229515 0.14279726 0.02851005 0.36802965 0.16617629 0.4051965
0.11855541 0.045363814 0.17489494 0.40184674 -0.15182671 -0.22925206 0.30049014 0.095984496
-0.22098663 0.08313464 0.096538566 0.120144755 0.72715217 0.3784271 0.19022237 -0.13527283
0.17235236 0.003893018 0.32884845 0.18222705 -0.13811776 0.042340994 -0.13716966 -0.07766162
0.10592751 -0.14208603
00000000: b811 af3e f838 253e c7bb d53d 4648 26bd
00000010: a0cf 873b 3158 07be 24d6 593e 3f5a 793d
00000020: 0c01 203e 6fa5 643d 8974 2b3e dd03 05be
00000030: 0e50 853e 66dd 6b3e b2b4 82bc 86af 36bb
00000040: 83c7 e2bc 471c d23d 57a1 633e 7239 123e
00000050: e98d e93c 626e bc3e 1e2a 2a3e ea75 cf3e
00000060: 2ecd f23d 68cf 393d a917 333e dbbe cd3e
00000070: 7678 1bbe 0dc1 6abe d8d9 993e 8593 c43d
00000080: 524a 62be 7e42 aa3d 03b6 c53d 740e f63d
00000090: a526 3a3f 32c1 c13e a7c9 423e f684 0abe
000000a0: 237d 303e 0122 7f3b d35e a83e ba99 3a3e
000000b0: be6e 0dbe c06d 2d3d 3476 0cbe 0e0d 9fbd
000000c0: 86f0 d83d 007f 11be

fc_out.weight f4 [10, 50]
-0.18118791 0.16892067 -0.24438184 0.9041897 -0.050994128 -0.18079227 -0.37632614 0.43987164
0.88447917 -0.3421158 -0.05639542 -0.4669481 0.51937354 0.5276982 -0.21123603 0.44148853
0.26887748 -0.14709583 0.7528012 0.38753217 -0.46247968 -0.15626627 -0.08882324 0.013248075
0.07125938 -0.31473768 0.25430378 0.31164247 -1.4099281 0.40317503 -0.06956492 -0.5689765
0.53557855 -0.7967468 -0.14579202 0.67595065 0.27881032 0.13216886 0.024559597 0.05489948
0.5591858 0.21219084 0.21072888 1.3102574 -0.14984763 -0.4612152 -0.4191863 0.36263436
0.7626467 0.23848061 -0.2532416 0.30774775 -0.4069842 0.23933569 0.29856887 -0.14460841
-0.46001574 0.70827377 0.25904945 -0.32948306 0.07096574 -0.029288359 0.49129966 0.17540552
-0.33823702 0.4767011 0.24702665 -0.24162292 0.6280574 0.10075798 -0.22258505 -0.15133736
-0.028794525 -0.35397726 -0.20346522 -0.4453716 0.5510616 0.568608 -0.24200322 0.03892949
0.18929626 -0.34051135 0.4446316 -0.3103543 0.002325557 0.5081623 0.18269405 0.20499772
0.0075322273 0.36823025 0.40839243 -0.1947226 0.3018717 1.2003291 -0.1835407 -0.3618508
-0.13985741 0.5083783 -0.02424584 0.2869796 0.051584605 0.19171019 -0.106902845 0.78077006
0.2725415 0.044852465 -0.5519141 0.73179555 0.5475627 -0.24018222 -0.19047967 0.16458051
0.49957943 0.51545715 -0.42480668 0.5834641 -0.04818463 -0.08257633 0.515978 0.117320396
-0.20733999 -0.2753038 -0.41551992 -0.37618485 0.06673765 0.049949583 0.49941465 0.26970813
-0.2730097 -0.080975235 0.31654483 -0.27638885 0.4556256 -0.44354185 -0.2759574 -0.03652341
0.08861772 0.2153981 -0.45980614 0.29889265 0.50167274 0.101233445 0.3847702 1.4469616
0.17187002 -0.0679808 -0.058352236 0.31723112 -0.09887333 0.104297824 -0.32333225 0.38162237
-0.112565815 0.77867025 -0.1394195 0.2764759 -0.79251444 0.8494276 0.43428937 -0.41450197
-0.111081846 -0.46525118 0.5234829 0.38831615 -0.16208237 0.22435525 -0.07551023 -0.39632618
0.47352144 0.32449788 0.035751138 -0.031210758 -0.113260664 -0.0924421 -0.09775348 -0.07515983
0.0059078094 0.18517934 -0.47614035 0.15145952 0.48631978 -0.24691232 0.37454575 -0.25171363
-0.4828189 0.7119206 0.5715113 -0.057287186 0.009946583 0.09267495 0.36119995 0.25169206
0.61774266 0.4346963 0.22685769 -0.24222533 -0.1866276 0.32769492 -0.60928136 -0.15790631
-0.34921494 0.3988699 -0.12045997 0.67518336 -0.058202624 -0.28062978 -0.5331786 0.5799186
0.5470706 0.12588152 -0.34701258 -0.22112481 0.48613858 0.71288776 -0.28080472 0.24273966
-0.19699256 -0.23522127 0.2563451 -0.45891926 0.1284569 -0.31404904 -0.015149606 0.18844739
-0.2360284 -0.40349847 0.5364131 0.36198047 -0.27900848 -0.17092893 0.48592588 -0.49987325
0.3642696 -0.113444835 -0.42638668 0.5146612 0.18157206 -0.038407367 -0.1738568 0.1872026
0.31196892 0.12551978 0.4490446 0.90848863 0.19607958 0.067887664 0.034062333 0.30237314
-0.2658047 0.09472838 0.038686823 0.5693379 -0.30583203 0.5038609 -0.14408295 0.028229624
00000000: 5389 39be 8af9 2c3e 3c3f 7abe fa78 673f
00000010: 38df 50bd 9c21 39be d2ad c0be db36 e13e
00000020: 3a6d 623f cd29 afbe e2fe 66bd d213 efbe
00000030: aaf5 043f 3b17 073f 424e 58be c90a e23e
00000040: 4faa 893e 4aa0 16be 94b7 403f 9e6a c63e
00000050: 23ca ecbe 4404 20be f5e8 b5bd 740e 593c
00000060: 70f0 913d 4c25 a1be 1b34 823e 9a8f 9f3e
00000070: 8678 b4bf f56c ce3e 0e78 8ebd 72a8 11bf
00000080: ad1b 093f 99f7 4bbf 814a 15be 1a0b 2d3f
00000090: 3ac0 8e3e 4657 073e 3531 c93c 47de 603d
000000a0: cd26 0f3f 8e48 593e 50c9 573e 84b6 a73f
000000b0: a871 19be 6624 ecbe 969f d6be 36ab b93e
000000c0: d03c 433f 4334 743e e2a8 81be 1d91 9d3e
000000d0: 3c60 d0be 6a14 753e 05de 983e 3a14 14be
000000e0: 2f87 ebbe 6e51 353f 21a2 843e 01b2 a8be
000000f0: 7c56 913d 24ee efbc a18b fb3e 819d 333e
00000100: 672d adbe 2b12 f43e 8ef4 7c3e 006c 77be
00000110: 5fc8 203f 335a ce3d 56ed 63be 2ef8 1abe
00000120: 7fe2 ebbc 823c b5be 3059 50be bf07 e4be
00000130: 5f12 0d3f 4b90 113f b1cf 77be 8774 1f3d
00000140: e1d6 413e 8157 aebe c1a6 e33e c2e6 9ebe
00000150: 5f68 183b ed16 023f 2614 3b3e ecea 513e
00000160: e7d0 f63b ad88 bc3e d018 d13e 5c65 47be
00000170: ed8e 9a3e 62a4 993f 18f2 3bbe 8244 b9be
00000180: c836 0fbe 1525 023f 369f c6bc fdee 923e
00000190: 614a 533d ad4f 443e e1ef dabd 8ce0 473f
000001a0: 8f8a 8b3e 38b7 373d 3e4a 0dbf f456 3b3f
000001b0: 122d 0c3f 54f2 75be 1a0d 43be cb87 283e
000001c0: e0c8 ff3e 00f5 033f 4380 d9be e75d 153f
000001d0: 3f5d 45bd c71d a9bd 2217 043f ad45 f03d
000001e0: ef50 54be 9ff4 8cbe 07bf d4be 4d9b c0be
000001f0: c0ad 883d ef97 4c3d 47b3 ff3e 2f17 8a3e
00000200: edc7 8bbe 58d6 a5bd 2a12 a23e d782 8dbe
00000210: c247 e93e eb17 e3be 4a4a 8dbe 9299 15bd
00000220: 357d b53d 5291 5c3e b66b ebbe 7508 993e
00000230: a06d 003f 7b53 cf3d 9a00 c53e 0a36 b93f
00000240: b2fe 2f3e 8539 8bbd c102 6fbd 1e6c a23e
00000250: 1a7e cabd 199a d53d ce8b a5be 0264 c33e
00000260: e888 e6bd ef56 473f fcc3 0ebe 408e 8d3e
00000270: 3ae2 4abf 1674 593f 2d5b de3e 9a39 d4be
00000280: e17e e3bd 6735 eebe fa02 063f 60d1 c63e
00000290: ecf8 25be 62bd 653e 1ca5 9abd 44eb cabe
000002a0: 6771 f23e 9624 a63e c96f 123d b4ad ffbc
000002b0: 35f5 e7bd 4952 bdbd fa32 c8bd 66ed 99bd
000002c0: 4c96 c13b a79f 3d3e abc8 f3be 3418 1b3e
000002d0: e8fe f83e 95d6 7cbe 76c4 bf3e 9ce0 80be
000002e0: 0a34 f7be 6e40 363f 914e 123f f8a5 6abd
000002f0: fef6 223c 5dcc bd3d 33ef b83e c8dd 803e
00000300: 6224 1e3f 8390 de3e 624d 683e eb09 78be
00000310: 4e1b 3fbe a1c7 a73e ddf9 1bbf 31b2 21be
00000320: 4dcc b2be ad38 cc3e b7b3 f6bd d1d8 2c3f
00000330: e065 6ebd b5ae 8fbe 657e 08bf 8c75 143f
00000340: d20c 0c3f 16e7 003e a2ab b1be 8b6e 62be
00000350: 28e7 f83e d07f 363f a3c5 8fbe bf90 783e
00000360: 6bb8 49be d8dd 70be aa3f 833e 77f7 eabe
00000370: 358a 033e 09cb a0be 0e36 78bc 5af8 403e
00000380: 6eb1 71be 5a97 cebe 5e52 093f 8155 b93e
00000390: 33da 8ebe fe07 2fbe 47cb f83e 63ef ffbe
000003a0: 8c81 ba3e c455 e8bd 5b4f dabe d6c0 033f
000003b0: 07ee 393e 0b51 1dbd 8407 32be 0ab2 3f3e
000003c0: 64ba 9f3e 4288 003e 2ce9 e53e b692 683f
000003d0: 16c9 483e b008 8b3d f284 0b3d a7d0 9a3e
000003e0: 8e17 88be f400 c23d 1376 1e3d 21c0 113f
000003f0: 0496 9cbe 07fd 003f 7b8a 13be d041 e73c

fc_out.bias f4 [10]
0.0010786786 -0.2135668 -0.12611268 -0.12708168 -0.22742552 -0.16194503 -0.03975001 -0.08755268
-0.07960792 0.2827447
00000000: 7362 8d3a 41b1 5abe af23 01be b321 02be
00000010: 3ce2 68be ebd4 25be e8d0 22bd d24e b3bd
00000020: 7a09 a3bd eac3 903e
