models/H2b1_6610165.pt (torch_old, 14173 bytes, 6 tensors)

fc1.weight f4 [50, 4]
0	0xbe1ac8fb	-0.1511573
1	0x3cf288e7	0.029606296
2	0x3fb4ced3	1.4125618
3	0x3f0db428	0.5535302
4	0xbd92d8c9	-0.07170255
5	0xbd8dd261	-0.06924892
6	0xbf92b137	-1.1460332
7	0xbee8ec6d	-0.4549288
8	0xbe532914	-0.20621139
9	0x3e2301f2	0.15918711
10	0x3fa6198a	1.2976544
11	0x3d14a9c2	0.036294706
12	0xbf9257e6	-1.1433074
13	0x3f91524e	1.1353242
14	0xbf8f7f99	-1.1210815
15	0x3fb2c17d	1.3965298
16	0xbb8cd837	-0.0042982358
17	0x3e00b958	0.12570703
18	0x3f989730	1.1921139
19	0xbf7b3a5d	-0.9813593
20	0xbfd86d42	-1.6908343
21	0x3fd8a656	1.6925762
22	0xbfb96dfc	-1.448669
23	0x3f4231b2	0.7585708
24	0xbdbc5741	-0.0919633
25	0xbe4a121b	-0.19733469
26	0xbfb33993	-1.4001945
27	0xbee470a2	-0.44617182
28	0xbf24f33a	-0.64433634
29	0x3f511408	0.8167119
30	0xbe802c51	-0.2503381
31	0xbf60269a	-0.875589
32	0x3e5ea858	0.21743906
33	0x3eb5313c	0.35389125
34	0x3fa9e836	1.327399
35	0x3ed761bb	0.4206675
36	0x3f6dd4e8	0.92902994
37	0xbf5ca81a	-0.86194
38	0xbff5980d	-1.9187027
39	0x3f4a9f39	0.79149204
40	0x3f069d26	0.5258354
41	0xbece3086	-0.40271395
42	0x3f377786	0.71666753
43	0x3ea650d6	0.32483548
44	0x3d9aa910	0.07551777
45	0xbdd44c68	-0.10366136
46	0x3faa70fb	1.3315729
47	0x3f00f9b5	0.5038102
48	0xbf2390c4	-0.6389277
49	0x3f1212fa	0.57060206
50	0xbf36126e	-0.7112187
51	0xbf14ad1e	-0.58076656
52	0xbf00597b	-0.50136536
53	0x3c6ccddc	0.014453378
54	0xbf7e75e1	-0.9939862
55	0xbf0ceebb	-0.55051774
56	0xbeefd24e	-0.46840137
57	0x3f130f6b	0.574454
58	0xbf5ce715	-0.86290103
59	0xbf69c8d6	-0.91322076
60	0xbebd40a7	-0.36963388
61	0x3f38dd9c	0.7221315
62	0xbf2f6809	-0.6851812
63	0xbf3888ca	-0.72083724
64	0xbf2bb29b	-0.67069405
65	0x3e3a7cc4	0.18211657
66	0xbf678de7	-0.904509
67	0xbf0bb04e	-0.54565895
68	0xbfe307d6	-1.7736766
69	0x3fe099fc	1.7546992
70	0xbfbcde85	-1.4755408
71	0x3f19165d	0.5979975
72	0xbe484c93	-0.19560461
73	0xbe9783c2	-0.2959271
74	0x3faf7931	1.370886
75	0x3f43777e	0.76354206
76	0xbf226cac	-0.6344707
77	0x3f48a89a	0.78382266
78	0xbd90a1df	-0.070621245
79	0xbedda3bf	-0.4328899
80	0x3e02b728	0.12765181
81	0x3e088c7e	0.13334844
82	0x3fbaf397	1.4605588
83	0x3ee00c43	0.43759355
84	0x3f5fa1d5	0.8735631
85	0xbec1d6cf	-0.37859198
86	0x3ea122b6	0.31471795
87	0x3eb09ea4	0.34496033
88	0xbf4b1240	-0.7932472
89	0x3ef6811f	0.48145387
90	0xbee5c879	-0.4487951
91	0xbef98a03	-0.48738107
92	0xbe3bfb6e	-0.18357632
93	0x3e87fa7d	0.26558295
94	0xbf982bd6	-1.1888378
95	0xbf0d8903	-0.5528719
96	0xbf07c599	-0.53035885
97	0x3f38ec2b	0.72235364
98	0xbefdf6c5	-0.49602333
99	0xbf3973ba	-0.7244221
100	0xbf2cc87b	-0.6749341
101	0x3f5e4ee7	0.86839145
102	0x3de5c616	0.112194225
103	0xbea94f25	-0.33068195
104	0x3ef3fa12	0.47651726
105	0xbf4722a5	-0.7778724
106	0x3ec74d58	0.38926196
107	0x3ee9d13c	0.45667446
108	0x3ecb31c0	0.39686394
109	0xbd2d840e	-0.042362265
110	0x3f732560	0.94978905
111	0x3f09b3ac	0.5378978
112	0xbf62a27d	-0.8852919
113	0x3f173205	0.590607
114	0xbeace0b7	-0.33765194
115	0xbf4db195	-0.80349094
116	0xbf367b71	-0.71282107
117	0x3f2b02a1	0.66800886
118	0x3dc00f6f	0.09377944
119	0xbedcbe73	-0.4311405
120	0xbedf73d9	-0.43643072
121	0x3f4f20f1	0.8090964
122	0xbf133791	-0.5750666
123	0xbf27e1a4	-0.65578675
124	0xbfbd2cde	-1.4779317
125	0x3fa62dd7	1.2982739
126	0x3f84967f	1.0358428
127	0x3feca18f	1.8486804
128	0xbebb22ce	-0.3654999
129	0x3e91f81a	0.285096
130	0xbf66a498	-0.900949
131	0xbf111d1e	-0.56685054
132	0xbe814fef	-0.25256297
133	0xbcccf6dd	-0.025020057
134	0xbf7c4450	-0.98541737
135	0xbefa9f3c	-0.4894961
136	0x3e176a0e	0.1478655
137	0x3e50334c	0.20332068
138	0x3fc45bf0	1.5340557
139	0x3f0a5d1f	0.5404834
140	0x3da057df	0.0782926
141	0xbe88c143	-0.26709947
142	0x3fa8ecf0	1.3197308
143	0x3f3df723	0.74205226
144	0xbded2b91	-0.11580575
145	0x3e489983	0.1958981
146	0x3fad6eef	1.3549479
147	0x3e465be6	0.19370994
148	0xbf831ba5	-1.0242811
149	0x3f570575	0.839927
150	0xbe5473c3	-0.20747285
151	0x3fd6b5bd	1.6774212
152	0x3f4a7c6f	0.7909612
153	0xbf0b0247	-0.5430035
154	0x3f084d17	0.5324263
155	0x3f40b0d2	0.75269806
156	0x3ea0c2be	0.31398576
157	0x3ea6aa0c	0.3255161
158	0x3f7becc6	0.9840816
159	0x3ead5bee	0.338592
160	0xbf1a10d4	-0.6018193
161	0x3f62bc5a	0.8856865
162	0xbe0d451b	-0.13795893
163	0xbf413ac9	-0.75480324
164	0x3f1cdb47	0.6127209
165	0xbf1573eb	-0.5838
166	0x3ed3477f	0.41265485
167	0x3e94fab7	0.2909753
168	0x3ea685e8	0.32524037
169	0x3e882fd6	0.26598996
170	0x3f9cddb2	1.2255156
171	0x3ebf31f8	0.3734281
172	0x3e4eb85f	0.2018752
173	0xbeb2e604	-0.34941113
174	0xbfde24c3	-1.7354969
175	0xbebb3f98	-0.36571956
176	0xbc9b13ef	-0.018930404
177	0x3ea5f1e8	0.32411122
178	0x3fb72568	1.430829
179	0x3e8373fd	0.2567443
180	0xbf1606e4	-0.58604264
181	0x3f36aecc	0.7136047
182	0x3f8b9a46	1.0906456
183	0xbf6671f6	-0.9001764
184	0xbf36749e	-0.71271694
185	0x3f373c10	0.71576023
186	0xbeba6d9a	-0.36411744
187	0xbf4ca39e	-0.7993716
188	0x3ecc494d	0.39899674
189	0xbe8f6113	-0.2800375
190	0x3f8bafc3	1.0913013
191	0x3f3102f5	0.6914514
192	0x3eef24d2	0.4670778
193	0xbf0f5814	-0.5599377
194	0x3f3ea55c	0.7447107
195	0x3f2041bc	0.626003
196	0xbec2fc6d	-0.3808321
197	0x3f46efe3	0.7770979
198	0xbf1e8edb	-0.6193673
199	0xbf062561	-0.52400786

fc1.bias f4 [50]
0	0x3e67d93b	0.2264146
1	0xbeb16015	-0.34643617
2	0x3f1bb93c	0.6082952
3	0x3e5732ae	0.21015427
4	0xbe32bfb8	-0.17455947
5	0xbecf288b	-0.4046062
6	0xbf33056d	-0.69930154
7	0xbf5bba99	-0.858316
8	0x3ef099ec	0.46992433
9	0x3ee7b85f	0.4525785
10	0x3f606891	0.87659556
11	0x3f8c1058	1.0942488
12	0xbf8753b6	-1.0572422
13	0xbf145993	-0.5794918
14	0xbec5a258	-0.3860042
15	0xbedace57	-0.4273555
16	0xbf66b623	-0.9012167
17	0xbe6ff11e	-0.23431823
18	0x3ee0cdac	0.43906915
19	0xbe93b1c7	-0.2884657
20	0x3f76b367	0.96367496
21	0x3e6258d3	0.22104196
22	0xbf1ac147	-0.6045117
23	0xbf8a924c	-1.0825896
24	0xbeb98fee	-0.36242622
25	0xbdeb1889	-0.11479289
26	0x3f7933ae	0.9734448
27	0x3f022598	0.50838614
28	0xbf84b996	-1.0369136
29	0xbea030e6	-0.31287307
30	0xbf7519a6	-0.9574226
31	0x3f862b12	1.0481894
32	0xbf0ae649	-0.5425764
33	0xbedcc83d	-0.4312152
34	0x3f3b8cf7	0.7326197
35	0x3f6b0725	0.91807777
36	0x3f1b97cf	0.60778517
37	0x3ec6b556	0.38810223
38	0x3f85aaaf	1.0442713
39	0x3e5642c1	0.20923902
40	0xbf852670	-1.0402355
41	0x3efaea77	0.49007007
42	0x3f5ff5da	0.87484515
43	0xbe87da0f	-0.26533553
44	0x3f108c7e	0.56464374
45	0xbefde4d9	-0.4958866
46	0xbf274017	-0.6533217
47	0x3f724230	0.94632244
48	0x3f0c6a25	0.54849464
49	0xbf82d402	-1.022095

fc2.weight f4 [50, 50]
0	0xbed5a64e	-0.41728443
1	0xbdf08ad4	-0.11745229
2	0xbe401ade	-0.18760249
3	0xbe160e54	-0.14653903
4	0xbf13202e	-0.5747098
5	0xbeefbb42	-0.46822554
6	0xbdaa1f52	-0.08306755
7	0x3f1e3534	0.6179993
8	0xbea6656c	-0.32499254
9	0xbf10a7b6	-0.56505907
10	0xbf94fd93	-1.1639885
11	0xbf1f99bb	-0.6234395
12	0x3e673495	0.22578652
13	0x3ddba5c1	0.107249744
14	0x3e00b721	0.12569858
15	0x3cada69b	0.021197608
16	0x3e93e1a9	0.28883103
17	0xbe5439dd	-0.20725198
18	0xbf06dd2a	-0.5268122
19	0x3ea953e2	0.3307181
20	0xbeec23a4	-0.46120942
21	0xbfb37123	-1.4018902
22	0x3e76e1a7	0.24109517
23	0x3d124909	0.035714183
24	0x3e84d7b7	0.25945827
25	0x3e9ebbbb	0.31002602
26	0xbfb5858a	-1.4181378
27	0xbf40a740	-0.75255203
28	0x3f49082d	0.785281
29	0x3e68e119	0.22742118
30	0x3ee6bf50	0.45067835
31	0xbef07616	-0.46965092
32	0x3e3d2ed5	0.18474896
33	0x3dd98b3d	0.10622261
34	0xbeef49b3	-0.46735916
35	0xbf6a3637	-0.91488975
36	0xbdb9047c	-0.090340585
37	0xbf06a635	-0.5259736
38	0xbf98cf43	-1.1938251
39	0xbf081a98	-0.5316558
40	0x3f3e9ac9	0.74454933
41	0xbfab5b03	-1.338715
42	0xbf4075ca	-0.7517973
43	0xbec78895	-0.3897139
44	0xbc65ac72	-0.014018165
45	0x3ea22f1d	0.3167657
46	0x3e845f59	0.25853994
47	0xbf7550e7	-0.9582657
48	0xbf5d458c	-0.86434245
49	0x3e0ccfc5	0.13751133
50	0xbf289a0c	-0.65860057
51	0x3d3c6353	0.04599316
52	0xbf424f85	-0.7590259
53	0x3cd2b18f	0.025719432
54	0xc0549906	-3.3218398
55	0x3dffb124	0.12484959
56	0xbe0b6331	-0.13612057
57	0x3ecf51ed	0.40492192
58	0xbf3bd5e9	-0.73373276
59	0xbe706ae7	-0.2347828
60	0xbf6f0fd2	-0.93383515
61	0xbf7490c2	-0.9553338
62	0x3e7f3de5	0.24925955
63	0x3e354180	0.17700768
64	0x3ef9b526	0.48771018
65	0x3ea386d7	0.31938812
66	0x3ea16ebc	0.31529796
67	0x3e3e0977	0.18558298
68	0xbf621563	-0.88313884
69	0xbb36e599	-0.0027907847
70	0xbf028f87	-0.51000255
71	0xbf5e3232	-0.8679534
72	0x3e9ee181	0.3103142
73	0x3dd0fb30	0.1020416
74	0x3f0abba6	0.5419258
75	0x3e2b62dd	0.16736932
76	0xbf6d6dee	-0.92745864
77	0xbf6275c0	-0.8846092
78	0x3ee0c293	0.43898448
79	0x3c14160c	0.0090384595
80	0x3f264e29	0.6496301
81	0x3d74d7cc	0.059776112
82	0x3eda6f09	0.42662838
83	0x3dc3ad98	0.09554595
84	0xbf672f81	-0.9030686
85	0xbf48a8ad	-0.7838238
86	0xbe2279e6	-0.15866813
87	0xbd65adae	-0.056073837
88	0xbf8afbf3	-1.0858139
89	0xbeef3f27	-0.4672787
90	0x3eb90de1	0.361434
91	0xbf8d7aff	-1.105316
92	0xbf0b8814	-0.54504514
93	0xbdfc034a	-0.12305315
94	0xbeaa95c1	-0.33317378
95	0x3efb0ef3	0.49034843
96	0x3f22a781	0.6353684
97	0xbf7ad2b6	-0.9797777
98	0xbf412fc5	-0.75463516
99	0x3ed0e42b	0.40799078
100	0xbf17fc0e	-0.5936898
101	0x3f1e425c	0.61820006
102	0xbf215d2a	-0.6303278
103	0x3db27bbb	0.08715006
104	0xc06d7e97	-3.7108514
105	0x3ec6f382	0.38857657
106	0x3f17636b	0.59136075
107	0x3f6108d5	0.879041
108	0xbf113add	-0.56730443
109	0x3ea7a79a	0.32745057
110	0xbf88b3d2	-1.0679877
111	0xbf4ad660	-0.7923336
112	0x3f663748	0.899281
113	0x3f4b17a5	0.79332954
114	0x3f2e4ad2	0.68082917
115	0x3f660694	0.8985379
116	0x3f7499cd	0.9554718
117	0x3e36c799	0.17849578
118	0xbf29a007	-0.6625981
119	0x3f4b96cc	0.7952697
120	0xbf220b17	-0.6329817
121	0xbf9e5a2b	-1.2371267
122	0x3f46ef93	0.7770931
123	0x3f24c277	0.6435923
124	0x3f46221d	0.773958
125	0x3f43d890	0.76502323
126	0xbf7742f8	-0.9658656
127	0xbf29feb8	-0.66404295
128	0x3f53e819	0.8277603
129	0x3f3fdf79	0.7495037
130	0x3f721fb7	0.94579643
131	0x3ebde7a0	0.37090778
132	0x3f23e05d	0.64014226
133	0x3ec06115	0.37574068
134	0xbf174e26	-0.5910362
135	0xbf382ff1	-0.7194815
136	0xbeb346b7	-0.3501489
137	0x3ec62578	0.3870046
138	0xbf4375fb	-0.763519
139	0xbf06bc64	-0.5263121
140	0x3f1e5946	0.6185497
141	0xbfac1d0e	-1.3446367
142	0xbf52dca1	-0.82367903
143	0xbd19eae8	-0.03757754
144	0xbe30219a	-0.17200318
145	0x3edf7a12	0.4364782
146	0x3f6de63d	0.9292944
147	0xbf20d225	-0.62820655
148	0xbf3249ad	-0.6964367
149	0x3f2d219c	0.6762941
150	0x3f57c9d5	0.84292346
151	0xbe225e93	-0.1585639
152	0x3ef822ab	0.4846395
153	0xbcbb9ebf	-0.022902844
154	0x3d9687e4	0.07350138
155	0x3e8dddc2	0.2770825
156	0xbf2a2122	-0.66456807
157	0xbf1167e7	-0.5679917
158	0x3f2b195e	0.6683558
159	0xbd24bff2	-0.040222116
160	0x3f63863d	0.88876706
161	0x3f5bba93	0.85831565
162	0xbe633e55	-0.22191747
163	0xbdce52ac	-0.10074362
164	0xbf205c84	-0.6264117
165	0xbe81b684	-0.2533456
166	0xbebf0eea	-0.37316066
167	0x3e8f3183	0.27967462
168	0x3f89c097	1.0761899
169	0xbe9e2a6c	-0.3089174
170	0x3f47e641	0.78085715
171	0x3f3eca3a	0.74527323
172	0xbdeb75d0	-0.1149708
173	0xbe932bab	-0.28744254
174	0xbe889e50	-0.26683283
175	0xbe88e415	-0.26736513
176	0x3f4cecec	0.80049014
177	0x3f431336	0.7620119
178	0xbf3e828a	-0.74417937
179	0xbe38a9ea	-0.18033567
180	0xbe24d4fe	-0.16096875
181	0x3de95235	0.11392633
182	0xbe1050e8	-0.14093363
183	0xbea9e170	-0.33179808
184	0x3f942cdb	1.1576189
185	0x3f78d0c9	0.9719358
186	0x3f07262c	0.5279262
187	0x3e86364b	0.26213297
188	0x3f3975d3	0.7244541
189	0x3efa73ec	0.48916566
190	0xbed6f29c	-0.4198197
191	0x3f4c5964	0.798239
192	0x3f36663a	0.71249735
193	0xbf435efb	-0.76316804
194	0x3f214efc	0.63011146
195	0x3e3e55c7	0.18587409
196	0xbf039c4d	-0.5141037
197	0x3f7e085f	0.99231523
198	0x3f7e38d9	0.9930549
199	0xbefe1542	-0.49625593
200	0xbf80ab85	-1.0052344
201	0x3ed83355	0.42226663
202	0xbf76322a	-0.96170294
203	0x3d9eb9ba	0.07750268
204	0xbfa8e138	-1.3193731
205	0xbe3b53db	-0.18293707
206	0x3f1a1acf	0.60197157
207	0x3f178591	0.5918818
208	0xbf6370a1	-0.88843733
209	0x3ea256d4	0.3170687
210	0xbf757376	-0.95879304
211	0xbf79e568	-0.9761567
212	0x3f063207	0.52420086
213	0x3ed08629	0.40727356
214	0x3f152624	0.5826132
215	0x3ed06b77	0.4070699
216	0x3e5b1cda	0.21397725
217	0xbd7f62e9	-0.062350187
218	0xbf932bcb	-1.149774
219	0x3d79a18c	0.06094508
220	0xbf9d5358	-1.229106
221	0xbf38e47f	-0.7222366
222	0x3ecf8237	0.40529034
223	0x3f1666a7	0.58750385
224	0x3e1af5f6	0.15132889
225	0x3d2c9f4f	0.042144116
226	0xbf0cc937	-0.5499453
227	0xbf3fa03f	-0.7485389
228	0x3ef55e2b	0.47923407
229	0x3ec9f9ac	0.39448297
230	0x3e997d03	0.2997819
231	0xbea70930	-0.32624197
232	0x3ef32834	0.4749161
233	0x3f052904	0.5201571
234	0xbf9b9262	-1.2154047
235	0xbf461dce	-0.7738923
236	0xbf3532ff	-0.7078094
237	0xbe688137	-0.22705542
238	0xbf4f99af	-0.8109388
239	0xbf1334f9	-0.57502705
240	0x3ea2b91b	0.3178185
241	0xbf552c6d	-0.83270913
242	0xbf944b9a	-1.1585572
243	0x3f1d56ff	0.6146087
244	0xbf1033ac	-0.56328845
245	0xbe2463e1	-0.16053726
246	0x3f0a316b	0.53981656
247	0xbf8f84c0	-1.1212387
248	0xbf1d6f90	-0.61498356
249	0x3e96922c	0.29408395
250	0xbf6ab9ed	-0.9168995
251	0x3ee0c990	0.4390378
252	0xbf7f9041	-0.9982949
253	0x3cd73605	0.026270876
254	0xbf7b25bc	-0.98104453
255	0xbc5b6f46	-0.013393229

fc2.bias f4 [50]
0	0xbea7a668	-0.32744145
1	0xbd6e0418	-0.058109373
2	0x3d49cb97	0.049266424
3	0x3d85e927	0.06538611
4	0xbe29769c	-0.16549152
5	0xbdae4ef9	-0.085111566
6	0x3d812084	0.0630503
7	0x3e0aaf2b	0.13543384
8	0xbd2b2dd0	-0.041791737
9	0xbd9d3b67	-0.07677346
10	0x3d708682	0.058722027
11	0x3e168828	0.14700377
12	0xbe6a5ae7	-0.22886239
13	0xbcd790c6	-0.02631415
14	0xbe2a73e3	-0.1664577
15	0xbd69772b	-0.056998413
16	0xbdfdfe35	-0.12402002
17	0xbe3039c0	-0.1720953
18	0xbd3944bf	-0.045231577
19	0xbe0985ac	-0.13429898
20	0xbbc7ebda	-0.0061011137
21	0x3ecb156a	0.39664775
22	0xbe68ae54	-0.22722751
23	0xbdf30a1f	-0.11867165
24	0xbe40c114	-0.18823653
25	0x3dd6eeee	0.10494791
26	0xbe0c6162	-0.13709024
27	0xbc6677ac	-0.014066618
28	0x3cb0d32d	0.021585071
29	0x3f0bf031	0.5466338
30	0xbdda59f3	-0.10661688
31	0xbd823ecb	-0.06359633
32	0xbd687bb6	-0.056758605
33	0x3e4134ab	0.18867747
34	0x3ee34a3d	0.44392577
35	0x3cbb351c	0.022852473
36	0xbe3aaf1c	-0.18230861
37	0x3d58dc6f	0.052944597
38	0x3bb1158a	0.005404179
39	0x3e7180f6	0.23584351
40	0xbe20602e	-0.1566169
41	0x3dbbd4e2	0.091714635
42	0xbe0bf1fd	-0.1366653
43	0xbe87ebb9	-0.2654703
44	0x3b48df6f	0.0030650755
45	0xbd55de8e	-0.052214198
46	0x3c560197	0.0130619025
47	0xbde34af9	-0.11098284
48	0xbdb01ed3	-0.08599629
49	0xbe08c821	-0.13357593

fc_out.weight f4 [10, 50]
0	0xbf58397d	-0.8446272
1	0xbf111ca1	-0.5668431
2	0xbf1d7b7d	-0.61516553
3	0x3ff8da95	1.9441706
4	0xbfe824e8	-1.8136263
5	0xbff0867a	-1.8791039
6	0xbeb38a49	-0.3506644
7	0xbfb999f9	-1.4500114
8	0xbfd60bf9	-1.6722404
9	0xbf095328	-0.5364251
10	0xbfcc4737	-1.5959233
11	0xbfa714cd	-1.3053223
12	0xbff21b6a	-1.8914616
13	0xbfcfa62d	-1.6222588
14	0xbfec4a14	-1.8460107
15	0xbf895d95	-1.0731684
16	0xbfa4ca45	-1.2874228
17	0xbfd08457	-1.6290387
18	0xbfacc8a3	-1.349873
19	0xbe398376	-0.18116555
20	0xbfcfa6df	-1.62228
21	0xc027ca7e	-2.6217341
22	0xbf8d2fb8	-1.1030188
23	0xbff98c8e	-1.9496019
24	0xbfe16fab	-1.7612203
25	0xbfce17f9	-1.6101066
26	0xbfb8f936	-1.4451053
27	0xbfd73ebf	-1.6816024
28	0xbf2b4c03	-0.6691286
29	0xbf5d8543	-0.86531466
30	0xbf07b5a3	-0.5301153
31	0xbfeadcec	-1.834867
32	0xbfc35624	-1.5260663
33	0xbf8556b9	-1.0417091
34	0x400e26dd	2.221122
35	0xbf8f543c	-1.1197581
36	0xbe76ea64	-0.2411285
37	0xbfdffbac	-1.7498679
38	0xbee4fc7d	-0.44723883
39	0x3f9c62c9	1.2217647
40	0xbfe10f23	-1.7582744
41	0xbfcf8524	-1.6212506
42	0xbf82f20f	-1.023012
43	0xbf8a38c2	-1.0798571
44	0x40375311	2.864445
45	0x40183cfc	2.3787222
46	0xbfa28b6a	-1.2698796
47	0xbecbe9e4	-0.39826882
48	0xbfc79239	-1.5591499
49	0xbfd5bc3f	-1.6698073
50	0xbf48b39c	-0.7839906
51	0xbf8bc71a	-1.0920136
52	0xbf2d405a	-0.6767632
53	0x3fd8644d	1.6905609
54	0xbfab722f	-1.3394221
55	0xbfcd5695	-1.6042048
56	0xbf70e4f2	-0.9409934
57	0xbff3132b	-1.8990225
58	0xbf9c6b29	-1.2220203
59	0xbf5cfda8	-0.8632455
60	0xbfd127b5	-1.6340243
61	0xbfb1bd1f	-1.388584
62	0xbfe0fd5e	-1.7577322
63	0xbfba75ab	-1.456716
64	0xbf95ec79	-1.1712791
65	0xbfa2e48d	-1.2725998
66	0xbf97813b	-1.1836313
67	0xbfd23b7b	-1.6424402
68	0xbfd78727	-1.683812
69	0xbf4fbc3b	-0.8114659
70	0xbfa4970e	-1.2858598
71	0xbf1bd690	-0.6087427
72	0xbf8a2918	-1.0793791
73	0xbfb8dbee	-1.4442117
74	0xbfe52981	-1.7903291
75	0xc00085b5	-2.0081608
76	0xbfe76030	-1.8076229
77	0xbfa7f78d	-1.3122422
78	0xbf2a94d2	-0.6663333
79	0xbfcca1aa	-1.5986836
80	0xbf6e8ff1	-0.9318839
81	0xbfbc024c	-1.4688201
82	0xbfdd6ab6	-1.729819
83	0xbf8a15af	-1.0787867
84	0x3fe70242	1.8047564
85	0xbfaf423e	-1.369209
86	0xbf0b26b1	-0.54355913
87	0xbfe7c6e0	-1.8107567
88	0xbf92cae3	-1.1468166
89	0x3ff88c16	1.9417751
90	0xbfc1c37a	-1.513778
91	0xbfd970e1	-1.6987573
92	0xbfce234f	-1.6104525
93	0xbfa08b90	-1.2542591
94	0x4000a82f	2.010265
95	0x400338a0	2.050331
96	0xbf050620	-0.5196247
97	0xbf920f78	-1.1410971
98	0xbfb030f8	-1.3764944
99	0xbfc81201	-1.5630494
100	0xbf9a18cf	-1.2038821
101	0xbf908cb0	-1.1292934
102	0xbf560cc8	-0.8361325
103	0x3ff7c5ad	1.9357201
104	0xbfca9014	-1.5825219
105	0xbfc3e5c9	-1.53045
106	0xbf84424d	-1.0332733
107	0xbffc457c	-1.9708705
108	0xbfaac3e4	-1.3341031
109	0xbf420966	-0.7579559
110	0xbfd466d1	-1.6593877
111	0xbfbba9f8	-1.4661245
112	0xbfd5f29a	-1.6714661
113	0xbf98ff6b	-1.1952947
114	0xbf95e9b4	-1.1711946
115	0xbfb00658	-1.3751936
116	0xbf859c2f	-1.0438288
117	0xbfc2c7a5	-1.5217177
118	0xbf73313a	-0.9499699
119	0xbf2ae46b	-0.6675479
120	0xbfc9715d	-1.5737721
121	0xbf8f7580	-1.1207733
122	0xbf6cf30d	-0.92558366
123	0xbfbe193f	-1.4851454
124	0xbfa12d57	-1.2591962
125	0xbfc30e6c	-1.5238776
126	0xbfd7e2c3	-1.6866077
127	0xbfb0060b	-1.3751844
128	0xbf6d7d54	-0.9276936
129	0xbfaa8128	-1.3320665
130	0xbf9403d3	-1.1563667
131	0xbfc2438b	-1.5176862
132	0xbfd30c2b	-1.6488088
133	0xbfbdd508	-1.4830637
134	0x400650de	2.0986857
135	0xbfa2565c	-1.2682605
136	0xbf857a9f	-1.0428046
137	0xbfdb28df	-1.7121848
138	0xbf4d250e	-0.80134666
139	0x3feb931e	1.8404272
140	0xbfe17a1c	-1.761539
141	0xbfc6c29a	-1.5528138
142	0xbfac6a3f	-1.3469924
143	0xbf6b0d2a	-0.9181696
144	0x40061045	2.094743
145	0x4006840b	2.1018093
146	0xbf66ce4c	-0.90158534
147	0xbf9def17	-1.233859
148	0xbf872126	-1.0556991
149	0xbfa89123	-1.3169292
150	0xbfa40ef3	-1.2817062
151	0xbf511e7a	-0.8168713
152	0xbf571db7	-0.84029716
153	0x3fde9db4	1.7391877
154	0xbfb23890	-1.3923512
155	0xbf90c76e	-1.1310861
156	0xbf3b34d6	-0.73127496
157	0xbfbe3ede	-1.4862936
158	0xbfcfc8ad	-1.6233116
159	0xbf755a78	-0.9584117
160	0xbf93f2c3	-1.155846
161	0xbfad09dc	-1.3518634
162	0xbf7d3564	-0.9890959
163	0xbf9d4787	-1.2287453
164	0xbfcc2776	-1.5949543
165	0xbf9bcafa	-1.2171319
166	0xbfac3be2	-1.3455775
167	0xbf96f112	-1.1792319
168	0xbf84c148	-1.0371485
169	0xbfa1c85d	-1.2639271
170	0xbf81fb46	-1.0154808
171	0xbf62c644	-0.8858378
172	0xbf783c89	-0.9696737
173	0xbfa866e6	-1.3156402
174	0xbfd0ee02	-1.6322634
175	0xbfd66af3	-1.6751388
176	0xbfbb3108	-1.4624338
177	0xbfcc7e69	-1.5976077
178	0xbf5f06e9	-0.8711992
179	0xbfc47930	-1.5349483
180	0xbf924aee	-1.1429117
181	0xbfb8be50	-1.4433079
182	0xbf90c91e	-1.1311376
183	0xbfa34e2d	-1.2758232
184	0x3fdaa3f9	1.708129
185	0xbf8a1875	-1.0788714
186	0xbf58f153	-0.8474323
187	0xbf96de9e	-1.1786687
188	0xbf579137	-0.84205955
189	0x3fdecea9	1.7406818
190	0xbf9d02de	-1.22665
191	0xbf95f9de	-1.1716878
192	0xbfa96048	-1.3232508
193	0xbf7eb319	-0.9949203
194	0x4005c804	2.090333
195	0x4001f16f	2.030361
196	0xbf200ae1	-0.625166
197	0xbf987d58	-1.1913252
198	0xbfa822ad	-1.3135582
199	0xbf7cf01a	-0.98803866
200	0xbf8c6bce	-1.0970399
201	0xbfaffd64	-1.3749204
202	0xbf22eaa7	-0.636393
203	0x3fbe651b	1.4874605
204	0xbfb78173	-1.433638
205	0xbf8622bc	-1.047935
206	0xbfa449ce	-1.2835023
207	0xbfc002dd	-1.5000874
208	0xbfc9007d	-1.5703274
209	0xbf3cc3f6	-0.7373651
210	0xbfd8334a	-1.6890652
211	0xbfacf4a0	-1.3512154
212	0xbfc23349	-1.5171901
213	0xbfbee300	-1.4913025
214	0xbf8f1e4c	-1.1181121
215	0xbfb4005f	-1.4062613
216	0xbf7f3a0f	-0.99697965
217	0xbfd13e28	-1.6347094
218	0xbfb48b89	-1.4105083
219	0xbf6ba5d2	-0.92049897
220	0xbf93dfaf	-1.1552638
221	0xbf57eef2	-0.84348977
222	0xbf9d991e	-1.2312353
223	0xbfc10516	-1.5079677
224	0xbfb2185b	-1.3913683
225	0xbfe0c3ae	-1.7559717
226	0xbfc1f303	-1.5152286
227	0xbfa64b74	-1.2991776
228	0xbf439cb0	-0.7641096
229	0xbfd7ddf6	-1.6864612
230	0xbf8af5a3	-1.0856212
231	0xbfbf04bf	-1.4923323
232	0xbf80b973	-1.0056595
233	0xbfbec201	-1.4902955
234	0x3fc45b25	1.5340315
235	0xbfaa0adc	-1.3284564
236	0xbf28af96	-0.6589292
237	0xbf8ed718	-1.1159391
238	0xbf9ba9d2	-1.21612
239	0x3fe21557	1.7662762
240	0xbfb7a013	-1.4345726
241	0xbfa620fd	-1.2978817
242	0xbfadb814	-1.3571801
243	0xbf84afb5	-1.0366122
244	0x40182bac	2.3776655
245	0x4002e048	2.044939
246	0xbf7ab8af	-0.97938055
247	0xbfafe107	-1.3740548
248	0xbfa774c0	-1.3082504
249	0xbfbcc3dc	-1.4747272
250	0xbf6aeb90	-0.9176569
251	0xbf9e87b5	-1.2385164
252	0xbf4a255b	-0.7896325
253	0x3fb45849	1.4089442
254	0xbf8dbeb1	-1.1073819
255	0xbfbc0e7c	-1.469192

fc_out.bias f4 [10]
0	0x3ece0bf5	0.40243497
1	0x3d89cb32	0.067282096
2	0x3e1b229c	0.15149921
3	0x3df1c87f	0.1180582
4	0x3e3dc8e0	0.18533659
5	0x3e3c8222	0.18409017
6	0x3e15a744	0.14614588
7	0x3e92154f	0.28531882
8	0x3e927318	0.28603435
9	0x3e4621c6	0.19348821
