models/H2b2_34534.pt (torch_old, 14173 bytes, 6 tensors)

fc1.weight f4 [50, 4]
-0.6825018 0.94275075 -0.4710482 -0.030955473 -0.57504207 0.5473984 -0.09816677 0.85050166
-0.5414483 0.46270785 0.056987785 0.9032006 -0.66020375 0.33557805 0.13974714 1.0380646
-0.43673286 0.47857335 -1.0237167 -1.3511419 0.1260919 -0.14532262 1.5913267 0.6817572
0.30802497 -0.4796644 0.11055898 -1.1171061 -0.5216345 0.062054776 -0.36033118 -0.63459146
-0.31482512 0.5997765 -0.05198353 1.2363036 -0.16620718 0.63794917 -0.085023865 1.0576997
0.12985928 -0.20884721 1.5108508 0.5205141 -0.33749288 0.1940845 -1.2133063 -1.0418313
-0.3627538 0.4083476 -0.53796023 -1.1479355 -0.24099357 0.3124717 -0.6630269 -0.87445295
-0.33186907 0.23964593 -0.19997057 -0.43167576 -0.3399304 0.39617762 -0.187218 1.1293195
0.22824587 -0.016202351 1.7919952 0.73766875 0.050949823 -0.41059348 1.5846611 0.8932696
-0.5026791 0.3796186 -0.009506427 1.012871 -0.45848757 0.44174802 -0.52796817 0.053269714
1.9497557 -1.8449538 -0.3456315 -0.18859592 -0.6353224 0.27988452 0.009542167 1.073445
-0.70123476 0.2131083 0.025562659 -0.23967506 -0.44447228 0.35598257 -0.67043537 -0.9541269
0.045118265 0.21659209 -0.60783124 1.6823658 -0.11725737 0.38014436 -0.1751492 0.99122113
-0.49510592 0.44948757 -0.97884464 -1.44373 0.019847013 -0.059500076 -0.74989283 1.4564524
-0.103200436 0.19651395 1.362583 0.6956557 -0.33931312 0.3478453 -0.2739356 1.2905622
-0.114829704 0.058659595 1.4621041 0.804517 -0.45985678 0.7184618 0.17618883 -0.28574374
-0.3810675 0.52348375 -0.775081 -1.145552 -0.41374588 0.2834139 -0.91063243 -1.2017087
0.30123538 -0.19241568 0.15504883 -0.769741 1.904044 -1.781403 0.63471365 -0.21548784
0.13261452 0.005643764 -0.78528243 1.6741045 -0.5805801 0.3453125 0.066741705 0.8527926
0.009590876 0.58282423 -0.38164374 1.4828426 0.39345974 -0.12621625 1.5060937 0.46653894
-0.01883183 -0.2903219 1.6607891 0.65878063 -0.5190867 0.380841 -0.045788042 1.0683632
-0.18650815 0.47546783 -0.2588143 1.1525315 0.15369113 -0.0725038 -1.1481382 -0.71259147
-1.7546468 2.308106 0.532446 0.14864303 0.23753154 0.11243326 -0.86360687 1.6236321
-0.30633596 0.6774816 -0.18211316 1.3572403 -1.8587707 1.5638047 1.0391142 0.5199123
-0.19470601 0.6965248 -0.0529843 1.1877756 -1.6990956 1.553908 0.61374605 0.15361327
00000000: 70b8 2ebf 1d58 713f 3b2d f1be 5596 fdbc
00000010: f535 13bf 4d22 0c3f a90b c9bd 7aba 593f
00000020: 5b9c 0abf 0be8 ec3e 066c 693d 2838 673f
00000030: 1d03 29bf e3d0 ab3e e019 0f3e 4ddf 843f
00000040: 739b dfbe 9107 f53e 2609 83bf 38f2 acbf
00000050: 3c1e 013e 74cf 14be 98b0 cb3f a487 2e3f
00000060: 73b5 9d3e 9296 f5be bf6c e23d 55fd 8ebf
00000070: d789 05bf 262d 7e3d 547d b8be 9674 22bf
00000080: c230 a1be f48a 193f afec 54bd 323f 9e3f
00000090: 3732 2abe a350 233f fe20 aebd b462 873f
000000a0: d5f9 043e 0bdc 55be 8f63 c13f 6940 053f
000000b0: decb acbe 16be 463e 9f4d 9bbf ba5a 85bf
000000c0: deba b9be f012 d13e c3b7 09bf 8def 92bf
000000d0: 05c7 76be 4afc 9f3e 22bc 29bf 26dc 5fbf
000000e0: beea a9be be65 753e 16c5 4cbe 9b04 ddbe
000000f0: 5b0b aebe cbd7 ca3e 13b6 3fbe 8b8d 903f
00000100: 49b9 693e cbba 84bc 1960 e53f dcd7 3c3f
00000110: c3b0 503d 4f39 d2be 2dd6 ca3f 51ad 643f
00000120: 94af 00bf 5e5d c23e d8c0 1bbc c2a5 813f
00000130: e2be eabe cc2c e23e ec28 07bf 5831 5a3d
00000140: 9891 f93f 7227 ecbf 9df6 b0be 4a1f 41be
00000150: 7da4 22bf 064d 8f3e c056 1c3c a566 893f
00000160: 1f84 33bf 1039 5a3e c868 d13c 616d 75be
00000170: df91 e3be 5943 b63e a7a1 2bbf a941 74bf
00000180: eecd 383d 51ca 5d3e d49a 1bbf c357 d73f
00000190: a224 f0bd 48a2 c23e 505a 33be abc0 7d3f
000001a0: 867e fdbe 3c23 e63e 9095 7abf 25cc b8bf
000001b0: 3496 a23c 5ab6 73bd faf8 3fbf 086d ba3f
000001c0: c05a d3bd f43a 493e 1f69 ae3f 7e16 323f
000001d0: 73ba adbe c718 b23e 4941 8cbe 2431 a53f
000001e0: d62b ebbd 0b45 703d 3a26 bb3f d3f4 4d3f
000001f0: 5972 ebbe 1ded 373f d86a 343e 014d 92be
00000200: 481b c3be 0803 063f b56b 46bf 73a1 92bf
00000210: 80d6 d3be a01b 913e 351f 69bf 97d1 99bf
00000220: 863b 9a3e 9e08 45be 1fc5 1e3e bf0d 45bf
00000230: b7b7 f33f 0305 e4bf 987c 223f d8a8 5cbe
00000240: 1acc 073e 53ef b83b 4508 49bf 0e49 d63f
00000250: e6a0 14bf cdcc b03e e0af 883d 9e50 5a3f
00000260: 0d23 1d3c f833 153f cf66 c3be c9cd bd3f
00000270: 8e73 c93e d53e 01be aec7 c03f 31de ee3e
00000280: 3645 9abc 12a5 94be bd94 d43f d9a5 283f
00000290: dee2 04bf 97fd c23e 3e8c 3bbd 20c0 883f
000002a0: fefb 3ebe 8570 f33e 4f83 84be 2786 933f
000002b0: 3561 1d3e df7c 94bd 31f6 92bf 656c 36bf
000002c0: 4498 e0bf 02b8 1340 624e 083f e135 183e
000002d0: 783b 733e 6943 e63d 5715 5dbf 2dd3 cf3f
000002e0: 11d8 9cbe 6f6f 2d3f df7b 3abe 0dba ad3f
000002f0: 33ec edbf c12a c83f b201 853f f918 053f
00000300: 0361 47be 734f 323f 1106 59bd 0809 983f
00000310: f77b d9bf 75e6 c63f 761e 1d3f cc4c 1d3e

fc1.bias f4 [50]
1.3202348 0.09013628 0.40393096 -0.29697135 -0.85045326 0.73744154 0.18891229 -0.6791239
0.11576309 0.506853 0.9525038 -0.9053974 -0.94709265 -0.4829032 -0.4926477 0.6615492
0.861695 0.69372594 0.20913042 0.88460755 -1.2414082 0.22768246 -0.029801358 -1.081093
0.15012226 0.44795316 -0.91554767 1.1754181 0.19242312 0.65990317 0.22877248 0.08610826
-1.2738315 -0.51121944 0.19216226 -0.1443399 0.6307404 0.07958062 0.57472855 1.012634
0.8503508 0.25046507 0.847516 -0.5733115 1.8048304 0.996084 0.3828152 1.2273412
-0.29581818 1.2909409
00000000: 74fd a83f 5f99 b83d 0ad0 ce3e a10c 98be
00000010: 4eb7 59bf f8c8 3c3f 3972 413e 10db 2dbf
00000020: 3315 ed3d 1ec1 013f 4ad7 733f 20c8 67bf
00000030: aa74 72bf 173f f7be 523c fcbe 4a5b 293f
00000040: 0b98 5c3f 0698 313f 4926 563e a475 623f
00000050: 77e6 9ebf 9725 693e fa21 f4bc 4161 8abf
00000060: a6b9 193e 1e5a e53e 5561 6abf 1a74 963f
00000070: 910a 453e 6aef 283f 5543 6a3e 8759 b03d
00000080: e90c a3bf 47df 02bf 2fc6 443e d7cd 13be
00000090: 3478 213f 2afb a23d 6921 133f fe9d 813f
000000a0: 97b0 593f f53c 803e cff6 583f 8bc4 12bf
000000b0: af04 e73f 5cff 7e3f 5b00 c43e 8419 9d3f
000000c0: 7b75 97be 8d3d a53f

fc2.weight f4 [50, 50]
-0.14293844 -0.44907674 -0.06828246 -0.17021868 1.5878162 -0.9830248 0.74518913 0.8130109
-0.18354191 -0.37096253 -0.6505042 1.3024492 1.4385608 0.7378891 0.8166729 -0.43154374
-1.3430077 -1.0465248 -0.28806522 0.2884423 0.35408595 -0.20134956 0.2017157 1.0952348
-0.38835073 0.022068625 1.7729057 -0.07704792 -0.8241109 -0.42694247 -0.78168386 0.3166828
1.5620623 1.1411667 0.42040008 0.07704276 -0.017545773 0.0050021545 -0.5133503 -1.0504509
-0.9413507 -0.09250847 -0.42726943 1.0548934 -0.1616137 -0.49899912 -0.6321276 0.016922763
-0.298667 -0.2743877 -0.087925844 0.57217085 0.70822346 0.9169589 -0.65165085 -0.23182593
-0.4164757 -0.6291286 0.60976785 0.1142828 0.011245886 -0.35374337 -1.2872156 -0.3786664
-1.0725998 0.4077268 -0.016679307 -0.05781467 0.66750497 0.096928254 -0.10518174 0.3379212
-0.83712876 -0.99100745 0.09399355 0.11772578 -0.8222554 -0.24452418 0.12476297 0.10915675
-0.01994877 -0.9481254 -0.9308105 -0.573491 -0.44519103 -0.15548462 0.08113526 0.56611145
-0.0084762685 -0.02181989 -0.15949216 0.46030506 0.18340278 -0.49993047 -0.4317377 -0.2046439
0.38049406 -0.75346035 0.65053624 -0.73727095 -0.21072446 -0.082846984 -0.18905856 -0.18578269
0.9848322 -1.4657661 -1.010019 0.252704 -0.0865131 -0.14228411 -1.5243236 1.1162165
0.37486115 0.45236608 0.3505297 -0.18092273 -1.88313 -1.4232863 -0.10447973 0.16363247
-1.5004891 -0.15181752 0.027913297 0.46626675 -0.4443699 -0.029757373 0.65602076 -0.45106143
-1.717575 -0.48971435 -1.6634035 -0.07928892 0.84552175 0.6365745 -1.2941597 -1.5769452
-0.43800157 -0.13077219 -0.22487475 -1.3859707 -1.656503 -0.1533654 -0.36252037 0.6087862
0.15882199 -0.28039393 -0.16416425 0.33717522 0.052729737 0.21320878 0.584481 -0.02614447
-0.19892164 -0.07290506 1.5689299 0.20910707 1.0535796 0.94054484 -0.646347 -0.24755995
-0.08799324 0.6946796 1.4688389 1.1274587 0.6716514 -0.47727907 0.020044146 0.1376867
-0.07007652 0.06749415 -0.58989584 -0.44846955 0.73954237 0.97387093 -0.6057487 -0.28284827
1.7795227 -0.4220137 0.37919113 -0.6007249 0.07622982 0.9705997 1.559707 1.2397022
0.9989151 -0.09613445 -0.29951042 0.14387715 -0.7029713 -0.21837349 0.21216567 -0.08050925
-0.38819575 0.42418012 0.49982238 -0.7899825 -0.37420315 0.66640747 -0.4103954 0.94619036
0.007416296 -0.17567848 -0.16280387 -0.24503535 1.6202817 -0.4374086 1.8058208 0.5651368
-0.34149754 -0.22472258 -0.6761838 1.0470468 1.1029127 1.062798 0.5551797 -0.12073783
-0.97636926 -0.9490656 -0.14426588 -0.1247437 0.63183117 -0.40969455 0.15247346 1.203729
-0.37785804 -0.40366095 1.5999905 -0.011032721 -0.48898 -0.25152883 -0.5377903 0.54675496
1.3989513 1.1587845 1.1152774 0.60667807 -0.09024577 -0.12176609 -0.46865833 -0.3513761
-0.76528716 -0.39005902 -0.3094853 0.8818648 -0.03744647 -0.49439317 -0.60784644 0.15425605
-0.23143205 0.11371661 0.023388926 -0.63015074 -0.73931324 -0.7512053 0.4108743 0.29098952
00000000: 745e 12be 63ed e5be add7 8bbd ce4d 2ebe
00000010: 903d cb3f 83a7 7bbf b7c4 3e3f 7b21 503f
00000020: 69f2 3bbe cdee bdbe 7187 26bf a8b6 a63f
00000030: c322 b83f 4de6 3c3f 7a11 513f 4df3 dcbe
00000040: ade7 abbf 86f4 85bf 497d 93be b6ae 933e
00000050: c14a b53e 942e 4ebe 8f8e 4e3e a730 8c3f
00000060: e8d5 c6be 43c9 b43c 93ee e23f 4dcb 9dbd
00000070: eff8 52bf 3498 dabe 6f1c 48bf 3f24 a23e
00000080: a8f1 c73f c011 923f ae3e d73e 98c8 9d3d
00000090: 27bc 8fbc 1de9 a33b ed6a 03bf 2d75 86bf
000000a0: 5cfc 70bf 1575 bdbd 0fc3 dabe bf06 873f
000000b0: 107e 25be d07c ffbe 1dd3 21bf 9ba1 8a3c
000000c0: e2ea 98be 8b7c 8cbe 7712 b4bd ca79 123f
000000d0: 224e 353f d2bd 6a3f 97d2 26bf c763 6dbe
000000e0: 4e3c d5be 920e 21bf bf19 1c3f 1a0d ea3d
000000f0: aa40 383c da1d b5be 7bc3 a4bf 90e0 c1be
00000100: f34a 89bf 91c1 d03e 0ba3 88bc 13cf 6cbd
00000110: 9be1 2a3f 5282 c63d 8669 d7bd 0204 ad3e
00000120: 124e 56bf aab2 7dbf b17f c03d 371a f13d
00000130: 547f 52bf 8c64 7abe ba83 ff3d 938d df3d
00000140: 9a6b a3bc 59b8 72bf 9949 6ebf 4ed0 12bf
00000150: 14f0 e3be 5c37 1fbe 3e2a a63d aeec 103f
00000160: 0ce0 0abc a0bf b2bc ea51 23be 1bad eb3e
00000170: f0cd 3b3e e3f6 ffbe b90c ddbe 2c8e 51be
00000180: 1ed0 c23e c7e2 40bf 8b89 263f cabd 3cbf
00000190: 27c8 57be aeab a9bd 9198 41be d13d 3ebe
000001a0: f71d 7c3f 399e bbbf 4d48 81bf 6b62 813e
000001b0: c82d b1bd edb2 11be 091d c3bf 2fe0 8e3f
000001c0: cded bf3e 879c e73e a178 b33e cf43 39be
000001d0: 670a f1bf 3f2e b6bf 78f9 d5bd 458f 273e
000001e0: 0710 c0bf 0d76 1bbe 6daa e43c 84ba ee3e
000001f0: 7484 e3be bcc5 f3bc faf0 273f 86f1 e6be
00000200: 7fd9 dbbf d7bb fabe 68ea d4bf 3b62 a2bd
00000210: 1d74 583f 8cf6 223f 06a7 a5bf 57d9 c9bf
00000220: be41 e0be 25e9 05be 9145 66be 7d67 b1bf
00000230: 4a08 d4bf d20b 1dbe 459c b9be 6ad9 1b3f
00000240: 3ba2 223e cb8f 8fbe ac1a 28be 3ba2 ac3e
00000250: 23fb 573d 6753 5a3e 8ca0 153f ed2c d6bc
00000260: 1db2 4bbe 404f 95bd b2d2 c83f 2a20 563e
00000270: b2db 863f 8cc7 703f ff76 25bf 5b80 7dbe
00000280: cd35 b4bd 86d6 313f ea02 bc3f 9150 903f
00000290: 59f1 2b3f ec5d f4be 9f33 a43c befd 0c3e
000002a0: 4784 8fbd 5f3a 8a3d 6a03 17bf cd9d e5be
000002b0: a652 3d3f 9b4f 793f 5912 1bbf 7dd1 90be
000002c0: 66c7 e33f 2e12 d8be 5725 c23e 1bc9 19bf
000002d0: 611e 9c3d 3979 783f 7ba4 c73f 90ae 9e3f
000002e0: e6b8 7f3f 23e2 c4bd 6e59 99be 8854 133e
000002f0: edf5 33bf 4d9d 5fbe f541 593e 09e2 a4bd
00000300: 98c1 c6be 232e d93e b8e8 ff3e 4b3c 4abf
00000310: 8e97 bfbe ae99 2a3f 591f d2be 8839 723f
00000320: 6604 f33b 0fe5 33be 0fb6 26be 8cea 7abe
00000330: 6465 cf3f 05f4 dfbe 2325 e73f ceac 103f
00000340: c4d8 aebe ad1d 66be 621a 2dbf a105 863f
00000350: 3e2c 8d3f c409 883f 4220 0e3f 6545 f7bd
00000360: 56f3 79bf f7f5 72bf 6fba 13be a079 ffbd
00000370: b0bf 213f 7cc3 d1be 0122 1c3e cb13 9a3f
00000380: 9c76 c1be a6ac cebe 7dcc cc3f 96c2 34bc
00000390: 965b fabe 63c8 80be a0ac 09bf 22f8 0b3f
000003a0: d610 b33f 0d53 943f 69c1 8e3f 414f 1b3f
000003b0: c6d2 b8bd 8060 f9bd fcf3 efbe 91e7 b3be
000003c0: dce9 43bf d1b5 c7be db74 9ebe e4c1 613f
000003d0: 7861 19bd 1a21 fdbe d39b 1bbf 4cf5 1d3e
000003e0: 86fc 6cbe 41e4 e83d 229a bf3c 8f51 21bf
000003f0: a243 3dbf fe4e 40bf 1e5e d23e 94fc 943e

fc2.bias f4 [50]
-0.03780754 -0.34354398 -0.3878214 0.2770344 -0.000869144 0.47558594 -0.51469785 -0.13971795
0.26420537 -0.5074036 0.3605891 -0.29723912 -0.013819785 0.29094464 -0.31156337 -0.30560508
0.13514811 0.6163656 0.4298332 0.43678886 -0.27219063 -0.51227975 -0.10728582 0.22840695
-0.43572024 0.19602212 0.3307025 -0.07293019 -0.040691234 -0.56395924 -0.24305436 -0.13224928
-0.37804335 -0.31611946 0.25140128 -0.033514418 0.46867353 -0.21108763 0.35447776 -0.21371593
0.4802457 0.104757495 0.21174502 0.5936945 -0.224576 -0.22526269 -0.27843547 0.46490222
-0.18478787 0.006074789
00000000: 14dc 1abd ffe4 afbe 8790 c6be 74d7 8d3e
00000010: 44d7 63ba 0080 f33e 3dc3 03bf 3912 0fbe
00000020: ed45 873e 34e5 01bf 229f b83e ba2f 98be
00000030: 616c 62bc b2f6 943e 3c85 9fbe 4578 9cbe
00000040: 4464 0a3e 23ca 1d3f 1913 dc3e caa2 df3e
00000050: 925c 8bbe c424 03bf abb8 dbbd 83e3 693e
00000060: b916 dfbe 06ba 483e d751 a93e 6c5c 95bd
00000070: daab 26bd a25f 10bf 3ee3 78be 5b6c 07be
00000080: e68e c1be 69da a1be abb7 803e 6a46 09bd
00000090: faf5 ef3e 5b27 58be 1c7e b53e 59d8 5abe
000000a0: c4e2 f53e 198b d63d b0d3 583e 5dfc 173f
000000b0: 40f7 65be 43ab 66be 188f 8ebe aa07 ee3e
000000c0: 0839 3dbe 060f c73b

fc_out.weight f4 [10, 50]
-2.4327588 0.9360228 -1.181742 -1.174613 -2.2920303 -0.7704475 -0.78773314 -2.318487
-0.9763522 -1.2925508 0.7886508 0.7618373 1.0305641 -0.879897 0.8087793 -1.711188
-1.2434275 -1.058085 -0.3148026 -0.8723259 -2.1621602 -0.4029192 0.6762953 -0.9368075
0.46865124 -1.5943859 -0.9250189 -2.297828 -2.5719588 1.2027078 -2.1468651 1.655886
1.0120987 -1.2615153 -0.82630044 -2.1753345 -0.58267003 1.0457504 -1.1544431 -1.6750994
-1.1022866 -1.5066987 -2.59531 -0.9108443 -1.0782274 -1.9640291 -0.63094056 -0.5858277
-2.2965844 -1.9325527 -1.9483283 0.5934947 -0.9874845 -1.4749017 -1.667681 -1.0649847
-0.6504464 -1.4818519 -1.0571148 -1.3002088 1.7627956 0.3557194 0.73004085 -0.9438222
0.36085615 -1.632778 -1.1740541 -0.87109137 -0.599123 -0.8901421 -1.5168778 -0.579042
0.41919532 -0.7242746 0.52252775 -1.7453766 -0.7521383 -1.6817564 -1.8817478 0.7068671
-2.017265 1.435609 0.7008734 -1.2482532 -0.88931507 -1.8412017 -0.7506837 1.9625546
0.19635613 -1.7236811 -0.8571169 -1.5850137 -2.2057958 -0.6856892 -0.025254257 -1.6072494
-0.7674091 -0.38775283 -1.7963471 -2.2416513 -1.423082 0.7626428 -1.3757292 -1.8176583
-1.6712543 -0.9427183 -1.0375481 -1.3250871 -1.8997251 -1.3098683 1.4084046 0.6569034
1.0668083 -0.31095022 0.6953455 -1.5874915 -1.2213061 -0.16730605 -1.0260843 -0.3754688
-1.6974176 -0.89864606 0.31557828 -1.0088714 0.5471817 -1.5451325 -0.26934716 -1.7271276
-1.4292006 0.6863618 -1.7380899 1.2077858 0.7848546 -0.8489152 -0.6954619 -1.3683326
-0.5364933 1.5621188 0.047635462 -1.5868764 -0.3867952 -1.6570008 -1.5607642 -1.0801808
-0.60439503 -1.2039319 -0.8954994 -0.7144676 -1.4263992 -1.8594066 -1.1903367 0.7839124
-1.1769707 -1.67786 -1.3358353 -0.72539145 -1.270402 -1.6739581 -1.6309295 -1.2450075
1.4804689 0.67266303 0.8354215 -0.3966834 0.61860204 -1.737914 -1.6417319 -0.40229112
-0.6872443 -0.84752077 -1.7225658 -1.1828914 0.35734984 -1.1917781 0.44072697 -1.6273521
-0.47919172 -1.7590611 -1.5443207 0.67032516 -1.6856045 1.3729628 0.21533641 -1.2155113
-0.74747986 -1.4698311 -0.45652556 1.6409111 -0.31111428 -1.7734312 -0.48176464 -1.4762574
-1.2469393 -1.0914603 -1.086796 -1.4264479 -1.1895525 -0.8164591 -1.3914181 -1.6078476
-1.5572431 0.58629394 -1.511055 -1.6613694 -1.8577145 -0.9046676 -1.3677361 -1.2540163
-1.768349 -1.311443 1.3476102 0.30852208 0.95358264 -0.4965539 0.40158162 -1.6286421
-1.6041882 -0.33885103 -1.1324891 -0.42108157 -1.4576894 -0.9088428 0.52281743 -1.113188
0.50897825 -1.7951446 -0.4996854 -1.3183997 -1.6441406 0.3513247 -1.6686983 1.4434471
0.39957103 -1.5727733 -0.93622035 -1.781808 -0.89030397 1.9027624 0.13203661 -1.7667787
-0.48465914 -1.8950918 -1.7081405 -0.9296553 -1.0112602 -1.2330213 -1.3567916 -0.6050838
-1.50823 -1.4283805 -1.7149525 0.69464844 -1.5504624 -1.8880091 -1.4204096 -0.4569167
00000000: 52b2 1bc0 319f 6f3f 5243 97bf b859 96bf
00000010: a0b0 12c0 0c3c 45bf e1a8 49bf 1762 14c0
00000020: 38f2 79bf 4e72 a5bf 05e5 493f c507 433f
00000030: 86e9 833f ee40 61bf 290c 4f3f 3508 dbbf
00000040: a228 9fbf 546f 87bf ce2d a1be c050 5fbf
00000050: d560 0ac0 6d4b cebe b021 2d3f 9ed2 6fbf
00000060: 0ef3 ef3e d614 ccbf 0ace 6cbf 9d0f 13c0
00000070: f99a 24c0 54f2 993f 3d66 09c0 13f4 d33f
00000080: 738c 813f 5579 a1bf 6d88 53bf ae38 0bc0
00000090: dd29 15bf 26db 853f cbc4 93bf a869 d6bf
000000a0: ba17 8dbf 81db c0bf 8f19 26c0 182d 69bf
000000b0: 5b03 8abf 4e65 fbbf 5285 21bf cef8 15bf
000000c0: 3dfb 12c0 e35d f7bf d262 f9bf 45ef 173f
000000d0: c9cb 7cbf 94c9 bcbf 9276 d5bf 6b51 88bf
000000e0: a883 26bf 53ad bdbf 8a4f 87bf 3e6d a6bf
000000f0: 49a3 e13f da20 b63e f5e3 3a3f 559e 71bf
00000100: 23c2 b83e dffe d0bf 6847 96bf d8ff 5ebf
00000110: 2060 19bf 5ae0 63bf 0d29 c2bf 193c 14bf
00000120: c5a0 d63e 0f6a 39bf 61c4 053f 8068 dfbf
00000130: 238c 40bf cb43 d7bf 1ddd f0bf 3ef5 343f
00000140: df1a 01c0 09c2 b73f 706c 333f c3c6 9fbf
00000150: 27aa 63bf 7fac ebbf cf2c 40bf fd34 fb3f
00000160: 9511 493e 95a1 dcbf 036c 5bbf bbe1 cabf
00000170: c22b 0dc0 5489 2fbf 04e2 cebc 59ba cdbf
00000180: ec74 44bf 8a87 c6be b4ee e5bf 3777 0fc0
00000190: 8d27 b6bf 8f3c 433f e517 b0bf 07a9 e8bf
000001a0: a9eb d5bf fd55 71bf 60ce 84bf 749c a9bf
000001b0: 312a f3bf c4a9 a7bf 9a46 b43f d22a 283f
000001c0: 2d8d 883f de34 9fbe 2a02 323f ec32 cbbf
000001d0: c253 9cbf 4752 2bbe bb56 83bf 723d c0be
000001e0: fb44 d9bf ab0d 66bf 7a93 a13e b322 81bf
000001f0: 1a14 0c3f e7c6 c5bf dfe7 89be 8412 ddbf
00000200: 0cf0 b6bf 68b5 2f3f bb79 debf ba98 9a3f
00000210: 3bec 483f 8252 59bf cb09 32bf 8625 afbf
00000220: a057 09bf 82f3 c73f 671d 433d c41e cbbf
00000230: 050a c6be 9a18 d4bf 1fc7 c7bf 5d43 8abf
00000240: a2b9 1abf 711a 9abf 733f 65bf 59e7 36bf
00000250: 4094 b6bf 0901 eebf f45c 98bf 7cae 483f
00000260: faa6 96bf 1ec4 d6bf a7fc aabf 41b3 39bf
00000270: 889c a2bf 4244 d6bf 4cc2 d0bf 685c 9fbf
00000280: 0180 bd3f a533 2c3f 2fde 553f 161a cbbe
00000290: b45c 1e3f f773 debf 4524 d2bf 1af9 cdbe
000002a0: 3eef 2fbf 1ff7 58bf 097d dcbf fc68 97bf
000002b0: 8ff6 b63e 2f8c 98bf f7a6 e13e 134d d0bf
000002c0: 9e58 f5be ea28 e1bf 4dac c5bf 6e9a 2b3f
000002d0: e3c1 d7bf 3fbd af3f 2681 5c3e e095 9bbf
000002e0: d75a 3fbf 6d23 bcbf b8bd e9be 6009 d23f
000002f0: 5f4a 9fbe cbff e2bf dba9 f6be 01f6 bcbf
00000300: b59b 9fbf f9b4 8bbf 221c 8bbf d895 b6bf
00000310: 4243 98bf 7703 51bf fd19 b2bf f3cd cdbf
00000320: be53 c7bf 5c17 163f 406a c1bf c1a7 d4bf
00000330: 97c9 edbf 4c98 67bf fa11 afbf 9b83 a0bf
00000340: 4359 e2bf 5ddd a7bf 7e7e ac3f 9bf6 9d3e
00000350: fe1d 743f 503c febe 1b9c cd3e 5877 d0bf
00000360: 0a56 cdbf e27d adbe 67f5 90bf 0198 d7be
00000370: 9195 babf eca9 68bf 5dd7 053f f27c 8ebf
00000380: 664c 023f 4cc7 e5bf c4d6 ffbe 52c1 a8bf
00000390: 3373 d2bf d5e0 b33e e897 d5bf e0c2 b83f
000003a0: 9394 cc3e a350 c9bf 23ac 6fbf 4912 e4bf
000003b0: f6ea 63bf b88d f33f 9b34 073e ce25 e2bf
000003c0: 3e25 f8be 5e92 f2bf 59a4 dabf e4fd 6dbf
000003d0: f970 81bf a4d3 9dbf 59ab adbf c6e6 1abf
000003e0: ae0d c1bf 2cd5 b6bf 9083 dbbf 7bd4 313f
000003f0: 8d75 c6bf 48aa f1bf fbcf b5bf fcf0 e9be

fc_out.bias f4 [10]
0.3422136 0.18781845 0.3184675 0.21663745 0.20651153 0.29289588 0.2523141 0.48498818
0.18637972 0.3011323
00000000: 9f36 af3e 7b53 403e 2c0e a33e 35d6 5d3e
00000010: c277 533e 73f6 953e 502f 813e 5f50 f83e
00000020: 53da 3e3e 032e 9a3e
