models/I1_228.pt (torch_old, 3768 bytes, 4 tensors)

fc1.weight f4 [50, 4]
0.58607095 0.7749176 -0.6604147 -1.2238756 0.9137572 1.0093085 -0.20038354 -0.80483913
-1.1197028 1.0544221 1.7988653 -0.49195737 -0.20953901 0.024985967 -1.5329628 2.0844579
-1.7211168 1.4838727 0.36395732 0.7700402 -0.19236097 0.5576362 -1.6980953 0.3728223
-1.3270907 1.7953768 0.4085787 -2.778362 1.1965041 -1.5535831 0.28473115 2.832714
0.48014274 1.1076176 -1.0893134 -0.4261876 -1.0223275 -0.8351375 -0.43792832 -0.7331802
1.6138378 -1.1085768 0.7400224 2.9116447 1.8744675 -1.3874067 1.0533575 2.0901291
1.4286662 -0.084857106 -1.5780385 1.1675556 2.4814184 -1.922286 2.55904 2.0380085
0.61927485 1.1021167 -3.3345842 -1.7707856 0.95346457 0.50769424 -1.6867124 1.9459324
0.92436135 -1.8065896 0.51229644 2.86121 -0.75140333 -0.53041756 0.69235456 -0.93307394
-1.9874923 1.5638181 -0.0068545123 1.2832897 -1.1648765 0.98667914 -1.5696527 -0.87973714
2.006761 -2.1252468 3.0333614 2.9153743 0.8897304 0.7654826 -2.3850312 0.7267605
1.7131801 -2.4219635 -0.8272322 1.1672583 1.4896657 -0.91507304 0.719466 2.960057
1.4528239 0.23170213 -1.579155 1.5175785 -1.4105971 0.9396766 -1.2568477 0.08085099
-0.1827505 1.9614031 0.35858688 -1.4481349 0.28543502 0.68013006 -1.3713987 1.9579086
-0.27598062 1.2565466 -0.38864174 1.5234987 0.9826392 1.317277 0.9939583 0.72905236
2.1050122 -2.3967896 0.968657 2.5880785 -0.7734384 -0.3377313 -0.9844841 2.0424612
0.8479043 0.9408413 -0.6255514 -1.2065115 1.0400484 0.5633681 2.6955602 1.5193816
-0.88057363 1.1366464 -0.82905686 0.040579915 -1.0393981 0.37243357 -1.4040163 -0.6662021
0.052105308 1.4892908 -2.0061033 -1.0318135 0.97422814 -1.6686813 0.67357194 2.6470017
-0.41291776 1.1384611 1.8004078 -0.6847337 -0.0544044 0.2457865 -1.4086094 1.7475497
-0.3548152 -1.5524744 -3.6912203 0.3632084 1.6701398 -1.2266295 -1.6784443 0.7901288
-1.5559566 1.1669588 -1.6051313 1.7520474 -1.660188 0.10851341 0.25007737 1.5018737
0.11111997 -2.0265963 3.576183 2.1207798 1.6360102 -0.6190207 0.79283214 2.359784
1.0160474 -1.5145239 2.0142412 2.0814931 0.3106612 1.5851207 1.9003999 0.34216994
-0.80705863 1.921243 1.2829323 -1.1856824 0.66603106 0.22243835 3.385794 -0.56203353
00000000: bf08 163f 0061 463f f010 29bf f5a7 9cbf
00000010: feeb 693f 0531 813f 5831 4dbe f009 4ebf
00000020: 6c52 8fbf 4ef7 863f 3841 e63f d6e1 fbbe
00000030: 6591 56be 5faf cc3c 2038 c4bf c267 0540
00000040: 8e4d dcbf 8aef bd3f 9d58 ba3e 5b21 453f
00000050: 46fa 44be 3fc1 0e3f 305b d9bf 91e2 be3e
00000060: 1cde a9bf e8ce e53f 3a31 d13e afd0 31c0
00000070: 0c27 993f d0db c6bf 48c8 913e 304b 3540
00000080: 45d5 f53e 6ac6 8d3f 9f6e 8bbf 4335 dabe
00000090: a1db 82bf 92cb 55bf 2438 e0be b3b1 3bbf
000000a0: 3d92 ce3f d8e5 8dbf 1c72 3d3f 6358 3a40
000000b0: 8dee ef3f 8b96 b1bf 6bd4 863f adc4 0540
000000c0: 89de b63f 90c9 adbd 2afd c9bf 7672 953f
000000d0: 8fcf 1e40 780d f6bf 50c7 2340 bb6e 0240
000000e0: cc88 1e3f 2912 8d3f d469 55c0 1aa9 e2bf
000000f0: 4116 743f 40f8 013f 31e6 d7bf 5014 f93f
00000100: f2a2 6c3f 543e e7bf dc25 033f 111e 3740
00000110: f85b 40bf 72c9 07bf 263e 313f efdd 6ebf
00000120: 2666 febf 312b c83f d19b e0bb d642 a43f
00000130: ac1a 95bf 0197 7c3f 61ea c8bf 7436 61bf
00000140: c66e 0040 0b04 08c0 9822 4240 7e95 3a40
00000150: 5fc5 633f abf6 433f 5aa4 18c0 fa0c 3a3f
00000160: 7c49 db3f 7301 1bc0 7dc5 53bf b868 953f
00000170: 5ead be3f 3a42 6abf ec2e 383f 9371 3d40
00000180: 22f6 b93f 5343 6d3e c021 cabf 0340 c23f
00000190: 728e b4bf a58e 703f 63e0 a0bf 3495 a53d
000001a0: f222 3bbe 420f fb3f b398 b73e 7c5c b9bf
000001b0: 8a24 923e 011d 2e3f fe89 afbf c09c fa3f
000001c0: 554d 8dbe 85d6 a03f 0dfc c6be 0102 c33f
000001d0: 3e8e 7b3f 889c a83f 0d74 7e3f 2da3 3a3f
000001e0: 85b8 0640 0065 19c0 e8f9 773f 14a3 2540
000001f0: 0f00 46bf 1eeb acbe 2607 7cbf afb7 0240
00000200: 4210 593f fada 703f 2324 20bf f86e 9abf
00000210: 4e20 853f e438 103f 0f84 2c40 197b c23f
00000220: 466d 61bf a17d 913f 123d 54bf 2037 263d
00000230: ff0a 85bf 9daf be3e ceb6 b3bf 398c 2abf
00000240: 606c 553d 15a1 be3f ff63 00c0 7712 84bf
00000250: 0467 793f 5997 d5bf 366f 2c3f 7a68 2940
00000260: f569 d3be 18b9 913f c373 e63f b54a 2fbf
00000270: 26d7 5ebd 75af 7b3e 504d b4bf b5af df3f
00000280: 57aa b5be 7bb7 c6bf f43c 6cc0 74f6 b93e
00000290: 24c7 d53f 3202 9dbf 43d7 d6bf e245 4a3f
000002a0: 9629 c7bf e85e 953f f174 cdbf 1743 e03f
000002b0: 0a81 d4bf 473c de3d 240a 803e 663d c03f
000002c0: de92 e33d c1b3 01c0 2fe0 6440 dbba 0740
000002d0: c868 d13f 2478 1ebf 0cf7 4a3f b306 1740
000002e0: d70d 823f ebdb c1bf 54e9 0040 2f37 0540
000002f0: fc0e 9f3e 3ce5 ca3f 4e40 f33f e630 af3e
00000300: 659b 4ebf 4aeb f53f 2037 a43f 71c4 97bf
00000310: 0381 2a3f e1c6 633e d9b0 5840 6ee1 0fbf

fc1.bias f4 [50]
0.3114251 0.44729912 -0.9420423 0.75189364 0.46115357 0.09647716 -1.0206964 2.0957112
-0.5252868 -0.36808485 2.1399434 2.8721795 0.28273767 1.9695866 -0.8289699 0.5793969
1.9768089 -0.8217303 0.43607265 0.021287609 4.038806 0.689258 2.0005887 2.0649316
0.20940866 -0.7250071 -1.1025146 0.6912038 0.8406885 0.6828228 2.5760062 0.61407065
0.44466412 0.59932435 -0.56983376 -0.33020708 -0.43847615 2.560168 -0.3873581 1.034996
-0.3390138 1.3498954 0.68703806 0.04214126 2.8456395 2.577878 2.5771203 0.08212202
-0.7198711 -0.2353471
00000000: 1c73 9f3e 6404 e53e af29 71bf 1a7c 403f
00000010: 521c ec3e d195 c53d 2ea6 82bf 2220 0640
00000020: 3279 06bf 9e75 bcbe d5f4 0840 cad1 3740
00000030: fec2 903e 6a1b fc3f 5f37 54bf 5b53 143f
00000040: 1308 fd3f eb5c 52bf ea44 df3e 5a63 ae3c
00000050: e63d 8140 3673 303f a509 0040 d727 0440
00000060: 396f 563e 119a 39bf 331f 8dbf bbf2 303f
00000070: 5d37 573f 7acd 2e3f 49dd 2440 bc33 1d3f
00000080: 04ab e33e 526d 193f a0e0 11bf e710 a9be
00000090: f27f e0be cbd9 2340 cd53 c6be c07a 843f
000000a0: 3793 adbe 5fc9 ac3f bae1 2f3f 509c 2c3d
000000b0: f51e 3640 f4fb 2440 8aef 2440 972f a83d
000000c0: 7949 38bf d5fe 70be

fc_out.weight f4 [10, 50]
0.20942408 0.050570846 1.0997821 -0.36905497 0.0058971792 -0.5410264 1.5682389 2.1697235
-0.38630557 0.31146446 2.2349997 -3.1665468 -0.5116231 0.6137891 -2.291518 -0.56589603
2.2141705 -0.2465379 -0.14968589 -0.17385982 -1.6005011 -0.36528683 0.5696602 2.2486339
-0.14001879 -0.29862198 1.7774335 -0.13268755 -0.33544472 0.80948955 -1.022153 -0.3140517
0.21153268 -2.1432574 -0.50232095 -0.5911125 -0.2576937 2.53456 -0.3057297 -0.17528139
-1.606264 -1.976999 -0.3814783 -0.27949256 -1.5915409 1.4345353 -2.6623073 1.0089215
1.2766513 1.7989484 -0.00087812543 0.048363388 1.0531268 -0.61558443 -0.4307689 -0.08372471
1.6860766 2.001772 -0.33331567 -0.23130697 1.8385079 -1.6107064 -0.3688845 0.018199435
-0.7797005 -0.22462612 1.5978059 0.10561022 -0.05430823 -0.44713283 -1.6075677 -0.5851937
-0.12396972 1.9335346 -0.2118346 -0.2546385 1.6493711 -0.2609192 -0.14316663 -0.20525332
-1.2576021 -0.3514553 -0.057657987 -0.5254333 -0.5157496 -0.2135152 -0.30905497 1.90988
-0.3270471 -0.031109191 -1.2655892 -0.9049946 -0.3786112 -0.5037362 -1.7823358 1.9228355
-1.9887996 1.0086738 1.2822586 1.2094326 -0.07601655 0.08971098 1.0537738 -0.26326033
-0.1542292 -0.33875167 1.8922843 1.6488335 -0.14781512 0.0996359 2.1072402 -1.610831
-0.67603475 -0.09361642 -1.6442969 -0.45580578 1.8656012 0.035303306 -0.18693522 -0.44367754
-1.8020723 -0.2189285 -0.46816373 1.968861 -0.3093985 -0.4258977 1.3133229 -0.14467953
-0.40609708 0.27907673 -1.2125213 -0.44200894 -0.082849294 -0.43669972 -0.09854273 -0.4805778
-0.71869546 1.9052941 -0.39371428 -0.403484 -1.3375293 -0.3884897 -0.2730052 -0.42215458
-1.7416509 1.8931466 -1.6189512 0.37173137 1.2741226 1.1259155 0.051331446 0.028474003
0.8886728 -0.58314514 -0.26542884 -0.7666513 1.7450231 1.6696222 0.03908871 0.30921856
1.6466429 -1.1124662 -0.19650613 -0.45314604 -1.3840764 -0.646967 2.0909474 0.554193
-0.3079884 -0.28469047 -1.593795 -0.4535177 -0.5853912 2.2031307 -0.49150857 -0.022731608
1.7408496 -0.4287564 -0.43983477 0.09643329 -1.3659755 -0.2616837 0.30961606 -0.6481691
-0.19039215 -0.26855347 -0.29403684 1.6257567 -0.48763412 -0.12307112 -1.3600372 -0.32012752
-0.16111982 -0.13435929 -1.531595 1.7427875 -1.4571728 1.2915295 0.98733014 0.8942244
-0.23958576 -0.3000594 1.1003376 -0.19401076 -0.031685177 -0.23709537 1.6636918 1.8569934
-0.6593498 -0.20011337 1.6728662 -0.9600297 -0.36490452 -0.8119359 -1.374649 -0.13341676
1.5972052 0.3730295 -0.49949044 -0.5103716 -1.5693936 -0.53217554 -0.6797318 1.8283311
-0.35791367 -0.15096392 1.8465439 -0.5350294 -0.21832237 -0.035466872 -1.1704556 -0.15097584
-0.24489115 -0.7204717 -0.2832401 -0.2577245 -0.2622759 1.9309928 -0.4628171 -0.6524606
-1.3655841 -0.24393149 -0.4633117 -0.3585257 -1.471427 2.0586975 -1.5319834 1.0255724
1.0763425 1.1382974 -0.30619848 0.19370976 1.1972207 -0.12717016 -0.3504217 -0.3251247
00000000: 4473 563e 6023 4f3d a9c5 8c3f c6f4 bcbe
00000010: 203d c13b b580 0abf 0dbc c83f c0dc 0a40
00000020: d8c9 c5be 4578 9f3e 3c0a 0f40 b4a8 4ac0
00000030: bbf9 02bf 4821 1d3f 3ba8 12c0 90de 10bf
00000040: f8b4 0d40 6e74 7cbe 4247 19be 4f08 32be
00000050: 38dd ccbf e006 bbbe 40d5 113f 9ee9 0f40
00000060: 1661 0fbe fbe4 98be f182 e33f 3fdf 07be
00000070: 69bf abbe b53a 4f3f e9d5 82bf 62cb a0be
00000080: 069c 583e 212b 09c0 1b98 00bf 2653 17bf
00000090: 6ef0 83be 3b36 2240 9a88 9cbe f77c 33be
000000a0: 0f9a cdbf 4e0e fdbf 2051 c3be a619 8fbe
000000b0: 9db7 cbbf da9e b73f 3e63 2ac0 5724 813f
000000c0: 4f69 a33f f143 e63f 0032 66ba b018 463d
000000d0: dccc 863f f196 1dbf be8d dcbe dc77 abbd
000000e0: 5cd1 d73f 081d 0040 5aa8 aabe bcdb 6cbe
000000f0: 3a54 eb3f a12b cebf 6ede bcbe fb16 953c
00000100: 749a 47bf 6404 66be e784 cc3f 2c4a d83d
00000110: 4e72 5ebd 98ee e4be c7c4 cdbf 41cf 15bf
00000120: d6e3 fdbd 107e f73f 2beb 58be fa5f 82be
00000130: 981e d33f 3497 85be 469a 12be ed2d 52be
00000140: 1bf9 a0bf f3f1 b3be c82a 6cbd cc82 06bf
00000150: 2a08 04bf bba3 5abe 743c 9ebe f376 f43f
00000160: b872 a7be b4d8 febc d4fe a1bf baad 67bf
00000170: 54d9 c1be dbf4 00bf 9423 e4bf 791f f63f
00000180: fc90 febf 391c 813f 0d21 a43f b0ce 9a3f
00000190: 91ae 9bbd 64ba b73d 0fe2 863f 0fca 86be
000001a0: 42ee 1dbe dc70 adbe 5f36 f23f fa0c d33f
000001b0: d95c 17be e80d cc3d 06dd 0640 b62f cebf
000001c0: 9d10 2dbf f7b9 bfbd 5278 d2bf 605f e9be
000001d0: 05cc ee3f 339a 103d f26b 3fbe b429 e3be
000001e0: 4eaa e6bf cb2e 60be 28b3 efbe a303 fc3f
000001f0: 7b69 9ebe 430f dabe f71a a83f df26 14be
00000200: f5eb cfbe 25e3 8e3e e633 9bbf ff4e e2be
00000210: e4ac a9bd 1b97 dfbe c5d0 c9bd 4b0e f6be
00000220: 6dfc 37bf ade0 f33f eb94 c9be 7495 cebe
00000230: 2934 abbf 1fe8 c6be 56c7 8bbe a524 d8be
00000240: 6bee debf a152 f23f cb39 cfbf 9353 be3e
00000250: 7316 a33f 001e 903f ec40 523d 5042 e93c
00000260: 1080 633f 0049 15bf 4ae6 87be 4243 44bf
00000270: eb5c df3f 2eb6 d53f 7c1b 203d e551 9e3e
00000280: 32c5 d23f 4b65 8ebf e738 49be c202 e8be
00000290: 6a29 b1bf a19f 25bf 15d2 0540 98df 0d3f
000002a0: a8b0 9dbe f3c2 91be 7901 ccbf 7933 e8be
000002b0: 33dc 15bf 1800 0d40 03a7 fbbe a337 babc
000002c0: 29d4 de3f f585 dbbe 0632 e1be d17e c53d
000002d0: 49d8 aebf 68fb 85be ff85 9e3e 69ee 25bf
000002e0: 29f6 42be d77f 89be ff8b 96be cc18 d03f
000002f0: 2eab f9be b60c fcbd b315 aebf c1e7 a3be
00000300: 98fc 24be 7b95 09be 4e0b c4bf a913 df3f
00000310: a384 babf d750 a53f abc1 7c3f e4eb 643f
00000320: f855 75be 63a1 99be ddd7 8c3f c2aa 46be
00000330: 51c8 01bd 21c9 72be daf3 d43f f6b1 ed3f
00000340: 26cb 28bf 85ea 4cbe 7b20 d63f 82c4 75bf
00000350: c4d4 babe 08db 4fbf 80f4 afbf 679e 08be
00000360: 3871 cc3f b9fd be3e 36bd ffbe b7a7 02bf
00000370: e4e1 c8bf a83c 08bf e702 2ebf c106 ea3f
00000380: 7640 b7be 4996 1abe 8d5b ec3f b0f7 08bf
00000390: e68f 5fbe b645 11bd 7dd1 95bf 6999 1abe
000003a0: bfc4 7abe d570 38bf d904 91be 77f4 83be
000003b0: 0749 86be c62a f73f 5df6 ecbe a807 27bf
000003c0: 76cb aebf 2dc9 79be 3137 edbe ae90 b7be
000003d0: b857 bcbf b3c1 0340 0818 c4bf f545 833f
000003e0: 97c5 893f bbb3 913f 0cc6 9cbe da5b 463e
000003f0: 873e 993f e538 02be 796a b3be bf76 a6be

fc_out.bias f4 [10]
-0.11621922 -0.26050842 -0.36685383 -0.22369674 -0.3831446 -0.15261433 -0.516042 -0.24938586
-0.1929677 -0.40049872
00000000: 5804 eebd 5c61 85be 44d4 bbbe c210 65be
00000010: 872b c4be ee46 1cbe 541b 04bf 025f 7fbe
00000020: 5399 45be 2b0e cdbe
