models/J1_271828.pt (torch_old, 3768 bytes, 4 tensors)

fc1.weight f4 [50, 4]
000000 a3 94 47 bf a1 19 1b 3f a4 ea 3f 3e af 90 8c 3f
       -0.77961177 0.6058598 0.18741852 1.0981654
000010 00 5e d2 3f 5e 42 d0 3d 0c ed 59 3f 0b f4 f6 3f
       1.6434937 0.101689085 0.8512733 1.9293226
000020 60 92 9f 3e 07 90 59 3f c4 2e ff 3f f5 32 6a bf
       0.31166363 0.84985393 1.9936147 -0.91484004
000030 5a 2b 28 bf 95 b2 e9 3e da db 2b c0 97 56 b1 bf
       -0.6569115 0.4564406 -2.6852937 -1.385455
000040 fe 42 02 40 9c 4e 05 c0 ef 41 af 3f ed d1 c3 3f
       2.0353389 -2.082923 1.3691996 1.5298439
000050 22 21 db 3f e4 37 d1 bf 3f 1c 82 3f 75 20 e9 3f
       1.7119486 -1.6345181 1.016487 1.821303
000060 a2 75 81 bf e6 ee 6c bf 4e 1e 12 c0 46 45 e0 3f
       -1.0114024 -0.9255203 -2.2830997 1.752114
000070 7a ae a2 bf e3 3e 55 bf bc b9 b2 bf f0 d6 e7 3f
       -1.2709496 -0.8329908 -1.3962932 1.8112469
000080 dd 9e 51 3f d4 f3 97 3e a9 f8 b0 bf 93 ac b5 3f
       0.8188303 0.29678214 -1.3825885 1.419329
000090 62 a9 d3 bd 66 94 11 bf 22 c8 2f be cb 93 75 bf
       -0.103350416 -0.56867063 -0.17166188 -0.9592864
0000a0 77 79 8d bf 6b ff 12 3f cb 6f f9 be a7 9f d7 3f
       -1.1052693 0.57420987 -0.48718104 1.6845597
0000b0 33 f6 86 bf ab 6d d5 3f ea e8 a0 3e cc 4e 14 c0
       -1.0543884 1.6674093 0.314277 -2.3173094
0000c0 d3 28 b6 bf 81 d8 05 bf 36 c2 59 bf 31 fa cf 3f
       -1.4231209 -0.52283484 -0.8506197 1.6248227
0000d0 77 5d 1d be f6 0a 11 be 36 76 e8 bf f8 3c 32 bf
       -0.15367685 -0.14164338 -1.8161075 -0.6962428
0000e0 95 fe 50 3f da fe 57 bf 96 75 61 3f e7 3c fa 3f
       0.8163846 -0.8437325 0.88070047 1.9549836
0000f0 18 df f0 3f 8e d7 04 bf b3 9d 8b be 31 1e 13 40
       1.8818083 -0.5189141 -0.27268752 2.2987177
000100 3c ac ef be 74 d7 1d bf d2 73 54 bf 64 98 80 bf
       -0.46811092 -0.6165688 -0.8298923 -1.0046506
000110 0e e1 e1 bf 98 33 91 3f 8a a0 ee bf b4 e5 d4 bf
       -1.7646806 1.134387 -1.8642743 -1.66326
000120 39 15 7b bf 1c 64 e8 3f 70 cd 2e 3e c7 31 12 c0
       -0.9807926 1.8155551 0.17070556 -2.2842882
000130 02 a1 ac 3f 1f e2 05 bf c7 e8 4f 3f c4 b2 95 3f
       1.3486636 -0.5229816 0.81214565 1.169518
000140 7b 2b b0 bf ad 9b ab 3f 94 97 a6 bf b0 25 05 bf
       -1.3763269 1.3406883 -1.3015008 -0.5201063
000150 ca 56 ae 3f 49 a1 ff bf d1 6d 3b 40 c0 68 0f 3f
       1.3620236 -1.9971095 2.9285777 0.5601921
000160 13 2b ce bf ae 64 91 3d 43 4d bb be 0d c1 bb 3f
       -1.6106895 0.07099281 -0.36582384 1.466829
000170 2b 0e 9f 3f e7 a2 94 bf 0a 67 93 3f 32 17 40 40
       1.2426199 -1.1612214 1.151582 3.0014157
000180 52 cd d6 3f 0f 60 8c bf 94 2a 0e 40 ca 52 92 3f
       1.6781409 -1.0966815 2.2213488 1.1431515
000190 36 e5 c3 bd c5 11 bc 3f 17 a4 87 3e 9b d4 d0 3f
       -0.09565203 1.4692923 0.26492378 1.6314882
0001a0 8b 9f d8 3f 58 3f b2 bf 96 25 08 3d ae 5c cd 3f
       1.6923689 -1.3925581 0.03323897 1.6043909
0001b0 a7 52 d7 bf 2d ad 03 40 17 56 d3 3c 4b 85 d0 bf
       -1.6822098 2.0574448 0.025797887 -1.6290678
0001c0 b3 57 c5 3d 65 c3 00 40 47 03 b1 be c6 80 fc bf
       0.09635868 2.011926 -0.34572813 -1.9726799
0001d0 42 77 23 bf c2 1f 0e 3f 88 94 33 c0 9b d3 d0 bf
       -0.6385385 0.5551721 -2.8059406 -1.6314577
0001e0 2e 18 ca 3e 54 12 cc 3f 97 c2 a8 3f 39 04 d3 bd
       0.39471573 1.5943093 1.3184384 -0.1030354
0001f0 21 50 fc be 74 99 79 3f a9 26 2a c0 50 3e a6 bf
       -0.49279884 0.97499776 -2.6586096 -1.2987766
000200 56 75 2c bf d5 8f dc be c4 b0 a9 bf da ee e9 3f
       -0.6736654 -0.43078485 -1.325707 1.8276017
000210 c3 83 16 3f 52 e3 ad bf ac 62 06 c0 0d bf 8e be
       0.587948 -1.3584998 -2.0997725 -0.27880135
000220 1a 43 cb 3f f8 02 de be 06 02 94 3f d8 24 22 40
       1.5879853 -0.4336164 1.1563118 2.5334988
000230 fb 9f ef be 58 d1 55 3e 2f f3 09 c0 83 5b a0 bf
       -0.46801743 0.2088064 -2.1554677 -1.2527927
000240 ce 4d d7 3f 1c 37 40 bf 31 be 5b bc d9 8b 21 40
       1.6820619 -0.7508409 -0.013412044 2.5241606
000250 27 3a 11 3f ee 3f 08 c0 94 f5 ee 3f 75 c0 b6 3f
       0.5672936 -2.128902 1.8668694 1.4277483
000260 a0 9c d6 3f 35 77 8c bf c7 a0 f2 3f ea b6 09 40
       1.6766548 -1.0973879 1.8955315 2.1517892
000270 4f 1e d9 3f 1e 5c 4d bf d2 07 b0 be d0 f9 63 3f
       1.6962374 -0.80218685 -0.34380966 0.8905306
000280 b4 07 86 bf cc 55 c2 3f b7 83 46 bf 4a 78 1f c0
       -1.0471101 1.5182433 -0.7754473 -2.4917169
000290 33 e8 4d bd 51 fd ed bf c8 64 39 3f de 92 f9 3f
       -0.05027027 -1.8592931 0.72419405 1.9497945
0002a0 1c 7a 9f bf f8 2f aa be 74 c6 c4 3f 76 ca 2e bf
       -1.245914 -0.33239722 1.5373063 -0.6827768
0002b0 09 53 b2 3f 3a 49 f2 be 60 5d 65 3f 2d 75 16 40
       1.393159 -0.47321492 0.89595604 2.3509018
0002c0 eb 6b 1a c0 8b d0 ca 3f 0e e4 0f bf dc ab 91 3f
       -2.4128368 1.5844892 -0.5620736 1.1380572
0002d0 97 ac 6b 3f 60 7e e7 bf a9 25 69 bf e6 dd d8 3f
       0.92060226 -1.8085442 -0.9107309 1.6942718
0002e0 a8 3e 24 3e 80 c7 5e 3d 60 ce ab 3e 54 53 84 bf
       0.16039526 0.054389477 0.3355589 -1.033793
0002f0 d6 70 24 bf a7 50 2a bf d0 b1 05 be ee 0f 0e bf
       -0.64234674 -0.66529316 -0.13056111 -0.55493057
000300 a7 53 80 bf 33 f6 80 bf 5d f4 99 be ab ad 9a be
       -1.0025529 -1.0075134 -0.30069247 -0.30210623
000310 30 0f 05 bf 69 cf 07 be b9 85 08 3f 3a 78 8e 3f
       -0.519763 -0.13262714 0.53329045 1.113044

fc1.bias f4 [50]
000000 1c 02 53 3f 2d f3 e4 3f c7 4e 96 be 6c 2f 85 bf
       0.82425094 1.7886711 -0.29356977 -1.0405097
000010 58 1a ab 3f 1a c6 f8 3f 2b 47 1f 3f 0d 33 86 3f
       1.3367414 1.9435456 0.6221797 1.048433
000020 fc d6 f1 3e a6 e0 44 be eb de 8a 3f f7 08 76 bf
       0.47234333 -0.19226322 1.0849279 -0.9610743
000030 38 d6 4b 3f d0 4d 81 be 6b c6 01 40 cb a6 96 3f
       0.79623747 -0.2525468 2.0277355 1.1769651
000040 d4 f6 30 be 00 71 81 bf 6a 77 b3 bf 8d 29 ea 3f
       -0.17281657 -1.011261 -1.4020817 1.829393
000050 71 ac 92 bf c9 ca b6 3f b3 c4 82 3f 06 b7 d4 3f
       -1.1458875 1.4280635 1.0216278 1.6618354
000060 70 8f 30 40 20 c0 03 3f af ae fa 3f d9 67 65 bf
       2.7587547 0.51465034 1.9584559 -0.89611584
000070 3e 24 29 bf 31 25 4a bf 09 75 ab 3e 04 98 06 bf
       -0.66070926 -0.78963 0.33487728 -0.5257571
000080 c0 b2 30 3f 5a 4f 0f 3f 5d 2a c3 3f f6 67 0f bf
       0.6902275 0.55980456 1.5247303 -0.56018007
000090 72 08 89 3f 2f 29 13 40 cd 96 ce 3f 1a 3d dd 3f
       1.0705702 2.2993886 1.6139771 1.7284272
0000a0 69 59 ca bf dd e0 ce 3f c8 da 79 bf c6 40 c1 3f
       -1.5808536 1.6162373 -0.9759946 1.5097892
0000b0 12 eb e7 3e 62 ff a2 3f 90 78 a0 be 68 44 b5 bd
       0.45296532 1.2734187 -0.31341982 -0.08850938
0000c0 a8 f3 cb bc f2 7f 1a 3f
       -0.024896458 0.6035148

fc_out.weight f4 [10, 50]
000000 74 83 19 be 91 9a 83 3f 4d 69 0d c0 77 b0 90 bf
       -0.14991552 1.0281545 -2.209552 -1.1303853
000010 05 56 57 3f 08 47 37 bd 9a 00 22 be d6 71 81 bd
       0.8411563 -0.044745475 -0.15820542 -0.063205406
000020 0b 1f 2b 3d d7 84 84 3e ce 6f ef bd ea 43 04 40
       0.04177765 0.258826 -0.11691247 2.0666451
000030 c9 e1 9a be df 13 b2 be 9a fd 87 3f cf e9 64 3f
       -0.30250385 -0.34780785 1.0624268 0.89419264
000040 44 a7 16 be 3c 8d d5 be a6 8d 13 40 79 c0 0e c0
       -0.14712244 -0.41709316 2.3055205 -2.2304976
000050 3d b7 93 be 82 f6 7e 3e bb 8f a5 be 87 46 88 3f
       -0.28850737 0.24898723 -0.3233622 1.0646523
000060 1a 4e 8b bf 78 8e e4 3c 02 49 f7 bf 26 69 aa 3f
       -1.088321 0.027899966 -1.9319155 1.3313339
000070 a8 b6 1f 40 04 c9 a8 bf 07 d7 43 3e a0 69 37 bf
       2.4955235 -1.3186345 0.19124995 -0.71645546
000080 ff ff e2 be da 66 ba be 0a 98 55 3f 24 bb cd bf
       -0.44335935 -0.36406595 0.8343512 -1.6072736
000090 66 a7 71 3f 88 07 a0 bf 32 43 db bf b7 65 0b bf
       0.94396055 -1.2502298 -1.7129881 -0.5445208
0000a0 fd 63 aa 3f f5 71 71 3f 0c b3 ae 3f 27 2d 95 3f
       1.3311764 0.9431451 1.3648391 1.1654404
0000b0 c3 c6 fd be 55 eb 9f 3e 2c ca 5a be f0 14 2f bd
       -0.49565706 0.31234232 -0.21366185 -0.042744577
0000c0 28 81 76 be 9a b2 95 be 74 6c a6 bd 52 05 52 3f
       -0.24072707 -0.29237825 -0.081261545 0.8203937
0000d0 d1 b8 57 bf 04 4d 84 bf 42 f2 d4 bd 8d fb 35 bf
       -0.8426638 -1.0336003 -0.103977695 -0.7108696
0000e0 33 93 06 bf e3 eb 01 bf c9 18 ac be 53 d7 9d bd
       -0.5256836 -0.5075056 -0.3361266 -0.077070855
0000f0 61 2d 40 be 2d 65 de 3f 06 f7 f3 be a1 b8 cf 3d
       -0.1876731 1.7374626 -0.476494 0.10142637
000100 1b e6 7c 3f fc b7 81 3f 56 39 53 be 30 7e 01 bf
       0.98788613 1.0134273 -0.2062734 -0.5058317
000110 21 03 d2 3f ea 71 86 bf 2e 16 72 be c5 76 74 bf
       1.6407205 -1.0503514 -0.23641273 -0.9549373
000120 55 e5 3a bf bb c6 76 3f 24 54 9e bf 25 d5 51 be
       -0.7300618 0.9639699 -1.2369428 -0.20491464
000130 76 9f 39 bf 9f 94 69 3f 00 89 fe 3f b4 32 97 bf
       -0.72508943 0.912424 1.9885559 -1.1812348
000140 b2 11 6d 3f ec e2 a6 bf 8f 39 14 bc 2e 81 d3 be
       0.92605126 -1.3038001 -0.009046926 -0.41309494
000150 24 5e 4a 3f e6 27 34 bf 9f 4c 61 3f 60 2e a0 bf
       0.790499 -0.7037338 0.8800754 -1.2514153
000160 8f 4d 85 bf c0 0a 85 bf e0 01 e0 3f dc 65 a2 3f
       -1.0414294 -1.0393906 1.7500572 1.2687335
000170 58 f7 86 3f 18 5d a0 3f e7 36 02 bf 51 c4 58 3f
       1.0544233 1.252841 -0.50865024 0.84674555
000180 b2 83 88 be 4a c6 1f 3e 9c dc d1 bd c8 d9 df 3c
       -0.26662976 0.15602985 -0.10247156 0.027325526
000190 53 25 da be 17 ba 91 3f 76 94 64 bf 23 72 39 bf
       -0.426066 1.1384915 -0.89289033 -0.72439784
0001a0 b0 64 de be 83 11 81 bf bb 46 0b bf 63 08 4f be
       -0.43436193 -1.0083469 -0.544048 -0.20218043
0001b0 d4 c1 ac be 3b ca 2b 3e 4d 99 e0 be e3 6a c6 3f
       -0.3374163 0.16776364 -0.4386696 1.5501369
0001c0 e3 1e 15 bf 95 a7 9b be c6 37 82 3f 84 a5 15 3f
       -0.58250254 -0.30401292 1.0173271 0.5845568
0001d0 00 67 a2 3d 90 3c 2a bf 18 06 e0 3f b5 5c 5d bf
       0.07929802 -0.6649866 1.750186 -0.86469585
0001e0 4e 3c 52 3c 2d 19 be be 96 ff 1d bf 6f af 95 3f
       0.012831761 -0.37128583 -0.6171812 1.1694163
0001f0 27 38 94 bf de d4 a5 3d 60 52 44 bf bb 61 98 3f
       -1.1579636 0.08097242 -0.76688194 1.1904825
000200 82 58 d2 3f 8c 20 69 bf a1 8f 43 3f e4 7e 1a bf
       1.643326 -0.9106529 0.76391035 -0.6034987
000210 eb 26 1c be f8 3f 11 bf c9 2f 73 3f 1d 63 64 bf
       -0.15249221 -0.56738234 0.9499479 -0.89213735
000220 ba 99 91 3f 8f b1 a0 bf 8c 0b 2f bf ed ee 45 bf
       1.1375039 -1.2554187 -0.68376994 -0.77317697
000230 06 96 d6 3f de 5c 21 3f 77 9c cf 3e 9c c1 a9 3f
       1.6764534 0.6303233 0.4054906 1.326221
000240 5e 41 c6 be 8c a5 45 3f de be 70 3e 62 aa 16 3e
       -0.38721746 0.7720573 0.2351031 0.14713433
000250 02 0f 8a be 17 e7 93 bc 04 4a a6 be c8 6b 8a 3f
       -0.26964575 -0.018054528 -0.32478344 1.0814142
000260 3c 4e 0e bf f8 e3 51 bf d7 d9 17 bf 88 72 2f bf
       -0.55588126 -0.8198848 -0.5931677 -0.68534136
000270 3b da 0b bf 76 eb 01 bf a1 35 11 bf 48 e3 a1 be
       -0.5462987 -0.5074991 -0.56722456 -0.31618714
000280 37 29 a1 be 8d 11 ca 3f 3f 74 87 be a1 b6 09 bf
       -0.31476757 1.5786606 -0.26455876 -0.53794295
000290 c1 ad 47 3f 2b f3 8d 3f b8 2f 40 bd 92 57 23 bf
       0.779995 1.1089834 -0.04692051 -0.63805497
0002a0 cc 65 ff 3f 85 f2 1f bf d0 5d b4 be d4 95 18 bf
       1.9952941 -0.6247943 -0.35227823 -0.5960362
0002b0 4f 8f 71 be 93 31 8c 3f 42 6e 6e bf 49 a8 45 be
       -0.23589824 1.0952629 -0.9313699 -0.19302477
0002c0 7e 77 71 bf c3 da 8f 3f 4a 1d 16 40 21 cf 65 bf
       -0.94322956 1.1238636 2.3455377 -0.8976918
0002d0 7e 99 30 3f 87 4b 00 bf 6d d5 83 be 42 5b 29 bf
       0.6898421 -0.50115246 -0.25748768 -0.66154873
0002e0 ba 2f 92 3f a9 bd 07 bf 1d 6b 70 3f ad 69 7a bf
       1.1420815 -0.53023773 0.9391344 -0.978175
0002f0 af ba 96 bf d6 5f 28 bf 1d 46 db 3f 12 85 77 3f
       -1.1775721 -0.65771234 1.7130772 0.96687424
000300 93 37 bb 3e 68 ed 89 3f 0d a4 23 bf df fe 56 3f
       0.36565837 1.0775576 -0.63922197 0.8398265
000310 c0 9f 7b 3d db 59 89 3e a0 86 8c 3d 0b 81 e8 be
       0.061431646 0.26826367 0.06861615 -0.45410952
000320 d9 07 01 bf 32 1d b3 3f ea 1c 1c bf 8b be 65 bf
       -0.504026 1.3993285 -0.6098162 -0.8974387
000330 dc cf 84 bf f7 ae 81 bf 9f 26 1f bf e4 55 26 bf
       -1.0375934 -1.013152 -0.62168306 -0.6497481
000340 ac 69 97 be a2 f5 76 be 3d 5f 1a bf 79 96 e5 3f
       -0.2957281 -0.24117139 -0.6030157 1.7936546
000350 6f fc d2 be 40 65 ae be a3 17 53 3f 4c d5 81 3f
       -0.41208217 -0.34061623 0.8245794 1.0143218
000360 40 20 38 3c 11 a4 5f be 27 f7 f4 3f 15 dd 0c bf
       0.011238158 -0.2183993 1.9137925 -0.55024844
000370 a9 48 0f bf 3c 0d 3b bf 3e 99 a3 be 1f 98 bc 3f
       -0.55970246 -0.7306707 -0.31952852 1.4733924
000380 eb d2 83 bf 3e 5b bb be 66 0e 1a bf ef 2e a0 3f
       -1.0298742 -0.3659305 -0.6017822 1.2514323
000390 75 ae d9 3f c8 2b f1 be 8d 97 5c 3f dc af c5 be
       1.7006365 -0.47103715 0.8616875 -0.38610733
0003a0 74 1e a4 be b7 d1 11 bf 90 79 71 3f a2 f3 cb be
       -0.32054484 -0.56960624 0.94326115 -0.39834315
0003b0 d5 ca 78 3f e2 f6 76 bf 96 b5 37 bf 18 1f 44 bf
       0.971845 -0.96470463 -0.71761453 -0.76609945
0003c0 f6 be b6 3f 12 29 6a 3f f8 2e 45 3f 67 12 74 3f
       1.4277027 0.9146892 0.77024794 0.9534058
0003d0 07 bc a9 be b1 d6 37 3f 65 4a 95 3e 16 d7 04 3e
       -0.33151266 0.7181197 0.2915832 0.12972674
0003e0 10 ed d4 bc cf b6 90 bc 36 32 06 be 25 e8 91 3f
       -0.025991946 -0.017665295 -0.13105091 1.139897
0003f0 df ee 0d bf 93 52 1f bf 85 f2 51 bf 91 b1 5d bf
       -0.55442613 -0.62235373 -0.8201068 -0.8659907

fc_out.bias f4 [10]
000000 b9 c4 9b ba 91 6e 9b bd a4 1e a1 be cf 5b cb be
       -0.001188419 -0.07589448 -0.3146869 -0.39718482
000010 b2 67 c8 be b8 ce bd be 21 3b 14 bf eb d1 1b bf
       -0.39141613 -0.37071776 -0.57902724 -0.60867184
000020 bb f3 f1 be d0 76 47 bd
       -0.47256264 -0.048697293
