models/J2_5526538.pt (torch_old, 3768 bytes, 4 tensors)

fc1.weight f4 [50, 4]
00000000: 150a 98bf 56bf bb3e 594b bfbd 1e52 763f
00000010: c246 46bf 1259 bb3f 09f0 0fbf af4d 15c0
00000020: ed98 b33f cc6d 96bf 2a6e 153f b9e7 4840
00000030: b6ba 68bf ffb5 b0bf f0e4 05c0 66f6 b63f
00000040: 2394 eebe 4a41 a93e dd32 f5bf d433 4bbf
00000050: 74a9 e23f a7b1 c4bf e5ae 1640 fa45 ba3f
00000060: 31d7 a6bf 8444 773f 36dc f33d 7c71 703f
00000070: 6deb 793f 8a17 a3bf 6788 7c3f 3924 3640
00000080: f7cc 0cbf cb87 fb3e 636e 28bf 485f 80bf
00000090: b1d0 cc3f e734 b3bf fb85 e23f beac 1640
000000a0: 8070 db3f 3daf 87bf 0f6d d53d 4720 de3f
000000b0: 798a f73f 2773 10c0 ab5f e03f 24df e23f
000000c0: 77bf f03f 5424 e0be 35ac 6bbe 2017 1b40
000000d0: c75c 65be 4791 a53f 1124 df3e 4754 d63f
000000e0: a780 6bbe 75a4 0c40 47b7 443e e349 fcbf
000000f0: 6b39 af3f 4aa8 14bf 823f 2b3f 7937 2040
00000100: f688 bdbf 6977 d1bc 03e7 86be e928 a6bf
00000110: 99d5 663f 59bc bfbf c27a 6f3f 4414 4d40
00000120: acf8 dbbf 83d5 0f3f 92e7 7abc 85d1 eebf
00000130: 04e6 b4be aa45 09bf ff69 6b3f db82 873f
00000140: 62a9 b2bf 2258 543e 12e8 46be ebf9 9bbf
00000150: 9c27 b13f d8d4 05bf 8919 453f f2c1 883f
00000160: 5509 d4be a69c 1e3f 922d edbf 4c45 9cbf
00000170: bf0c ed3f 5ed2 16c0 0f60 d33f 1a93 9b3f
00000180: 86dd 51be bca9 9a3f 700b 863f c768 00bf
00000190: 5c84 853f c366 11c0 4a2a 7bbe 5c3c 8d3f
000001a0: b79d de3d 8218 103f 8227 b8bf a007 dd3f
000001b0: 04fd 933d eb88 033f 7b13 04c0 c1d8 fb3f
000001c0: bcd6 923f 9670 9ebf 1e55 9cbf 6eed 193e
000001d0: fb4e 94bf c60f 093f b603 603f 2cc1 22bf
000001e0: 8474 423f f820 20be 35eb c6bf 8790 cc3e
000001f0: 1125 68bf 9cb7 203f 64a6 e9be 6254 e73f
00000200: 2448 8fbf 8c81 ba3f 5b32 19c0 ec28 82bf
00000210: 3721 0dbf feab aa3f 3d07 e9be a5c9 d7bf
00000220: 75b6 c7bf 880a b73e f155 dabe 91eb b93f
00000230: 0d9c 0abf cf03 3f3f 1063 08c0 350d 7fbf
00000240: 317c 013f 00ac 08bd ef45 533f f174 ac3f
00000250: 5af9 62bf 8cf6 56bf ce8a cbbf ea5c dc3e
00000260: 4ebd 63bf 8c89 b03f 1711 073f 2c92 efbf
00000270: ccfc f1bf fed9 a73f ce5a 563e ed54 253f
00000280: e64a a63e 005d c7bf b253 333f 1477 0b40
00000290: 9fdd db3f 513b 45bf 985a e2bc 0c3e 2840
000002a0: 3e1c a13f 8417 6abf 8bdc 4340 83fa 8f3f
000002b0: a607 993f 9611 9fbf aa49 ad3e 6658 4140
000002c0: 1b31 45bf 5eb5 403e 123c 1cc0 38ed 9abf
000002d0: 6882 bbbf 5180 0e3f 1994 a63f 6779 14be
000002e0: e5e3 7bbf 3a25 9b3e b8b7 2ec0 15d1 b4bf
000002f0: a4b3 19be f5a3 0e3f dfd7 10c0 5818 a7bf
00000300: eb2c d43f 572d 4abf 4cfa e13f 1c5d d23f
00000310: 32c4 8e3d 5b2a bcbe fb9e e0bf 9206 783f
-1.1878077 0.36669415 -0.09340543 0.9621905 -0.7745172 1.4636557 -0.5622564 -2.3328664
1.4031044 -1.1752257 0.5837122 3.1391432 -0.909099 -1.3805541 -2.0920982 1.4293945
-0.46597394 0.33057624 -1.9156147 -0.7937596 1.7707963 -1.5366715 2.3544247 1.4552605
-1.3034421 0.9658892 0.11907236 0.93923163 0.97624856 -1.2741559 0.98645633 2.8459609
-0.5500025 0.4912704 -0.65793437 -1.0029078 1.6001188 -1.400052 1.7697138 2.3542933
1.7143707 -1.0600353 0.10421192 1.73536 1.9339134 -2.2570283 1.7529196 1.7724347
1.880843 -0.43777716 -0.2301491 2.4232864 -0.22398673 1.293496 0.43582204 1.674447
-0.22998296 2.1975377 0.1921054 -1.9710048 1.3689398 -0.5806929 0.6689378 2.5033858
-1.4807422 -0.025569635 -0.26348123 -1.2981235 0.90169674 -1.4979354 0.9354669 3.204362
-1.7185264 0.5618517 -0.015314 -1.865769 -0.35331738 -0.53621924 0.9195861 1.0586809
-1.3957942 0.20736745 -0.19424465 -1.2185644 1.3840213 -0.522779 0.7699209 1.0684187
-0.4141337 0.61957777 -1.8529532 -1.2208648 1.8519515 -2.3565898 1.651369 1.2154267
-0.2049466 1.2083049 1.047224 -0.5015988 1.0431018 -2.271897 -0.24527851 1.1034045
0.108699255 0.56287396 -1.4387057 1.7267952 0.07225993 0.51380795 -2.063689 1.9675523
1.1471782 -1.2378109 -1.2213476 0.15031978 -1.1586603 0.53539693 0.8750566 -0.63576007
0.7595904 -0.15637577 -1.554053 0.39954016 -0.9068156 0.62780166 -0.45634758 1.8072627
-1.119389 1.4570785 -2.3936985 -1.0168738 -0.55128807 1.3333738 -0.45513335 -1.6858412
-1.5602556 0.35750222 -0.42643693 1.4525014 -0.54144365 0.74615186 -2.1310463 -0.9962953
0.50580126 -0.033367157 0.82528585 1.3473188 -0.8866173 -0.8396995 -1.5901735 0.43039638
-0.8896073 1.3791976 0.5276045 -1.8716483 -1.8905272 1.3113401 0.20933077 0.6458271
0.32479018 -1.5575256 0.70049584 2.179143 1.7177008 -0.77043635 -0.02763109 2.628787
1.2586744 -0.9144213 3.0603359 1.1248325 1.1955459 -1.2427242 0.33845264 3.0210204
-0.77028054 0.18819186 -2.4411664 -1.2103643 -1.4649172 0.55664545 1.3013946 -0.14499436
-0.98394614 0.3030184 -2.7299633 -1.4126307 -0.15009934 0.5571893 -2.2631757 -1.3054304
1.6576208 -0.78975433 1.765451 1.6434665 0.06971015 -0.36751065 -1.7548517 0.96885026

fc1.bias f4 [50]
00000000: ca9e 453f 20ae a8bf 02e6 9e3f 28ca da3f
00000010: e48a acbf 2849 2e40 d6d1 4f3f 5a99 8c3f
00000020: 319a 82bf d566 ed3f e09e da3f 3dc7 5540
00000030: 7358 483f cdf2 c63e 20b2 d6bf b287 923f
00000040: e1c4 77bf 0ffd 773f d4c7 e8bf 7a07 1e3f
00000050: 1c65 b4bf 020b 0e40 5f5a 05bf 2e6b ef3f
00000060: d4c9 2cbf e579 1240 200d 2d3f 124f ab3f
00000070: d8e1 f03f 40e9 26bf 5b82 a23f 495a a03f
00000080: 6c3c 88be 776b dcbf 5577 b43f a7b9 40bf
00000090: f01f 523f fe47 003f 9b2a 74bf ca06 563f
000000a0: 2bb9 d33f bcbd e73f 61e8 db3f 7079 6f3f
000000b0: 5e62 84bf 5eb6 6ebf 2d4b 3bbf 0b0f b6be
000000c0: f3ca e53f 16de 393f
0.7719542 -1.3178139 1.2413943 1.7092943 -1.3479886 2.723215 0.8117956 1.0984299
-1.0203305 1.8547007 1.7079735 3.3402855 0.7825996 0.38857117 -1.677311 1.1447661
-0.9678479 0.9687051 -1.8185983 0.6173016 -1.4093356 2.2194219 -0.5209102 1.8704584
-0.67495465 2.2886899 0.6759815 1.3383505 1.8818922 -0.6519966 1.2696031 1.2527553
-0.26608598 -1.7220296 1.4098917 -0.75283283 0.8207998 0.5010985 -0.9537751 0.8360411
1.6540884 1.8104777 1.7180291 0.93544674 -1.0342519 -0.9324702 -0.73161584 -0.35558352
1.795256 0.726045

fc_out.weight f4 [10, 50]
00000000: de9b 2abf eacf 2140 4f68 903f 2b60 dbbe
00000010: 6dac 82bf f8ad 3ebf 1fbc 71be a819 243f
00000020: f2c4 e03b 424b c6bf 0728 e3bf 1341 e6be
00000030: 5e04 963e 80dc 663a 4651 0640 ee8b 943f
00000040: e5e6 c7be 20d3 5a3f 3f87 1240 3b36 373f
00000050: 493e 41bf e9c5 f6bf 2121 2abf 4e79 663f
00000060: 1119 1bbf 07e7 b7be 456b 10be 5836 29ba
00000070: f5b0 d2be 5bd4 be3d a791 10be aecf b0bd
00000080: 9ae4 07be 7919 3040 f4ea 91be d9e1 94bc
00000090: b56b 203f 4d91 bfbe 35c5 cc3f 01ee 08bf
000000a0: df93 8a3f 7a76 973f 585c 93bf 37d7 9d3f
000000b0: 3587 90bf ebde 1f3f e1fc 1dbf f95a a7bf
000000c0: d072 8abf 4c3e 1ebf 6ba7 25be 519d 0340
000000d0: 7f66 ba3f 13f0 19bf 7b22 36bf f318 6abf
000000e0: 69ed 12bf 2838 033f c35c b23d 3e49 80bf
000000f0: a6f9 47bf defc 8dbf 87a4 0e3f f413 37be
00000100: bdde f03f 787a 933f 97b3 24bf 28bd 763f
00000110: 7d56 d73f 32dc d73d 0d4a f5be a4b3 34bf
00000120: 5660 d1be 3dcd f33c a222 0c3c 2ffd 8dbf
00000130: 0169 e0be 6b4d 8abe 8df2 27bf 8c57 1c3f
00000140: 7369 c9bd c1ac 06bf 3d25 e6be 5bcc ed3f
00000150: 52b0 82be 9278 8bbe 095e a13e 572f b5be
00000160: af42 cf3f 4c0c 84be 4b74 a83f 8d5b 9d3f
00000170: dd1a 3bbf 03c0 aa3f 084f 4dbf b2fa 2a3f
00000180: 7292 15bf bf41 34be 9237 70bf f28d 0bbf
00000190: d134 90be 770c 0a40 ac40 8d3f a806 02bf
000001a0: 65a3 bcbe a9d8 1dbf 80cc c3be b7dd 2a3f
000001b0: 8b8a 5fbe 531e 7cbf 7f18 debe efb7 92bf
000001c0: 2a48 743f c879 36be d822 ef3f 1c64 893f
000001d0: 0217 87be cbed 843f 56b5 0540 b3b7 213f
000001e0: 49e6 23bf 28ac 68bf c703 70be 3caf 87be
000001f0: eeea 9b3c 888a 5abf ee00 b4be db37 6dbe
00000200: 7e40 28bf 497a 1f3f cde0 9bbe ac42 e7be
00000210: 2961 08bf 7899 f73f 620c e8be 101b a4be
00000220: 3061 5c3e 687f c0be e32e b73f b344 9dbe
00000230: 4f6b 843f 7805 8c3f ba2a 2abf c21b a33f
00000240: 1c72 24bf 5021 9f3e 7832 f8be 3b7f 21bf
00000250: 6e4a 8fbf 7cb5 31bf 1b9e abbe 4384 0940
00000260: 3319 a33f 833b 00bf 4d1b 9dbe fef0 36bf
00000270: cb44 febd 2f02 3f3f 4cfd 81be bf3a 89bf
00000280: 2ef1 36bf b53d 79bf 8b7c 823f ebfc c4be
00000290: 897f f53f 5640 a53f cd35 00bf 0c2d 9d3f
000002a0: 534c e33f e44a 053f be6a afbe da4e 57bf
000002b0: 035e 29be ce80 05bf bb62 223e ac1e 47bf
000002c0: a71d 0dbf f42f 3cbe eeb0 16bf 0d40 253f
000002d0: 2907 cfbe 7b94 02bf 8843 e8be f3a3 0040
000002e0: 9522 b1be 4bfb ffbe 9e72 153e 6d44 c9be
000002f0: 7bea de3f aaac 10bf d3b2 9d3f db2c 743f
00000300: ab4b 4dbf 88bb 873f de50 16bf a1d7 3e3f
00000310: 06d0 07bf f613 87be 8841 7cbf 0016 39bf
00000320: 0971 f1be bc8a 1e40 02a8 8e3f 79d9 02bf
00000330: b9e9 3abe 252c 4dbf 7f0e bcbe 58be 6e3f
00000340: c6fd 93bd 789b 4bbf d136 43be 4372 96bf
00000350: a572 693f 2e19 a7be d173 eb3f bc29 863f
00000360: 143f 80be 961b 963f fe25 0640 24f4 fc3c
00000370: 375c 20bf 3f8c c8be 5adb 8ebe 4160 3bbf
00000380: 0ef2 87bd b0cd 54bf 96a9 22be f147 fabe
00000390: 9a0f 17bf 86a8 3a3f 04b1 d4be 4b58 abbe
000003a0: 4d54 18bf 7930 1440 772c e5be a7b8 e0be
000003b0: 5468 193f 735d bebe fbce b53f fa50 03bf
000003c0: 998c 3d3f 9553 9c3f 19a6 26bf 4cea 4d3f
000003d0: 8584 38bf bcd7 5b3f aef0 acbe 2bd0 ffbd
000003e0: 9c45 75bf 6f04 36bf 1319 a1bd a7a9 4140
000003f0: a474 633f bdc2 81be a8f6 08bf 761b 6ebf
-0.66644084 2.528315 1.1281832 -0.42846808 -1.020887 -0.74484205 -0.23606919 0.6410165
0.006859415 -1.5491717 -1.774659 -0.44971523 0.29300207 0.0008806661 2.0987105 1.1605203
-0.39043346 0.854784 2.2895048 0.71567124 -0.75485665 -1.9279147 -0.664568 0.90028846
-0.60585123 -0.35918447 -0.1410342 -0.0006454936 -0.41150633 0.09317847 -0.14118062 -0.08633362
-0.13270798 2.7515547 -0.28499568 -0.018174099 0.6266435 -0.37415543 1.5997683 -0.53488165
1.0826377 1.1833031 -1.1512556 1.2331303 -1.1291262 0.6244952 -0.6171399 -1.3074638
-1.0816288 -0.6181381 -0.16177146 2.0564768 1.4562529 -0.6013195 -0.71146363 -0.9144432
-0.5739351 0.5125756 0.08709099 -1.0022352 -0.7811531 -1.1092794 0.557198 -0.17878705
1.8817974 1.152175 -0.6433653 0.9638238 1.6823269 0.10540046 -0.4790806 -0.7058661
-0.4089381 0.029760951 0.008553179 -1.109289 -0.43830112 -0.2701219 -0.6560448 0.61071086
-0.09834566 -0.5260735 -0.44950286 1.8577989 -0.25525147 -0.27240425 0.31517056 -0.3538768
1.6192225 -0.25790632 1.316049 1.2293564 -0.73087865 1.3339847 -0.8019872 0.6678878
-0.5842658 -0.17603205 -0.93834794 -0.54513466 -0.28165296 2.1570108 1.1035361 -0.50791407
-0.3684341 -0.6165872 -0.3824196 0.6674456 -0.21830194 -0.9848377 -0.43378064 -1.1462382
0.95422614 -0.17819893 1.8682508 1.0733676 -0.2638474 1.0385069 2.0891929 0.6317093
-0.6402326 -0.9088769 -0.23438941 -0.2650088 0.019032922 -0.8536763 -0.3515696 -0.23165838
-0.6572341 0.6229597 -0.30444947 -0.45168054 -0.53273255 1.934371 -0.45321947 -0.32051897
0.21521449 -0.37597203 1.4311184 -0.30716476 1.0345248 1.0939169 -0.66471446 1.2742846
-0.6423662 0.31080103 -0.48476005 -0.63084763 -1.1194589 -0.6941755 -0.33519062 2.1486976
1.2742065 -0.5009081 -0.3068489 -0.71461475 -0.12415465 0.74612707 -0.25388563 -1.0721053
-0.7146176 -0.9735978 1.0194257 -0.3847421 1.9179546 1.2910259 -0.50082093 1.2279372
1.7757667 0.520674 -0.34261125 -0.8410469 -0.16539769 -0.52149665 0.15857975 -0.77781177
-0.5512337 -0.18377668 -0.58863723 0.6455086 -0.4043515 -0.51007813 -0.45364022 2.0100067
-0.34596696 -0.4999641 0.14594504 -0.39310017 1.7415308 -0.56513464 1.2320198 0.95380944
-0.80193585 1.0604105 -0.58717144 0.74547774 -0.53051794 -0.26382416 -0.9853749 -0.72299194
-0.4715655 2.4772177 1.1145022 -0.51113087 -0.1825322 -0.80145484 -0.3672981 0.9325919
-0.07226138 -0.795341 -0.1906388 -1.175362 0.9119056 -0.32636398 1.8394719 1.0481486
-0.25048125 1.1727169 2.0960689 0.030878134 -0.6264071 -0.391695 -0.27901727 -0.73193747
-0.06637965 -0.83126354 -0.15885004 -0.48883012 -0.5900818 0.72913396 -0.41541302 -0.334658
-0.5950363 2.3154585 -0.44760486 -0.4389088 0.5992482 -0.3718067 1.420379 -0.51295435
0.7404266 1.2213007 -0.65097195 0.80435634 -0.7207721 0.8587606 -0.33777374 -0.12490877
-0.9580934 -0.71100515 -0.07866111 3.0259798 0.88849854 -0.25343886 -0.5350137 -0.9301065

fc_out.bias f4 [10]
00000000: 6e4d 3dbe 0eb5 aabe 3b2e 94be 6d3d dbbe
00000010: cbbd d9be d25d f6be aa4b a7be 5526 21bf
00000020: cf43 b6be 771b adbe
-0.18486568 -0.3334126 -0.2894152 -0.42820302 -0.42527613 -0.48118454 -0.32674915 -0.62949115
-0.3559861 -0.33810017
