models/J3_271828.pt (torch_old, 3768 bytes, 4 tensors)

fc1.weight f4 [50, 4]
-0.6040444 0.3700093 0.48338383 1.1934688 0.63054246 1.6037712 0.44583812 0.08782375
1.8459345 -0.6865595 1.501559 1.6838483 -0.6520572 0.43784106 -2.216782 -1.003029
0.28941658 -0.3364708 0.92244947 -1.2933805 1.9126894 -1.84216 0.58596003 1.4794469
-1.0205834 -0.9330488 -1.4651264 1.864858 -0.8819573 -1.2715777 -1.506506 1.6685419
0.7534601 0.17599776 -1.7754334 1.8658341 -0.102999724 -0.56912464 -0.17068185 -0.95896256
-0.96239865 0.41164124 -0.23675238 1.5355777 -0.99362075 0.5667464 -2.1543884 -0.9547399
-1.1860656 -0.7860561 -1.0429411 1.5587156 -0.08413997 -0.3082886 -1.6444365 0.38976273
0.7729297 -0.80286944 0.72858685 2.1403987 1.9574449 -0.59173054 0.19383587 2.79651
-0.46811092 -0.6165688 -0.8298923 -1.0046506 -1.5037512 0.82451284 -2.1208694 -0.92342275
-1.0242814 0.8263014 -1.8720179 -0.836736 1.4296777 -0.6178947 1.0457349 1.2299043
-0.9489657 0.87502694 -0.45269868 -0.5237923 1.67617 -2.298316 1.9101502 1.3190832
-1.374131 -0.19599932 -0.37714505 1.3812357 1.150486 -1.0675738 1.0760527 3.1472156
1.5463454 -0.9606002 2.153988 0.99856323 0.06551347 1.3129208 0.4723756 1.6141412
1.710918 -1.4194196 -0.058392577 1.5607313 -1.3479352 1.6324223 -0.6559428 -2.7471616
0.0006828718 1.1013954 -1.6717465 -0.9450152 -0.5304089 0.3379216 -2.3361187 -1.2395159
-0.279993 2.489065 0.06635714 -2.2795122 0.12095587 0.33019125 -2.1009932 -0.35114333
-0.33166584 -0.88047963 -1.7366241 1.8690628 0.7907113 -1.5616705 0.22523467 -2.476158
1.438455 -0.25963143 1.0318745 2.5901086 -0.44502255 0.077443175 -2.013583 -1.0821432
1.8567641 -0.93487555 -0.030612972 2.9906106 0.32840085 -1.8893492 1.7096579 1.406475
1.44787 -0.86495966 2.2685094 2.0109687 1.8723817 -0.9737116 -0.37900454 1.0392352
-0.7962337 0.35162163 -2.3097358 -1.315013 -0.115799375 -1.7969756 0.67648226 2.252045
-2.3217938 1.1823027 0.63082975 -1.7349887 1.5681444 -0.65396005 0.66349125 2.5717618
-2.3349345 1.4816445 0.32350606 0.93602216 0.84538007 -1.7383561 0.18772334 2.4971266
0.16039526 0.054389477 0.3355589 -1.033793 -0.64234674 -0.66529316 -0.13056111 -0.55493057
-1.0025529 -1.0075134 -0.30069247 -0.30210623 -0.8989452 0.08254632 0.38438448 1.2104186
00000000: a7a2 1abf dc71 bd3e 167e f73e 96c3 983f
00000010: 3b6b 213f 6048 cd3f e544 e43e f0dc b33d
00000020: 9547 ec3f 5dc2 2fbf 1633 c03f 5788 d73f
00000030: 38ed 26bf b42c e03e c2df 0dc0 4163 80bf
00000040: 692e 943e e745 acbe a625 6c3f 7e8d a5bf
00000050: 02d3 f43f e6cb ebbf 7a01 163f 845e bd3f
00000060: 7aa2 82bf 49dc 6ebf 4389 bbbf abb3 ee3f
00000070: f4c7 61bf 0fc3 a2bf 30d5 c0bf c892 d53f
00000080: c3e2 403f c238 343e 6741 e3bf a7d3 ee3f
00000090: 85f1 d2bd 27b2 11bf 39c7 2ebe 927e 75bf
000000a0: c25f 76bf a4c2 d23e 376f 72be cf8d c43f
000000b0: ee5d 7ebf 4b16 113f 80e1 09c0 d669 74bf
000000c0: ffd0 97bf f93a 49bf 187f 85bf fe83 c73f
000000d0: 9451 acbd 01d8 9dbe e57c d2bf fb8e c73e
000000e0: b9de 453f da88 4dbf ab84 3a3f 4bfc 0840
000000f0: 8e8d fa3f a77b 17bf e97c 463e 05fa 3240
00000100: 3cac efbe 74d7 1dbf d273 54bf 6498 80bf
00000110: eb7a c0bf 4613 533f 53bc 07c0 6f65 6cbf
00000120: a71b 83bf 7d88 533f 489e efbf 5534 56bf
00000130: aeff b63f 592e 1ebf a4da 853f 816d 9d3f
00000140: 6bef 72bf c401 603f 1fc8 e7be 4117 06bf
00000150: bd8c d63f 9c17 13c0 cd7f f43f b8d7 a83f
00000160: 86e3 afbf 0cb4 48be 2819 c1be 55cc b03f
00000170: 2043 933f 42a6 88bf 18bc 893f fb6b 4940
00000180: a5ee c53f e5e9 75bf f0da 0940 d7a1 7f3f
00000190: ed2b 863d ca0d a83f 37db f13e 2e9c ce3f
000001a0: 5cff da3f 8baf b5bf 0e2d 6fbd 0bc6 c73f
000001b0: 2489 acbf 37f3 d03f deeb 27bf 7fd1 2fc0
000001c0: c002 333a 86fa 8c3f cafb d5bf 84ec 71bf
000001d0: e1c8 07bf 0f04 ad3e f882 15c0 75a8 9ebf
000001e0: 3e5b 8fbe d74c 1f40 41e6 873d 87e3 11c0
000001f0: b6b7 f73d d40e a93e ac76 06c0 0fc9 b3be
00000200: 1bd0 a9be 1d67 61bf b349 debf 733d ef3f
00000210: 0e6c 4a3f d2e4 c7bf eba3 663e 5f79 1ec0
00000220: 4b1f b83f 69ee 84be 7714 843f 57c4 2540
00000230: ffd9 e3be 879a 9e3d 8bde 00c0 ab83 8abf
00000240: 72aa ed3f 0154 6fbf 0ec8 fabc 2a66 3f40
00000250: 2824 a83e 32d6 f1bf 12d6 da3f 5f07 b43f
00000260: ce53 b93f ff6d 5dbf 422f 1140 b6b3 0040
00000270: 34aa ef3f 2a45 79bf e20c c2be a905 853f
00000280: f9d5 4bbf c007 b43e b6d2 13c0 5952 a8bf
00000290: 3928 edbd 4c03 e6bf f12d 2d3f 8121 1040
000002a0: 4598 14c0 b255 973f 0f7e 213f 1c14 debf
000002b0: f5b8 c83f ed69 27bf 90da 293f bf97 2440
000002c0: 916f 15c0 87a6 bd3f 96a2 a53e 269f 6f3f
000002d0: d46a 583f 7482 debf 8c3a 403e ecd0 1f40
000002e0: a83e 243e 80c7 5e3d 60ce ab3e 5453 84bf
000002f0: d670 24bf a750 2abf d0b1 05be ee0f 0ebf
00000300: a753 80bf 33f6 80bf 5df4 99be abad 9abe
00000310: 4621 66bf 0c0e a93d 0bce c43e ffee 9a3f

fc1.bias f4 [50]
0.7091433 -0.062097177 2.267429 -0.64417946 -1.4551123 1.7066025 0.7171456 0.80029154
0.8849945 -0.19193535 0.8124367 0.20286457 0.7010953 0.7992895 2.1746852 1.6315538
-0.17281657 -0.25163513 -0.275473 2.0562074 -1.0943547 2.2546806 0.81877303 1.7631401
2.638656 0.5255656 2.0016859 -2.0292256 0.01963236 -0.39452186 -1.6621544 0.4026543
0.67867655 -1.8839985 1.5405809 -0.36977264 1.5256138 2.34911 1.5591958 1.9543395
-0.72120374 1.8986462 -1.8075483 1.701463 0.27679822 2.0437217 -0.31341982 -0.08850938
-0.024896458 0.7046536
00000000: 6a8a 353f 9c59 7ebd 8f1d 1140 f2e8 24bf
00000010: 1f41 babf f371 da3f db96 373f e8df 4c3f
00000020: 008f 623f b38a 44be dafb 4f3f bbbb 4f3e
00000030: fb7a 333f 3d9e 4c3f 0b2e 0b40 c1d6 d03f
00000040: d4f6 30be 52d6 80be cc0a 8dbe e798 0340
00000050: d113 8cbf b04c 1040 1c9b 513f 93ae e13f
00000060: bddf 2840 788b 063f 9f1b 0040 d5de 01c0
00000070: 0bd4 a03c c5fe c9be 7ac1 d4bf b428 ce3e
00000080: bfbd 2d3f dd26 f1bf c131 c53f d752 bdbe
00000090: 5047 c33f d157 1640 ba93 c73f cc27 fa3f
000000a0: cfa0 38bf d706 f33f be5d e7bf 8ac9 d93f
000000b0: 7fb8 8d3e 56cc 0240 9078 a0be 6844 b5bd
000000c0: a8f3 cbbc 2e64 343f

fc_out.weight f4 [10, 50]
-0.16669835 0.86962306 -1.2444203 -0.8288432 -0.61576617 0.50119513 -0.17869401 -0.23112673
-0.2827479 0.25898686 -0.15981475 0.2284263 -0.41787738 -0.39335915 1.1732193 1.0372475
-0.14712244 -0.38473135 -0.098565586 -2.079585 0.29573563 0.61950034 -0.34192076 1.0353568
-0.84455585 0.0011722052 -1.8291773 1.3537991 -0.17544597 -0.8435362 2.4132133 -0.22946428
-0.62361467 -0.9018807 0.78203624 -0.9245685 1.0616602 -0.88735217 -1.6188775 -0.9444762
-1.1503785 1.2399455 1.208288 1.3904506 -0.566867 0.6773518 -0.21366185 -0.042744577
-0.24072707 -0.43189684 -0.09304049 0.7419489 -1.3071582 -0.3969882 -0.7179254 -0.5454962
-0.4928919 -0.5888025 -0.5603161 -0.0771488 -0.21011129 -0.026048915 -0.51296467 -0.39456162
1.0221529 1.1198775 -0.2062734 -0.44385278 -0.4146078 -1.1606728 0.16184464 0.050289318
-0.7101116 0.955519 -1.0813426 -0.24425305 -0.68404293 0.982382 -0.21527566 -0.57970405
2.006586 -0.24651062 -0.12615144 -1.1797633 0.72344774 -0.13755064 0.98672205 -1.0637425
-0.9048518 -1.1919656 -0.06119639 1.3901492 1.9636219 1.3699292 -0.4906582 1.0318725
-0.26662976 0.15602985 -0.10247156 -0.060524404 -0.402475 0.8304598 -1.1769863 -0.55710834
-0.5147658 -0.69926476 -0.5018066 -0.41190395 -0.54636 0.16785672 -0.42392483 -0.10953332
-0.7047897 -0.5364531 1.0706216 0.86086684 0.07929802 -0.3062406 -0.041017726 -1.0772136
0.25728315 -0.33158395 -0.60517114 1.1591182 -1.0708699 0.13381454 -0.8377574 1.1002067
-0.7573555 -0.61766005 2.075964 -0.2845672 -0.337407 -1.4841526 0.81891596 -0.7692795
1.3992386 -1.18331 -0.6750502 -0.7731913 -0.1832996 0.81975055 1.7256229 1.4529184
-0.44625857 1.0949129 0.2351031 0.14713433 -0.26964575 -0.12762 -0.32671496 0.92353415
-1.0784812 -0.6398207 -0.8827734 -0.51599896 -0.5480407 -0.5327177 -0.6858645 -0.31614798
-0.2925894 -0.35651043 -0.23620854 -0.39566132 0.77201974 1.208845 -0.04692051 -0.3344484
-0.101765744 -0.7251371 0.035539 -0.5885405 -0.21561149 1.0552723 -0.7377508 -0.19972037
-0.921951 1.3858804 -0.18458475 -0.5976087 2.4757986 -0.19576356 -0.26427546 -1.3462442
1.0896993 -0.39908874 1.0605341 -0.8247729 -1.0802199 -0.7501585 -0.21811879 1.0504674
1.9172174 1.1281841 -0.67348355 0.9299932 0.061431646 0.26826367 0.06861615 -0.5271455
-0.5055549 1.0605277 -0.939547 -0.7612803 -1.1691812 -0.84989244 -0.6046597 -0.7116978
-0.38606817 -0.2410681 -0.56805605 -0.14367379 -0.3628486 -0.46880504 0.7094918 1.1868263
0.011238158 -0.119624816 -0.19973788 -0.71470636 -0.32798508 -0.65641475 -0.3263671 1.4164394
-0.8901979 -0.3834434 -0.6525496 1.553402 -0.85107064 -0.242026 2.0287611 -0.02087287
-0.32667542 -1.3896083 0.86505264 -0.31589502 1.1008886 -0.8557437 -0.63714135 -0.8565754
-0.5384451 0.96515757 1.905624 0.908812 -0.36174673 0.9208744 0.2915832 0.12972674
-0.025991946 -0.06772562 -0.098311245 0.8113172 -1.04754 -0.33246893 -0.63155025 -0.83647525
00000000: f9b2 2abe 9e9f 5e3f 2a49 9fbf 112f 54bf
00000010: daa2 1dbf 534e 003f 90fb 36be 7cac 6cbe
00000020: 55c4 90be ed99 843e 7aa6 23be 96e8 693e
00000030: 06f4 d5be 5f66 c9be 0d2c 963f 87c4 843f
00000040: 44a7 16be 82fb c4be c1dc c9bd ec17 05c0
00000050: a96a 973e 9397 1e3f 3d10 afbe 9286 843f
00000060: d034 58bf aea4 993a 7b22 eabf 4a49 ad3f
00000070: 1ca8 33be fdf1 57bf 1672 1a40 aff8 6abe
00000080: 36a5 1fbf a7e1 66bf 8733 483f 85b0 6cbf
00000090: 7be4 873f 8329 63bf 6137 cfbf 31c9 71bf
000000a0: 9a3f 93bf 89b6 9e3f 2ea9 9a3f 49fa b13f
000000b0: 321e 11bf ed66 2d3f 2cca 5abe f014 2fbd
000000c0: 2881 76be 9521 ddbe 038c bebd 5df0 3d3f
000000d0: f650 a7bf 0a42 cbbe f6c9 37bf a4a5 0bbf
000000e0: 545c fcbe c3bb 16bf e070 0fbf 3100 9ebd
000000f0: 6a27 57be 8964 d5bc a751 03bf fb03 cabe
00000100: e8d5 823f 2558 8f3f 5639 53be ac40 e3be
00000110: 7947 d4be ed90 94bf 9aba 253e 2cfc 4d3d
00000120: e0c9 35bf e59c 743f 6f69 8abf 791d 7abe
00000130: 701d 2fbf 637d 7b3f 3971 5cbe 7c67 14bf
00000140: e86b 0040 486d 7cbe d82d 01be 7c02 97bf
00000150: df33 393f 13da 0cbe d199 7c3f b728 88bf
00000160: 5ea4 67bf 5492 98bf 11a9 7abd 69f0 b13f
00000170: f657 fb3f d759 af3f 8d37 fbbe 6614 843f
00000180: b283 88be 4ac6 1f3e 9cdc d1bd 70e8 77bd
00000190: 3411 cebe 0399 543f 7da7 96bf a79e 0ebf
000001a0: b1c7 03bf 0403 33bf 6676 00bf 13e5 d2be
000001b0: 40de 0bbf a2e2 2b3e ad0c d9be 0153 e0bd
000001c0: 196d 34bf fe54 09bf 210a 893f c561 5c3f
000001d0: 0067 a23d 91cb 9cbe 3402 28bd 23e2 89bf
000001e0: 9eba 833e 5fc5 a9be 7fec 1abf fc5d 943f
000001f0: 4412 89bf ae06 093e 4577 56bf 93d3 8c3f
00000200: 0de2 41bf f81e 1ebf 98dc 0440 cbb2 91be
00000210: 9cc0 acbe b6f8 bdbf 7aa4 513f 80ef 44bf
00000220: 401a b33f b476 97bf 17d0 2cbf ddef 45bf
00000230: e4b2 3bbe 2cdb 513f 36e1 dc3f 3bf9 b93f
00000240: 017c e4be 1b26 8c3f debe 703e 62aa 163e
00000250: 020f 8abe d1ae 02be 2f47 a7be bc6c 6c3f
00000260: ac0b 8abf 4acb 23bf 70fd 61bf 8218 04bf
00000270: 654c 0cbf 3060 08bf d194 2fbf 26de a1be
00000280: 47ce 95be 8988 b6be a7e0 71be 1f94 cabe
00000290: 16a3 453f 6fbb 9a3f b82f 40bd d23c abbe
000002a0: 8f6a d0bd 96a2 39bf 5891 113d 97aa 16bf
000002b0: 42c9 5cbe 2a13 873f 3ddd 3cbf 7f83 4cbe
000002c0: fb04 6cbf 8764 b13f c903 3dbe e2fc 18bf
000002d0: 7c73 1e40 3e76 48be 1d4f 87be bb51 acbf
000002e0: 447b 8b3f 5c55 ccbe 95bf 873f 5124 53bf
000002f0: a544 8abf 630a 40bf 885a 5fbe b775 863f
00000300: 6167 f53f 5668 903f 6b69 2cbf 0914 6e3f
00000310: c09f 7b3d db59 893e a086 8c3d 02f3 06bf
00000320: 0c6c 01bf 5fbf 873f 2786 70bf 44e3 42bf
00000330: bba7 95bf 8d92 59bf faca 1abf d431 36bf
00000340: baaa c5be 8eda 76be 1f6c 11bf 391f 13be
00000350: 4bc7 b9be 3707 f0be 41a1 353f ede9 973f
00000360: 4020 383c dbfd f4bd 1688 4cbe fff6 36bf
00000370: a9ed a7be cc0a 28bf 9719 a7be e34d b53f
00000380: 02e4 63bf b152 c4be 7e0d 27bf e0d5 c63f
00000390: c4df 59bf aad5 77be 39d7 0140 95fd aabc
000003a0: 0042 a7be afde b1bf 1774 5d3f febc a1be
000003b0: ebe9 8c3f 0512 5bbf b21b 23bf 8748 5bbf
000003c0: 8ad7 09bf 9114 773f 7deb f33f e7a7 683f
000003d0: de36 b9be 6dbe 6b3f 654a 953e 16d7 043e
000003e0: 10ed d4bc bbb3 8abd 6857 c9bd 7cb2 4f3f
000003f0: ca15 86bf 5e39 aabe 47ad 21bf 3e23 56bf

fc_out.bias f4 [10]
-0.1729479 -0.23831335 -0.5055827 -0.4503551 -0.32415444 -0.43338194 -0.6406985 -0.53163415
-0.4821199 0.06681079
00000000: 4119 31be 6a08 74be de6d 01bf f294 e6be
00000010: 92f7 a5be 3de4 ddbe d104 24bf 2d19 08bf
00000020: 6bd8 f6be 18d4 883d
