models/J3_5526538-Copy1.pt (torch_old, 3768 bytes, 4 tensors)

fc1.weight f4 [50, 4]
00000000: 532b a5bf 693b f73e 03a2 003d e6ad 633f
00000010: 63c5 69bf d254 cb3f ac62 64bf a6e4 24c0
00000020: c894 c83f 124e abbf 8882 f43e aa72 5740
00000030: 12d1 6ebf f3d2 afbf 49be 02c0 284a b33f
00000040: 2391 66be c5c3 743d 4fab fabf d473 37bf
00000050: 5734 da3f 475c bbbf fd13 0c40 3c0c d63f
00000060: 3223 d4bf 6852 a73f 791d 083d 0f35 3d3f
00000070: 4e06 803f 5fa4 a5bf fafd 8e3f bfe7 3940
00000080: 3675 84bf 7f42 813f 3d32 6dbf 163c 35be
00000090: 831c d83f e71b bdbf 74c2 cf3f ad0f 1d40
000000a0: 73e1 e53f ea7f 91bf d11d 013d bfc6 dd3f
000000b0: 86dc e13f 9975 05c0 65e0 c73f b458 ec3f
000000c0: 9b68 733f b0b7 aa3d 2d69 c4bf b5f1 6f3f
000000d0: c402 84bf 56d3 0240 1ed3 713f 71df 983f
000000e0: 44e5 c2be 6c95 1540 57a2 863b 9950 07c0
000000f0: 8c10 af3f 0424 13bf ebcf 383f 86bc 3040
00000100: 8f02 bebf e601 cbbc 7b57 6abe 55c0 98bf
00000110: 7ec9 773f ccd1 c8bf 42fb 723f 8390 5640
00000120: a467 12c0 fe06 933f d63c 80bf dde3 d7bf
00000130: 894d 23bf edf9 93be 751d 853f 162f ea3e
00000140: 4255 b8bf 2a96 8c3e 2a4d a1be 08f8 9ebf
00000150: c71d b33f f432 09bf 7055 773f 449b 8f3f
00000160: 3c9c d8be 2c6f 123f 7d93 cebf 07fc aebf
00000170: 1c29 cd3f cf77 07c0 8197 ef3f 7b38 c13f
00000180: 230d 0cbf 7887 a03f 7f83 4a3f bea5 bdbe
00000190: f197 803f 131d 0ec0 3117 c13d 12b7 823f
000001a0: 6f2c 3cbe a862 573f 0905 c4bf a857 aa3f
000001b0: a4e5 9dbd 1957 2b3f f8eb f7bf ec86 f33f
000001c0: 2e5e 933f 3c68 9fbf 10cd 98bf 6665 463e
000001d0: a408 cdbf a6ef 803f 45aa f6bd 493a 5dbf
000001e0: 7000 3a3e fed6 9d3e 741a e0bf 3be7 7dbf
000001f0: 4c5b 57bf 448c 143f edb9 b9be 5abc dc3f
00000200: 428c 47bf 7749 953f 4696 18c0 be3b 84bf
00000210: 15d8 15be 444b c6bd e7fd 6fbf a979 633f
00000220: 7810 d5bf 1c30 e73e c174 debe b327 993f
00000230: c4cf 02bf 94a3 3e3f 752a 0ac0 6185 78bf
00000240: 784c 9b3e eb00 613d 42f1 933f 23fa 6a3f
00000250: 473e 95bf 5b64 11bf cc6d a9bf 527a a33e
00000260: 7003 9bbf acc8 db3f 5251 9c3d 3930 04c0
00000270: 5da5 b0bf 97e0 4e3f 3949 853e fcd3 a1bf
00000280: 325f 913e f05d c1bf 65cd 5e3f 8541 1b40
00000290: db52 f43f 02cc 76bf c7a2 cc3d bc7b 3740
000002a0: dbcc b53f 1bb7 89bf 989e 2c40 6606 c63f
000002b0: 93b6 a63f d1f2 acbf 8b41 ff3e bed1 4f40
000002c0: 306c 1fbf b9b7 603d 1c2d 1ec0 4ca5 8dbf
000002d0: 2fb5 e5bf 843c 6a3f 3d44 853f 89ef cebe
000002e0: 2d4e 91bf f3cd e73e 98da 2cc0 751f 9fbf
000002f0: 91c6 60be c93e 1c3f 0892 0ec0 0679 a9bf
00000300: 4365 cb3f 9860 36bf 8aa1 e93f 5fbc d63f
00000310: c1a8 20be 1193 23be a136 b8bf d7bf 853f
-1.2903847 0.48287514 0.031404506 0.8893722 -0.91316813 1.588526 -0.8921306 -2.5764556
1.5670404 -1.33832 0.47755837 3.3663735 -0.93287766 -1.3736252 -2.042864 1.4007006
-0.22516303 0.059757013 -1.9583529 -0.71661115 1.7047223 -1.4637536 2.18872 1.6722484
-1.6573241 1.3072023 0.033231232 0.73909086 1.0001924 -1.2940787 1.1171257 2.9047697
-1.034827 1.0098418 -0.9265478 -0.17698702 1.6883701 -1.477414 1.6231217 2.4540818
1.7959427 -1.1367161 0.031522576 1.7326277 1.7645423 -2.0853026 1.5615355 1.846457
0.9508149 0.08335817 -1.5344597 0.9372819 -1.0313344 2.044149 0.94462764 1.1943189
-0.3806554 2.337245 0.004108708 -2.1142943 1.3676925 -0.5747683 0.7219226 2.7615066
-1.4844531 -0.024781179 -0.22884934 -1.1933695 0.9679183 -1.5689025 0.9491464 3.3525703
-2.2875757 1.1486509 -1.0018566 -1.6866413 -0.63790184 -0.28901616 1.0399615 0.4573905
-1.4401019 0.27458316 -0.31504184 -1.2419443 1.3993462 -0.53593373 0.9661474 1.1219258
-0.42306697 0.57200885 -1.613876 -1.3670663 1.602817 -2.1166875 1.871811 1.5095361
-0.54707545 1.2541342 0.791069 -0.37040514 1.0046369 -2.2205245 0.094282515 1.0212119
-0.18376325 0.8413491 -1.5314037 1.3308 -0.07709816 0.66929775 -1.9368887 1.902555
1.1513116 -1.2453685 -1.193758 0.19374618 -1.6018262 1.0073135 -0.12044195 -0.8641706
0.1816423 0.3082809 -1.7508073 -0.99180955 -0.8412368 0.5802653 -0.36274663 1.724498
-0.7794839 1.1663045 -2.384172 -1.0330732 -0.1463321 -0.096823245 -0.937468 0.88857514
-1.6645651 0.45153892 -0.4344845 1.196524 -0.51098275 0.7446835 -2.1588414 -0.9707852
0.3033178 0.054932516 1.1558001 0.9178793 -1.165963 -0.56793755 -1.3236632 0.3192926
-1.2110424 1.7170615 0.07632698 -2.0654433 -1.3800465 0.80811447 0.26032427 -1.2642817
0.2839294 -1.5106792 0.8703216 2.425874 1.9087785 -0.9640504 0.09991985 2.8669271
1.4203142 -1.0759004 2.6971798 1.5470703 1.3024467 -1.3511602 0.49854693 3.2471766
-0.62274456 0.05486271 -2.4715033 -1.106607 -1.7945918 0.9149859 1.041145 -0.40417126
-1.1351982 0.45274314 -2.700842 -1.2431475 -0.21950747 0.610333 -2.227663 -1.3240058
1.5890278 -0.7124114 1.8252423 1.6776236 -0.15689375 -0.1597407 -1.4391671 1.044917

fc1.bias f4 [50]
00000000: e2a5 303f 474c c7bf 8027 bd3f bad4 d53f
00000010: ceb7 9dbf f548 3a40 f376 043f e8de 973f
00000020: 2842 20be f1f9 f53f 81f9 c63f ff92 5940
00000030: af16 c63d 7d51 96bc 16e3 e5bf 8f23 b53f
00000040: 7a10 60bf c1f1 8c3f 4a01 cfbf 1c4f 8e3e
00000050: 8e6d b5bf 63ca 1040 57d0 2abf f144 0f40
00000060: e2db f8be a34d 0640 1ff7 9b3e a58d a13f
00000070: b177 f73f 579d 50bf 9ed4 93be 6ad1 9b3f
00000080: 42aa 96be 0370 6c3f 8624 933f fdac 34bf
00000090: 8fe6 1b3f 1e4c ab3e d45d 8fbf 4422 aebf
000000a0: fc56 f63f a20a 0340 6728 0140 e63b 983f
000000b0: 8a11 63bf 2f7c 81bf 72b2 13bf 6287 b5be
000000c0: a464 eb3f 33f2 593f
0.6900312 -1.5570153 1.477768 1.6705544 -1.2321718 2.910703 0.51744 1.18649
-0.15650237 1.9216901 1.5544893 3.399597 0.09672295 -0.018349404 -1.7959926 1.4151477
-0.8752514 1.1011277 -1.6172268 0.2779473 -1.4174058 2.2623527 -0.6672415 2.2385828
-0.48605257 2.0984886 0.30461976 1.2621351 1.9333402 -0.8149008 -0.28873152 1.2173283
-0.2942677 0.92358416 1.1495521 -0.7057646 0.6089868 0.3345651 -1.1200509 -1.3604207
1.9245296 2.047524 2.018091 1.189328 -0.8869864 -1.0116023 -0.5769416 -0.3545485
1.8390088 0.8513519

fc_out.weight f4 [10, 50]
00000000: 39e3 37bf ee0d 3840 7047 983f 5d5d e6be
00000010: dfe8 95bf ec76 49bf 0f1e b3be f4a3 3c3f
00000020: c070 d6be fdf9 c9bf 4d42 e7bf 47a8 24bf
00000030: 470a 18be 21cb 76be 7b8c 1640 9c60 a03f
00000040: c689 01bf a478 703f b758 3040 4cb3 bc3e
00000050: 958d 5fbf 1374 f7bf 18fd eabe 757c 6e3f
00000060: 363a 73bf 3508 273e cb5b 1ebe 69d2 8bbc
00000070: a11e 1fbf 4d10 453f b9a7 3cbf 6eac 0dbe
00000080: a968 23be 133c 66be 7873 97be 8700 ea3c
00000090: a6fc 033f 81d2 abbe 1756 1040 a4e4 a6be
000000a0: 8f7d 983f 20b2 993f c186 96bf d127 a53f
000000b0: d0db 82bf 5371 343f de63 18bf 6d00 a2bf
000000c0: 1e09 98bf 3480 22bf cc27 1bbe f2df 0040
000000d0: a4d6 c33f 153b 23bf d672 3abf 9857 8ebf
000000e0: 911b 0dbf f128 f33e f49e 73be cc01 8fbf
000000f0: 1b5f 60bf 4de3 a7bf 37ae c6be 3098 51be
00000100: 5b95 0140 2f04 a23f 3889 2ebf c62a 813f
00000110: 150e e33f d680 02be 76aa efbe 3284 4ebf
00000120: 0654 55be 74ce 18be e56f e3be f7ae 3fbf
00000130: 4bd5 c3be ea45 8bbe 9706 29bf 7c7d 043f
00000140: 6a4b b8be 63c3 04bf d5f9 08bf 6309 a6be
00000150: 8034 63be 2e5f 97be ae85 86bc 0ed2 a0be
00000160: 3e9f dd3f 63d4 93be 2716 b83f 95dc a63f
00000170: dc5c e5be 14c3 b63f a2f0 46bf 115d 343f
00000180: c983 14bf b256 68be 9d0e 6dbf 5554 f9be
00000190: 90fa 96be e031 fe3f a110 993f 1c4a f0be
000001a0: 21ea cebe 8a2a 2cbf fca3 c3be 8b73 253f
000001b0: 70e2 01bf 909b 82bf 0200 a0be cdae 94bf
000001c0: f8bd 3ebe 8564 9dbe a17a 0140 f8cf 933f
000001d0: 3e61 a8be c709 883f a09f 1140 1d8b 803e
000001e0: 1011 2cbf 918a 76bf 5cb3 6abe c08e 96be
000001f0: 52f1 93be ca85 17bf 8a84 90be 957a 43be
00000200: b21f 5bbf a778 653f e2ec bcbe 8d6a d9be
00000210: d0ac f6be 235e 15bf c09d cabe 7279 7ebe
00000220: c7fc 64bc 8bb4 babe 9ce7 d73f feac f3be
00000230: b345 8d3f 0501 9d3f b83b 2fbf 99c7 b03f
00000240: 5ea8 13bf 8b66 783f 8b5d d4be d50c 21bf
00000250: 3ad5 93bf 11b2 1ebf ec0e afbe 42ab 1a40
00000260: 0808 a63f c622 debe 95e7 ebbe 31ea 3bbf
00000270: c86f aabe 9b8f 2e3f 8df8 cfbe 329f 80bf
00000280: a2b3 f9be df6e 60bf 8b63 54be 7163 1ebf
00000290: dfc0 0940 f8fd a53f 91cf 1ebf ef42 9a3f
000002a0: 900c 1d40 6f68 873e f5d3 ffbe fb3f 60bf
000002b0: 49a2 46be 22b3 e5be 8f20 f9bd 2e96 0cbf
000002c0: 7422 08bf 5845 21be bb29 55bf d0f0 923f
000002d0: c3dd 22bf 4649 ffbe 3033 f4be 3969 7cbe
000002e0: 92c7 a2be f81b 08bf ef6a cabd 827c 7dbe
000002f0: b4c6 0940 c265 35bf b719 9b3f b004 7d3f
00000300: 5f66 5cbf 06cb 8a3f f408 21bf 18bd 8b3f
00000310: 0dc0 fcbe fc6d a6be 7144 6cbf d4db 3abf
00000320: 0bff e3be 0ef5 1d40 1695 983f 2d90 05bf
00000330: 3a09 97be 7f40 5bbf 68c6 f4be c84a 6d3f
00000340: e176 0abf 6305 4bbf ba5c 80bd a298 96bf
00000350: 8f3d ecbd 2d35 a1be de7b 0840 5294 8f3f
00000360: df5e 84be 2c9e 993f 70a5 1f40 3c03 17bd
00000370: ae30 19bf c798 dbbe 4b25 73be bb9f 4ebf
00000380: a0c4 e4be 931a 55bf 6150 ffbd afb9 e4be
00000390: 255f 34bf 5ab9 853f f368 25bf 1bb1 9bbe
000003a0: ca30 16bf 997d 2bbe 68ff d1be 694c e3be
000003b0: 5960 a03e 7b9a ffbe 5deb eb3f 47d4 10bf
000003c0: 9bb5 4e3f c547 ac3f f48a 17bf 6aae 653f
000003d0: d241 43bf 670e 873f 1fb3 99be 0b2d 49be
000003e0: cff9 6ebf 525b 37bf 86b6 1bbe 8f72 4a40
000003f0: d408 7a3f e782 81be 9e79 09bf 66ee 71bf
-0.7183109 2.8758502 1.1896801 -0.44993106 -1.1711692 -0.78697085 -0.3498387 0.7368767
-0.41882896 -1.5779415 -1.8067108 -0.6431927 -0.1484767 -0.24100925 2.3523242 1.2529483
-0.5060085 0.93934083 2.7554147 0.36855543 -0.8732541 -1.9332298 -0.4589622 0.93158656
-0.950107 0.16311724 -0.15464704 -0.017068105 -0.6215611 0.76978 -0.73693424 -0.13835308
-0.15957893 -0.22483854 -0.29580283 0.028564705 0.51557386 -0.3355904 2.2552545 -0.32596314
1.1913317 1.2007484 -1.1759874 1.2902776 -1.0223331 0.7048542 -0.59527385 -1.265638
-1.1877782 -0.6347687 -0.151519 2.0136685 1.5299878 -0.6376203 -0.72831476 -1.1120481
-0.5512019 0.47492173 -0.23791105 -1.1172423 -0.8764512 -1.3116242 -0.3880479 -0.20468211
2.024741 1.2657527 -0.6817813 1.0091178 1.7738672 -0.1274446 -0.4680974 -0.80670464
-0.20832834 -0.14922506 -0.44421306 -0.7487635 -0.38248667 -0.27201778 -0.6602568 0.51753974
-0.35995036 -0.51860636 -0.53506213 -0.32429036 -0.22187996 -0.29564804 -0.016421165 -0.3141026
1.7314222 -0.28872976 1.438176 1.3036066 -0.4479741 1.4278283 -0.77710927 0.7045451
-0.5801359 -0.22689322 -0.92600423 -0.48697153 -0.2948804 1.9858971 1.19582 -0.4693154
-0.40413 -0.6725241 -0.38211048 0.6462943 -0.5073614 -1.0203724 -0.31250006 -1.1615845
-0.18627155 -0.30740753 2.0231097 1.1547842 -0.3288669 1.0627984 2.2753677 0.25106135
-0.67213535 -0.96305186 -0.22919983 -0.29405785 -0.2889505 -0.5918852 -0.2822612 -0.1908973
-0.8559524 0.89637226 -0.36899477 -0.42464104 -0.4817872 -0.58346766 -0.3957348 -0.24851015
-0.013976282 -0.36465868 1.6867557 -0.4759292 1.1036896 1.2265936 -0.684505 1.3810912
-0.5767878 0.9703147 -0.41477618 -0.62910205 -1.1549447 -0.6199046 -0.34191072 2.4167027
1.2971201 -0.43385905 -0.4607512 -0.7340422 -0.33288407 0.68187875 -0.40619317 -1.0048583
-0.4876986 -0.87669176 -0.20741098 -0.61870486 2.152397 1.296813 -0.6203547 1.2051677
2.4538918 0.26446864 -0.49966398 -0.87597626 -0.19397844 -0.4486323 -0.12164413 -0.54916656
-0.5317757 -0.15749109 -0.832668 1.147974 -0.6361963 -0.4986059 -0.47695303 -0.24649514
-0.31792885 -0.53167677 -0.09883677 -0.24754527 2.1527529 -0.70858395 1.2117223 0.9883528
-0.86093706 1.0843208 -0.62904286 1.0917082 -0.49365273 -0.32505786 -0.92291933 -0.7299168
-0.4453052 2.468082 1.1920497 -0.5217312 -0.29499227 -0.8564529 -0.47807622 0.9269223
-0.54087645 -0.79305094 -0.06267686 -1.176533 -0.11535179 -0.31485882 2.1325603 1.1217139
-0.2585363 1.2001395 2.4944725 -0.03686832 -0.59839904 -0.42889997 -0.23744695 -0.8071248
-0.44681263 -0.83243674 -0.12466503 -0.44672915 -0.7045768 1.044719 -0.64613265 -0.30408558
-0.58668196 -0.1674713 -0.41015172 -0.44394234 0.31323507 -0.49922547 1.8431202 -0.5657391
0.8074586 1.3459402 -0.591964 0.8971926 -0.7627231 1.055127 -0.3001947 -0.19646089
-0.9334993 -0.7162372 -0.15206346 3.163242 0.9766972 -0.25295183 -0.537012 -0.9450439

fc_out.bias f4 [10]
00000000: 231f 49be ae7b f3be 0a58 a4be 8a8d c1be
00000010: 2a39 dabe 5d7c 05bf 2df4 a5be aef3 18bf
00000020: fa45 aebe 3e6f abbe
-0.19640784 -0.47555298 -0.32098418 -0.37803298 -0.42621738 -0.5214289 -0.32412854 -0.59746826
-0.34037763 -0.3348331
