models/M5_314.pt (torch_old, 3768 bytes, 4 tensors)

fc1.weight f4 [50, 4]
000000 59 41 44 bf 9f 80 c6 3d e0 21 82 bf c6 87 a9 3f
       -0.7666221 0.09692501 -1.0166588 1.324456
000010 2d 8d a9 3f 11 7a 9a bf 7d aa 93 be f1 ae 2e 40
       1.3246208 -1.2068502 -0.2884101 2.7294276
000020 e2 eb fd 3d 4a e0 94 3e 11 be b1 bf 16 a0 e2 3f
       0.12398507 0.2907737 -1.3886129 1.7705104
000030 92 6f b1 bf 92 c9 81 3e 63 82 ce bf f8 0c 00 bf
       -1.3862174 0.25349098 -1.6133541 -0.5001979
000040 32 e7 f6 be dc ab e6 be f6 06 e2 bf 35 42 ce 3f
       -0.48223263 -0.45052993 -1.7658374 1.6113955
000050 b1 1a d9 3f 83 21 d7 bf 2b c6 9a 3e 74 84 19 3f
       1.696127 -1.6807102 0.30229315 0.5996773
000060 c2 7e 92 3f 28 d8 bb bf 20 ec 09 3f 11 5f 92 3f
       1.1444933 -1.4675341 0.53875923 1.1435262
000070 fe f4 87 bf 81 64 36 3f 83 8c 4a bf ed f3 38 bf
       -1.0621641 0.71247107 -0.79120654 -0.722472
000080 4a 27 35 bf 4a 1e 4a 3f 6d 65 22 c0 49 d0 a6 bf
       -0.70763075 0.7895247 -2.5374405 -1.3032314
000090 52 86 36 3f 4a e4 06 bf 6c 62 d6 be d0 21 e7 3f
       0.71298707 -0.5269209 -0.41871965 1.8057194
0000a0 e6 9f 01 be d5 33 c3 3f e7 ef 9d bd a5 ae 94 bf
       -0.12658653 1.5250193 -0.07711773 -1.1615797
0000b0 0b 6b 95 bf 85 a6 51 3f 06 31 e7 be 8a 24 0b c0
       -1.1673292 0.81894714 -0.4515459 -2.1741052
0000c0 92 e4 26 bf 7a a6 1c bf 08 09 e5 3e 8e 7d a9 bf
       -0.6519252 -0.61191523 0.44733453 -1.3241441
0000d0 bc 30 d6 3f fd ec 1b bf 03 a7 fa 3f 7d 61 6c 3e
       1.6733623 -0.6090849 1.9582218 0.23084064
0000e0 27 7c 54 3b 72 3b 05 c0 f5 6f f7 3f f9 41 b0 3f
       0.0032422633 -2.0817533 1.9331042 1.3770133
0000f0 cb b7 ee 3f 7e 58 91 bf 1f 17 5b 40 bc 63 83 3f
       1.8649839 -1.1355131 3.4232862 1.0264812
000100 78 85 5d bf 60 97 d2 3d 1e ba 12 c0 56 b6 73 bf
       -0.8653178 0.10282779 -2.2926097 -0.952001
000110 22 0c 99 bf 8f b7 88 3f 88 bf d1 bf 26 92 02 bf
       -1.1956828 1.0681018 -1.6386576 -0.51004255
000120 62 cb 87 3f c2 87 cf be a1 fe e4 3e 6b 7c f6 3f
       1.0608943 -0.40533262 0.44725516 1.9256719
000130 29 42 1f bf 40 93 c5 3e 50 69 b1 bf d8 21 fe 3e
       -0.6221033 0.38588905 -1.3860264 0.49635196
000140 32 73 4e bf 0a 58 1b 3f 88 d2 cb bf ce 1a ab bf
       -0.80644524 0.6068121 -1.5923624 -1.3367555
000150 73 d3 9a 3f 23 35 f9 3e a7 16 eb bf 25 4c c5 3f
       1.2095779 0.48673353 -1.8366288 1.5413862
000160 5e 4d f3 3e 4e a9 a3 bf b0 07 6a 3f 27 ec 21 40
       0.47519964 -1.2786043 0.9141798 2.5300386
000170 86 26 dc 3f 90 23 59 bc d3 44 5e 3f 09 48 20 40
       1.7199256 -0.013253108 0.8682377 2.5043967
000180 3b af 60 be 3f f5 14 3f 0a ab 0a c0 b4 d6 94 bf
       -0.21941845 0.58186716 -2.1666894 -1.1628022
000190 a0 21 ae 3e 70 3b f6 be e1 8c b2 bf 34 86 6d 3f
       0.3401003 -0.48092222 -1.3949243 0.927829
0001a0 db c4 e9 3f d6 d6 13 bf a9 d4 61 3f 15 b7 35 40
       1.82632 -0.5774969 0.8821512 2.8392994
0001b0 7e 0c 08 40 a0 00 ee bf 03 09 91 3f 58 ab 06 40
       2.1257625 -1.8593941 1.1330875 2.104208
0001c0 a9 94 1e bf 8e 7f 4b 3f bf 16 26 bf 23 47 d9 3f
       -0.6194559 0.7949151 -0.6487846 1.6974834
0001d0 f3 1a 81 be 79 3f 78 be 2c d0 a8 bf e6 58 a6 3f
       -0.25215873 -0.24242963 -1.3188529 1.299588
0001e0 f2 90 bd 3f 9e 08 b8 bf 7c 4b 1a 3d c9 76 3b 40
       1.4809859 -1.437763 0.037669644 2.929125
0001f0 47 69 95 bb d7 b5 e6 3c 20 1c 9d 3e 8f 6e 93 bf
       -0.004559669 0.02816288 0.3068552 -1.1518115
000200 27 7b f0 be 1f c7 0a bf 30 7d f7 be ed d2 6b bf
       -0.46968958 -0.54210085 -0.48337698 -0.9211872
000210 fe 45 4c bf 56 b0 ad 3f c9 e3 b8 bf cc 7f 18 bf
       -0.797943 1.3569438 -1.4444515 -0.5957
000220 29 e9 cf be fd 19 04 40 03 f7 c1 be 4e d4 11 c0
       -0.40607575 2.0640862 -0.37883767 -2.278583
000230 08 5c 76 bb a2 17 2b be a3 35 9b bf 40 fc bd 3f
       -0.0037591476 -0.16708234 -1.2125744 1.4842606
000240 9c 1b 4b bf 29 5d 90 3e db 2d d5 bf 62 cd 84 bf
       -0.79339004 0.28196076 -1.6654619 -1.0375178
000250 5e dc df bf c8 c9 e5 be 23 55 95 3e b8 62 dc 3f
       -1.7489126 -0.4488051 0.29166517 1.7217627
000260 f2 87 78 3f f4 5d 85 bf e3 f6 90 3f 4f df 2a 40
       0.97082436 -1.0419297 1.1325344 2.6698797
000270 78 75 d3 3f ba 44 3d bf 19 ac 86 bf ab 43 51 3f
       1.6520224 -0.73932993 -1.052127 0.8174388
000280 d0 a0 48 bf a0 22 a9 bf c6 df 85 bd 4d a7 42 3f
       -0.7837038 -1.3213692 -0.06536822 0.7603653
000290 61 24 1e 3e 55 48 cd 3e 18 28 1d 3e f7 22 c0 bf
       0.15443565 0.40094247 0.15347326 -1.501067
0002a0 65 37 94 3f 61 f8 f7 bf d7 13 9e 3f 69 e4 cd 3f
       1.1579405 -1.9372674 1.2349805 1.608533
0002b0 f7 88 af bf c2 8b 2d be bb e3 cb 3d d7 51 b7 3f
       -1.3713673 -0.16947845 0.099555455 1.432185
0002c0 a1 4a fc 3e 77 2f df bf 58 99 bc 3e 67 c2 17 40
       0.49275687 -1.743636 0.36835742 2.3712404
0002d0 51 4b 76 3f 46 66 98 bf 63 65 3a bd e5 75 05 40
       0.96208674 -1.1906211 -0.045506846 2.0853207
0002e0 29 ff 3d bf 8f 6c ae bc d4 54 88 bf 1b c8 ab 3f
       -0.7421747 -0.021292 -1.0650887 1.3420442
0002f0 5b 8c 15 c0 77 db 0b 3f 57 14 0d 3f 7d 9e 0d c0
       -2.3366916 0.5463175 0.5510916 -2.2127984
000300 0a bc 61 bf e4 6b 0d 40 6b f2 77 3e 3c 2d 32 c0
       -0.8817755 2.2097101 0.24213569 -2.784011
000310 1f 97 eb 3f b9 b1 c3 bf e7 f4 49 be aa 18 cd bf
       1.8405493 -1.5288612 -0.19722329 -1.6023152

fc1.bias f4 [50]
000000 be 61 98 3f e5 91 b7 3f 0f e6 47 3f 79 dd 5f bf
       1.1904829 1.4341398 0.78085417 -0.87447315
000010 43 79 88 3f 98 dc 05 40 e4 29 e7 3f f4 fd 8e bf
       1.0662006 2.091589 1.8059659 -1.117125
000020 a9 a2 56 bf 7b bc 9e 3f e3 45 32 bf 74 38 44 bf
       -0.8384195 1.240127 -0.6963789 -0.7664864
000030 74 51 dd be dc 17 de 3f 5e bd 09 40 ee 58 48 40
       -0.43226206 1.7351031 2.152183 3.1304278
000040 b6 12 a5 bf 34 44 78 be 7d 8f 32 3f 87 5a 08 3f
       -1.2896335 -0.24244767 0.69750196 0.53263134
000050 50 d8 80 bf 7e af 67 3f 4b de 53 3f ca 7b 7a 3f
       -1.0066013 0.90502155 0.8276107 0.9784514
000060 5e a1 0e bf 32 64 91 3f af b8 ef 3f e6 fc 54 40
       -0.55714977 1.1358702 1.8728236 3.3279357
000070 77 d6 72 3f 51 1d 96 3f 56 0a 07 40 b9 39 2d bf
       0.948585 1.1727697 2.1100059 -0.676662
000080 77 9c 4b bf 28 6f 1b 3e 43 84 da bf a0 c4 56 3e
       -0.7953562 0.15179121 -1.7071613 0.20973444
000090 9e a8 9a bd 17 48 e7 3e 5a b1 8d 3f 02 3d a4 3f
       -0.075516924 0.45172188 1.1069748 1.2831118
0000a0 e0 e7 51 3f 6f 17 12 bf e4 9b 13 40 91 ec 31 3f
       0.8199444 -0.57067007 2.3063898 0.69501597
0000b0 5a 24 ea 3f 31 36 0f 40 8a fd ba 3f f5 f1 c1 bf
       1.8292344 2.2376826 1.4608624 -1.5151964
0000c0 7e e3 ae bf fb c7 81 3c
       -1.3663175 0.015842428

fc_out.weight f4 [10, 50]
000000 5e c9 09 bf b7 53 a7 3f f9 a9 83 be 7f 3f 9e be
       -0.53822887 1.3072423 -0.25715616 -0.3090782
000010 8a e4 19 bf d8 7d ed 3e 3f 90 79 bf d0 06 9d 3d
       -0.6011435 0.46385074 -0.9748573 0.07667315
000020 57 1b 16 bf 1c de 57 bf 64 65 5a bf 03 c9 bd 3f
       -0.5863547 -0.84323287 -0.8531096 1.4826969
000030 4f c9 11 3e 7b 14 5a be 6a 45 8e bf 74 42 a5 bf
       0.1423695 -0.21296875 -1.1114933 -1.2910905
000040 61 a5 7b be fb 5f 7b be 2d 63 c6 3f d5 b6 c4 be
       -0.24574806 -0.24548332 1.5499016 -0.3842074
000050 1a 78 d6 3d 47 95 c3 bd 3b 8a 20 3f 1f fe 68 3f
       0.10472126 -0.09549957 0.6271092 0.9101276
000060 86 12 eb be aa f0 c2 be 0e 14 6d 3f d6 0d f1 bf
       -0.4591257 -0.38074237 0.92608726 -1.8832347
000070 80 e2 13 bf ab 54 ec be 3b 14 ba 3f f7 86 bb 3d
       -0.57767487 -0.46158347 1.4537424 0.09156602
000080 b0 09 7f bd 65 cf 07 bf 96 2e 08 40 c2 d5 dd be
       -0.062265098 -0.53050834 2.1278434 -0.43327147
000090 42 3b 29 bf f3 25 2d bd 22 44 63 bd 1f ae 8a bf
       -0.66106045 -0.04227252 -0.0554849 -1.0834388
0000a0 f8 6f c8 be 8c cb 13 3f 45 64 87 bf ea 25 12 be
       -0.39147925 0.5773246 -1.0577475 -0.14272276
0000b0 0c 9a b8 3f 41 21 ad 3f 84 ec b8 bd 28 9c d9 3f
       1.4422011 1.3525773 -0.09029487 1.700078
0000c0 2e de 0e 40 8c 96 85 bf 83 11 ad bd e0 12 93 3f
       2.2323108 -1.0436568 -0.08450606 1.1490135
0000d0 43 39 bc be 6a 0f 43 be f5 10 2b bf 27 fc 1c 3f
       -0.36762437 -0.19048849 -0.6682275 0.61322254
0000e0 2e de 38 3e 4d 73 3f 3e 48 71 3c bf a8 f5 41 3e
       0.18053505 0.18696328 -0.73610353 0.18941367
0000f0 ba 92 13 bf 92 21 1d 40 49 a1 25 3f 5f af ef 3e
       -0.5764576 2.455174 0.64699227 0.46813485
000100 8d 8a 0d c0 9e 44 a5 bf d7 f3 90 bf da c8 fa bc
       -2.2115815 -1.2911565 -1.1324414 -0.030613352
000110 61 0c 7e 3f 03 42 2b bf 70 4e 50 bf 4b 22 38 bf
       0.9923764 -0.668976 -0.81369686 -0.71927327
000120 1e 4b 5c 3f d1 43 6d 3f 1f 34 8d bf 42 db 06 bf
       0.8605212 0.92681605 -1.1031531 -0.5267831
000130 d3 f3 8d 3f 30 98 07 c0 ee 8d 3d be fd e3 90 be
       1.1090034 -2.1186638 -0.18511173 -0.2829894
000140 d9 68 57 3f ff 11 cf 3e 74 2d ac 3e b2 83 8d be
       0.8414436 0.40443417 0.33628428 -0.27639538
000150 8b 5e 16 40 3d 7a 03 be 18 27 a2 be 1d 39 ab be
       2.3495204 -0.12839599 -0.3167045 -0.3344201
000160 70 5d 6e 3f d7 d4 a3 bf 7a e0 03 bd 64 3f 8e 3e
       0.93111324 -1.2799329 -0.0321965 0.27782738
000170 0c dd 88 bf 05 53 cb be 60 7b 94 3f 5c 23 96 3f
       -1.0692458 -0.39711776 1.1600151 1.1729541
000180 9e 57 98 be ba 82 b4 3f 91 a3 05 40 72 53 9b bf
       -0.29754347 1.4102395 2.0881083 -1.213484
000190 f9 4d 44 be ea 27 74 3f a7 39 08 be 32 2b 09 bf
       -0.19170369 0.95373404 -0.13303243 -0.53581536
0001a0 9e ff 28 bf 29 4b 86 be 7e 7f 82 bf 3e 65 fa be
       -0.6601504 -0.26229218 -1.0195158 -0.48905367
0001b0 a5 f2 23 bf 5b 1f ef be 9f 95 ec be b1 f3 03 40
       -0.6404212 -0.4670361 -0.46207902 2.0617487
0001c0 07 42 38 3e fb 56 26 be 5a ce 57 bf f9 c8 70 bf
       0.17993937 -0.16244118 -0.8429924 -0.9405666
0001d0 74 50 31 bf 4e 5d 45 be e6 f5 2c 3f 77 04 08 bf
       -0.69263387 -0.19273874 0.6756271 -0.5313181
0001e0 29 3c 12 bf 24 3e 85 be c0 d9 17 3f 76 10 9f 3f
       -0.5712305 -0.26023972 0.59316635 1.2426898
0001f0 88 28 46 bf e0 a3 dc be 5d b9 45 3f cf c5 ba bf
       -0.77405596 -0.43093777 0.77235967 -1.4591616
000200 1e e9 05 bf f7 21 0f bf ef 2d 9d 3f 17 fe b1 3e
       -0.52308834 -0.559112 1.2279643 0.34764168
000210 d6 6f b2 3e 3f c9 3a be bd 25 fa 3f 47 b8 0f be
       0.3485095 -0.18240832 1.9542767 -0.1403514
000220 dc ce 14 bf 65 a7 1e be f3 c1 4f 3f 84 a6 e1 be
       -0.5812814 -0.15493543 0.8115532 -0.44072354
000230 05 ca 61 be b7 38 0a 3f ae 5a a4 bf a5 05 bb be
       -0.2204972 0.5399279 -1.2840173 -0.36527744
000240 d9 b8 a5 3f 08 6f 81 3f a8 c0 22 be 35 4a c0 3f
       1.2947036 1.0112009 -0.15893805 1.5022646
000250 89 b5 e7 3f 28 dd 8c bf 06 06 01 be 76 54 9e 3f
       1.8102275 -1.1004992 -0.12599954 1.2369525
000260 21 48 ca bd be 2a d6 be e6 41 92 be e8 63 e1 be
       -0.09877039 -0.41829485 -0.28565902 -0.44021535
000270 ef c9 56 bf 1d 01 87 be db 91 c4 be d0 7c a8 be
       -0.83901876 -0.26368037 -0.3839253 -0.32907724
000280 ac fd 2a bf ec 31 fd 3f 2f 9a 17 3d ae bf a6 be
       -0.6679332 1.978086 0.037012275 -0.32568115
000290 58 d6 73 bf a5 52 88 bf ae 19 6f be f6 1b b7 be
       -0.9524894 -1.0650221 -0.2334964 -0.3576352
0002a0 8f 15 11 3f c7 f3 06 bf 42 27 17 bf 66 67 34 bf
       0.5667352 -0.52715725 -0.5904428 -0.70470273
0002b0 3a 37 6a 3f 9c e2 55 3f fe 44 84 be 42 af 37 be
       0.9149052 0.83548903 -0.25833887 -0.1793795
0002c0 f6 76 91 3f 8a 40 9e bf 10 0d 03 bf 4f 2d e7 be
       1.1364429 -1.2363446 -0.51191807 -0.45151755
0002d0 f8 11 58 3f 05 e1 19 3f fb e1 0f be 4b 8f cc be
       0.8440242 0.6010898 -0.14051048 -0.39953074
0002e0 59 1e fc 3f f4 0d e2 be 6b e9 20 bf 59 d0 f4 be
       1.9696761 -0.4415127 -0.6285617 -0.47815207
0002f0 d9 d6 69 3f a1 e6 7c be 7b 1e fa be f3 4c 72 bc
       0.91343457 -0.24697353 -0.4885138 -0.014788854
000300 26 82 77 bf a0 0e c5 bd aa 9e 60 3f c9 52 45 3f
       -0.96682966 -0.0962193 0.877421 0.77079445
000310 c8 88 ac be 8c bf ec 3f 17 19 08 40 11 03 76 bf
       -0.33698106 1.8495955 2.1265314 -0.9609843
000320 65 69 01 bf f4 ae 3a 3f 38 35 ee be 71 68 92 bd
       -0.50551444 0.7292321 -0.46524978 -0.07148827
000330 7e cc bc be c4 bb 04 bf 8a b4 53 bf dd e3 17 be
       -0.36874765 -0.5184901 -0.82697356 -0.14833017
000340 dd 68 3c bf 63 6e 17 bf dc 24 38 bd a3 aa 00 40
       -0.7359751 -0.5915281 -0.044957027 2.0104148
000350 58 34 29 3d 43 04 d5 be 15 e7 84 bf df 51 99 bf
       0.041309685 -0.41604814 -1.0383021 -1.197811
000360 74 52 05 bf 01 1a d8 be c1 bf 47 3f 03 a2 97 be
       -0.5207894 -0.4220734 0.7802697 -0.29615793
000370 63 e5 94 bd d7 03 33 bf df 20 86 3f 47 59 44 3f
       -0.072703145 -0.69927734 1.0478781 0.76698726
000380 d1 1c 4d bf bd 56 bf bd 88 76 a4 3f 84 1f 8a bf
       -0.80122095 -0.09342716 1.2848673 -1.0790868
000390 90 1e 03 bf 6e ad 3d be fb 92 87 3f bf 86 7d 3e
       -0.5121851 -0.1852319 1.059173 0.24758433
0003a0 2d 33 ac 3c 5d 94 cd be 47 b4 1c 40 58 7f ad be
       0.021020496 -0.40152255 2.4485033 -0.33886218
0003b0 30 df cb be 01 83 fe be d1 68 87 3f cc e0 97 be
       -0.39818716 -0.49709323 1.0578862 -0.29663694
0003c0 5d e7 07 bf bd 48 ea 3e f0 75 8e bf f8 9e ed bb
       -0.5308741 0.4575862 -1.1129742 -0.0072516166
0003d0 e7 29 94 3f 4d 6b 84 3f 08 4e df be 7a 75 ef 3f
       1.1575288 1.0345246 -0.4361422 1.8707726
0003e0 84 89 eb 3f 59 8c 3c bf f9 5a 0a bf 3d 9c 7f 3f
       1.8401341 -0.73651654 -0.54045063 0.99847776
0003f0 e0 92 a3 be 07 3a 24 be 3a 7e 0b bf 41 11 1d bf
       -0.31947994 -0.1603776 -0.5448948 -0.6135445

fc_out.bias f4 [10]
000000 ab 91 b1 be 8d 03 a1 be 51 27 11 bf ad 00 a8 be
       -0.34681448 -0.31448022 -0.5670062 -0.32813016
000010 6e cc 04 bf f1 f0 b2 be f1 40 9e be e9 0a 15 bf
       -0.51874435 -0.3494945 -0.3090892 -0.5821977
000020 60 11 dd be a5 d8 9a be
       -0.4317732 -0.30243412
