models/N1_230.pt (torch_old, 3768 bytes, 4 tensors)

fc1.weight f4 [50, 4]
1.2451578 -1.1420989 -0.21569867 2.255546 0.5411716 1.0900158 0.24254322 1.2797353
-0.41888097 0.8460933 -0.5666152 1.417967 1.3644695 -2.0947616 1.9626292 1.7595329
1.7499888 -0.17149751 0.98557335 2.2309303 1.7256899 -1.8025768 2.0175753 1.5456526
0.10877417 1.4567064 0.06734962 1.3747997 -0.43290275 -1.1214322 0.8690947 0.8278008
-0.9036698 1.7320133 -0.806356 -2.5689282 1.9758646 -2.5390794 1.3836949 0.9505641
-1.2329483 0.9768956 -0.90958565 -1.9230101 -1.5300016 0.9260306 -2.329764 -0.5376526
1.5149539 1.074055 1.1319376 -1.8644475 1.0887442 -0.8687521 -0.62020075 1.4331957
2.2219403 -1.0216058 2.61438 1.2829031 -0.21828283 0.27976775 -1.6782541 2.1478894
2.0851598 -1.3456447 -0.008303698 1.5071456 -0.18976298 1.342563 -0.8280752 1.1022131
0.00242104 -0.41748804 -2.3446307 2.0133727 1.4277081 -0.75025535 1.1895227 2.700808
-1.7483938 -0.60647374 -0.15856504 1.3741137 0.66626775 -1.0540191 0.9301546 1.9173981
0.14875579 -0.39130253 -0.19440791 -1.6220403 -0.37800592 1.1938785 -0.29353505 1.6845256
-1.0577513 0.6865541 -2.1677337 -1.3517171 1.1976867 -0.23097008 -0.4232768 1.6031293
-1.3997123 -1.2092909 -1.6101569 2.0049136 1.5932887 -2.2525513 0.7196708 1.5317587
1.9826543 -0.3161551 2.9600244 0.6517096 0.1366055 1.6993161 -0.5489049 -1.7258809
1.6243345 -1.6906118 -0.31150448 -0.8130964 -0.21324067 0.33621112 -1.8166305 -0.70125645
1.8748186 -1.6208805 -0.6276902 1.2912478 0.54626817 -0.8960698 -0.7893907 0.90798074
-0.17302679 1.118506 -1.9819826 -0.7419105 1.0491469 -0.70736194 1.0999469 2.0123143
-0.6499996 0.7040406 -2.5556848 -0.9896554 0.9516144 -1.8724791 0.45260862 2.9835615
1.5017719 0.5799026 2.1439567 0.22023223 1.1160389 -1.5740361 0.5609232 2.6026144
1.4145949 -0.7837565 -0.6415888 1.907911 -0.72467977 0.7667792 -3.4933622 0.079011284
1.5994258 1.1141678 0.6935643 -1.3588758 -0.11474296 0.82599866 -0.5628636 1.7135273
-1.0357064 1.3862181 -0.5915211 -2.5805762 -0.31118956 0.45344722 1.1659669 -1.4832109
-0.5679828 1.6389976 0.3565713 -1.8462671 -0.9818594 1.766128 0.98239356 -1.582434
1.4360133 0.72566503 0.8569035 -1.6004122 -0.6754118 0.9997953 0.05096196 1.5963012
00000000: 5561 9f3f 4c30 92bf 1de0 5cbe de5a 1040
00000010: 398a 0a3f a385 8b3f 405d 783e 5ece a33f
00000020: 9177 d6be 9299 583f b20d 11bf f17f b53f
00000030: f0a6 ae3f 9310 06c0 6f37 fb3f 6038 e13f
00000040: a2ff df3f 0b9d 2fbe 894e 7c3f 90c7 0e40
00000050: 68e3 dc3f d6ba e6bf f41f 0140 f2d7 c53f
00000060: fec4 de3d 5b75 ba3f 99ee 893d 70f9 af3f
00000070: 6ea5 ddbe 178b 8fbf fe7c 5e3f c1ea 533f
00000080: e756 67bf 9db2 dd3f 596d 4ebf 5269 24c0
00000090: 22e9 fc3f 4780 22c0 ea1c b13f 2b58 733f
000000a0: 40d1 9dbf d415 7a3f 9bda 68bf 3225 f6bf
000000b0: 18d7 c3bf 5710 6d3f da1a 15c0 9aa3 09bf
000000c0: 02ea c13f a27a 893f 55e3 903f 37a6 eebf
000000d0: f85b 8b3f 8a66 5ebf 7ac5 1ebf f572 b73f
000000e0: 4534 0e40 fbc3 82bf 0052 2740 2b36 a43f
000000f0: 8985 5fbe b83d 8f3e 08d1 d6bf 0577 0940
00000100: 4273 0540 163e acbf 3c0c 08bc 26ea c03f
00000110: 3a51 42be 1bd9 ab3f bcfc 53bf 5215 8d3f
00000120: 50aa 1e3b fec0 d5be 6e0e 16c0 19db 0040
00000130: 24bf b63f bc10 40bf 4842 983f 0ada 2c40
00000140: 5ecb dfbf dd41 1bbf e05e 22be f5e2 af3f
00000150: 8690 2a3f 19ea 86bf 9d1e 6e3f 4d6d f53f
00000160: 7053 183e ce58 c8be de12 47be 049f cfbf
00000170: fe89 c1be 03d1 983f 3a4a 96be 899e d73f
00000180: 6564 87bf 02c2 2f3f 26bc 0ac0 1105 adbf
00000190: cc4d 993f 6c83 6cbe bdb7 d8be 5733 cd3f
000001a0: c629 b3bf 0bca 9abf 9f19 cebf 8150 0040
000001b0: e2f0 cb3f cd29 10c0 583c 383f ab10 c43f
000001c0: 9ec7 fd3f 15df a1be 0a71 3d40 71d6 263f
000001d0: 50e2 0b3e 3183 d93f 0885 0cbf aae9 dcbf
000001e0: 31ea cf3f f865 d8bf 847d 9fbe 1627 50bf
000001f0: c35b 5abe dd23 ac3e 5987 e8bf 8b85 33bf
00000200: 0efa ef3f 0379 cfbf 4eb0 20bf 9c47 a53f
00000210: 3bd8 0b3f d564 65bf 8215 4abf 6d71 683f
00000220: ef2d 31be 342b 8f3f 9bb1 fdbf d9ed 3dbf
00000230: 724a 863f ac15 35bf 0fcb 8c3f c2c9 0040
00000240: 6066 26bf 013c 343f 5790 23c0 0e5a 7dbf
00000250: 009d 733f 65ad efbf 51bc e73e acf2 3e40
00000260: 103a c03f 7f74 143f 9636 0940 8f84 613e
00000270: 5dda 8e3f 047a c9bf aa98 0f3f 3c91 2640
00000280: 7211 b53f 44a4 48bf 2a3f 24bf 6d36 f43f
00000290: 9d84 39bf a44b 443f 3f93 5fc0 abd0 a13d
000002a0: fcb9 cc3f 0d9d 8e3f 6e8d 313f a4ef adbf
000002b0: 5bfe eabd a674 533f d417 10bf dd54 db3f
000002c0: 0792 84bf 986f b13f ed6d 17bf 2928 25c0
000002d0: 3d54 9fbe 3c2a e83e 673e 953f dbd9 bdbf
000002e0: 5267 11bf acca d13f 8390 b63e 7b52 ecbf
000002f0: 235b 7bbf 7b10 e23f 257e 7b3f 338d cabf
00000300: 49cf b73f 2fc5 393f 075e 5b3f 4fda ccbf
00000310: cae7 2cbf 96f2 7f3f 7dbd 503d 9953 cc3f

fc1.bias f4 [50]
1.963425 0.78372085 1.4274782 1.7897698 1.5071366 3.2373335 1.1453916 1.085531
-1.9483476 1.8143036 -1.3645939 -0.9573938 -0.73856187 1.6158644 2.2049687 1.6028583
2.2638535 1.4730263 0.7579651 1.389635 0.65685356 1.833153 0.025568256 1.2259761
-0.6749584 0.8717229 1.0721098 2.5834556 1.7980567 -0.89981526 -0.7500579 -1.0648135
2.2702718 0.726508 -1.3575238 1.8019853 -1.5428376 1.4677223 -0.13574988 1.7616848
1.6742681 -0.50374776 -0.870257 0.49048632 -0.79025435 -0.09239341 -0.7846301 -1.1766615
-1.4310682 1.4107599
00000000: 8351 fb3f eea1 483f 9bb7 b63f 2d17 e53f
00000010: dae9 c03f 7930 4f40 319c 923f aef2 8a3f
00000020: 7463 f9bf 1a3b e83f 03ab aebf c317 75bf
00000030: 6412 3dbf a5d4 ce3f 351e 0d40 762a cd3f
00000040: fae2 1040 208c bc3f 000a 423f 8fdf b13f
00000050: 8e27 283f c2a4 ea3f 8574 d13c c9ec 9c3f
00000060: 13ca 2cbf 3b29 5f3f e53a 893f 5657 2540
00000070: b926 e63f 4b5a 66bf cb03 40bf cf4b 88bf
00000080: 224c 1140 6efc 393f 57c3 adbf 74a7 e63f
00000090: b47b c5bf 53de bb3f 0402 0bbe e37e e13f
000000a0: 6b4e d63f 9df5 00bf 2ac9 5ebf 0621 fb3e
000000b0: 1c4e 4abf c238 bdbd 85dd 48bf d89c 96bf
000000c0: 3e2d b7bf c893 b43f

fc_out.weight f4 [10, 50]
0.6876866 0.21777873 -0.13413571 -0.8198738 1.1736765 -1.2767816 -0.12996553 0.2243416
2.1147966 0.4133442 -1.0960432 -0.16362196 0.36909342 0.99441904 -0.9514419 -0.12960924
-1.7938025 -0.6294297 -0.59306806 0.91385263 -0.27845174 1.0159276 0.18050392 -0.5894395
-0.64641607 1.1570679 -0.6041148 -0.5967846 -0.8677172 2.6498942 -0.33575377 -0.58297044
-1.6253593 0.5840733 -0.41897246 0.68284935 -0.782181 1.035987 0.46893555 0.85922706
1.2162465 -0.12546012 0.40676823 -0.24579135 2.0362246 -1.0670704 2.2912018 1.8561918
0.54059577 -0.54408956 1.3302703 0.13535985 -0.14789909 -1.242141 1.202254 -1.6223216
-0.24792582 0.20154199 2.09155 0.639223 -0.9578926 -0.3158284 0.7121652 0.39639843
-1.331147 -0.60658216 -1.261747 -0.1979634 -0.58867913 1.3081021 -0.3624445 1.2269727
-0.105819725 -0.047908373 -0.7377745 0.64763886 -0.7841826 -0.6428112 -1.0225984 2.3759615
-0.6457105 -0.24476491 -0.84978884 0.075619265 -0.38225612 1.2176511 -0.76382023 0.80847806
1.0925695 0.712266 0.91687053 -0.67487556 0.6480773 -0.073477946 2.1719303 -1.0991656
2.3234587 1.708579 0.35843015 -0.5694574 0.98706347 -0.20039546 -0.4934145 -1.1003281
1.0964286 -0.9438374 -0.1754626 0.4994639 2.398864 -0.5415868 -0.6885667 -0.2999764
0.2737795 0.84541875 -0.6452383 -0.3412863 -0.8330092 -0.33543018 -0.32708886 0.8452106
-0.6859105 1.1494187 0.032911837 -0.45839387 -0.39896086 0.8744083 -0.7113533 -1.2752501
-0.52949387 2.1628325 -0.65585256 -0.77104443 -0.91645706 0.6542759 -0.73463416 0.55674106
-0.7096339 1.1068628 0.6291521 1.0547113 0.7005909 -0.4788121 0.652507 -0.21461073
1.8816769 -1.4046675 1.8148557 1.9601717 0.73028064 -0.29793382 0.9892963 -0.28008297
-0.64171207 -1.0767065 1.2430023 -1.1390821 -0.23491508 0.6086841 2.4713457 -0.56672794
-0.91528636 -0.3302311 0.16742517 0.8437456 -0.8136572 -0.5104302 -0.3933698 -0.23324145
-0.7096951 1.2242074 -0.50365627 1.0053465 0.17603984 -0.23142116 -0.27128866 0.6615106
-0.31791177 -1.0268893 -0.9807887 2.464595 -0.60575646 -0.28437108 -0.93551004 0.55956787
-0.64202845 1.0357298 -0.58824337 0.68871874 0.7609802 1.0904204 0.54314935 -0.5469396
0.4912385 -0.36040622 1.8995259 -1.5453149 1.6804974 1.5989327 0.59847564 -0.47818905
1.0281323 -0.22383565 -0.16570726 -0.95330256 0.98825294 -1.007153 -0.38042307 0.4785058
2.416331 -1.0184826 -0.8790336 -0.7249473 0.48894063 0.48765492 -0.8835665 -0.2761043
-0.42794877 -0.55660766 -0.54579216 1.1622642 -0.3713396 1.0747349 0.19446523 -0.6828275
-0.22106951 0.736684 -0.68798876 -0.99005693 -0.49739295 2.7941792 -0.4743342 -0.49275357
-0.8381347 0.6339034 -0.41352051 0.7445913 -0.48997584 0.95194006 0.53912586 0.9763467
0.8600734 -0.41956434 0.5933101 -0.24928176 2.373585 -1.2868108 1.9763273 1.7601911
0.6418843 -0.3728594 0.6381641 -0.40957338 -0.23715223 -1.0800493 1.4542395 -0.72247475
00000000: 3b0c 303f 6301 5f3e df5a 09be 40e3 51bf
00000010: 083b 963f 946d a3bf af15 05be ceb9 653e
00000020: d458 0740 daa1 d33e 254b 8cbf 848c 27be
00000030: d0f9 bc3e 3f92 7e3f b291 73bf 49b8 04be
00000040: 529b e5bf 4e22 21bf 4fd3 17bf 3ff2 693f
00000050: 3a91 8ebe ea09 823f 05d6 383e 82e5 16bf
00000060: 867b 25bf cd1a 943f 44a7 1abf e0c6 18bf
00000070: b722 5ebf de97 2940 ebe7 abbe 8d3d 15bf
00000080: c60b d0bf d485 153f 8f83 d6be 37cf 2e3f
00000090: 043d 48bf 399b 843f 5218 f03e 4ef6 5b3f
000000a0: f7ad 9b3f 9e78 00be ed43 d03e bab0 7bbe
000000b0: 8151 0240 c395 88bf 0da3 1240 b197 ed3f
000000c0: 7c64 0a3f 7449 0bbf 4c46 aa3f c69b 0a3e
000000d0: dc72 17be 7afe 9ebf 76e3 993f 3ca8 cfbf
000000e0: 44e0 7dbe 0661 4e3e f5db 0540 1ea4 233f
000000f0: 7338 75bf 43b4 a1be 7550 363f bcf4 ca3e
00000100: 0663 aabf f848 1bbf ed80 a1bf ebb6 4abe
00000110: adb3 16bf e46f a73f 5392 b9be 710d 9d3f
00000120: 03b8 d8bd 923b 44bd cade 3cbf a9cb 253f
00000130: 31c0 48bf 468f 24bf 81e4 82bf c10f 1840
00000140: 494d 25bf a7a3 7abe c38b 59bf 46de 9a3d
00000150: 13b7 c3be fedb 9b3f b989 43bf 6bf8 4e3f
00000160: 51d9 8b3f 1157 363f 07b8 6a3f a5c4 2cbf
00000170: 65e8 253f 9b7b 96bd e800 0b40 75b1 8cbf
00000180: 8cb3 1440 b7b2 da3f 2884 b73e f6c7 11bf
00000190: 31b0 7c3f 7834 4dbe d3a0 fcbe 8dd7 8cbf
000001a0: c657 8c3f 549f 71bf 78ac 33be bbb9 ff3e
000001b0: fd86 1940 6fa5 0abf e845 30bf 8296 99be
000001c0: d42c 8c3e 5d6d 583f 562e 25bf 14bd aebe
000001d0: 1740 55bf 81bd abbe 3178 a7be b95f 583f
000001e0: d597 2fbf 2720 933f 90ce 063d 9ab2 eabe
000001f0: 9944 ccbe 39d9 5f3f 401b 36bf 653b a3bf
00000200: e98c 07bf d96b 0a40 f4e5 27bf 2b63 45bf
00000210: ee9c 6abf a07e 273f fc10 3cbf 9586 0e3f
00000220: 91aa 35bf aead 8d3f 1d10 213f c800 873f
00000230: ed59 333f dc26 f5be b30a 273f eac2 5bbe
00000240: cada f03f 25cc b3bf 314d e83f e8e6 fa3f
00000250: acf3 3a3f c88a 98be 8642 7d3f 0967 8fbe
00000260: 3e47 24bf 85d1 89bf b31a 9f3f 71cd 91bf
00000270: 948d 70be b9d2 1b3f 872a 1e40 1515 11bf
00000280: 3550 6abf 0d14 a9be 8171 2b3e b6ff 573f
00000290: d74b 50bf 8eab 02bf c467 c9be d9d6 6ebe
000002a0: 94ae 35bf d4b2 9c3f 9eef 00bf 32af 803f
000002b0: ca43 343e abf9 6cbe 59e6 8abe c258 293f
000002c0: 55c5 a2be 1c71 83bf f814 7bbf edbb 1d40
000002d0: db12 1bbf 1699 91be 967d 6fbf d73f 0f3f
000002e0: fa5b 24bf cb92 843f 1e97 16bf df4f 303f
000002f0: 99cf 423f e592 8b3f d60b 0b3f 3c04 0cbf
00000300: 9d83 fb3e 2a87 b8be aa23 f33f e1cc c5bf
00000310: 8a1a d73f d4a9 cc3f b335 193f 32d5 f4be
00000320: d799 833f 2c35 65be 2aaf 29be a30b 74bf
00000330: 25fe 7c3f 64ea 80bf d0c6 c2be b6fe f43e
00000340: 2ba5 1a40 a35d 82bf 5908 61bf 2596 39bf
00000350: 6d56 fa3e e8ad f93e 6a31 62bf 8b5d 8dbe
00000360: 1a1c dbbe d77d 0ebf 09b9 0bbf 13c5 943f
00000370: 3920 bebe ea90 893f e521 473e c8cd 2ebf
00000380: 0c60 62be 5397 3c3f 0820 30bf 5f74 7dbf
00000390: 4aaa febe d5d3 3240 efdb f2be 324a fcbe
000003a0: ff8f 56bf 7e47 223f f6b8 d3be 899d 3e3f
000003b0: 1dde fabe 58b2 733f 2704 0a3f dbf1 793f
000003c0: c52d 5c3f 23d1 d6be 2ce3 173f b843 7fbe
000003d0: d1e8 1740 37b6 a4bf 4bf8 fc3f f14d e13f
000003e0: 8852 243f 6de7 bebe b95e 233f 9ab3 d1be
000003f0: 09d8 72be 0e3f 8abf 8524 ba3f 1bf4 38bf

fc_out.bias f4 [10]
-0.15288024 -0.28047907 -0.58438927 -0.48269615 -0.55276465 -0.50653243 -0.43716836 -0.43140468
-0.18721797 -0.095126875
00000000: a38c 1cbe f49a 8fbe 899a 15bf f323 f7be
00000010: fc81 0dbf 1cac 01bf 88d4 dfbe 13e1 dcbe
00000020: 11b6 3fbe e1d1 c2bd
