models/N5_314.pt (torch_old, 3768 bytes, 4 tensors)

fc1.weight f4 [50, 4]
0	0xbf8988b9	-1.074485
1	0xbe005a08	-0.12534344
2	0xbf75048e	-0.95710075
3	0x3fb2a644	1.395699
4	0x3fb8ee2f	1.4447688
5	0xbfa5c8dd	-1.2951924
6	0xbf056cb5	-0.52119
7	0x403017be	2.751449
8	0xbdeb46ab	-0.11488088
9	0x3b62b306	0.003459157
10	0xbfb40001	-1.4062501
11	0x3fdc44cb	1.7208494
12	0xbff3822c	-1.90241
13	0x3e35be17	0.17748295
14	0xbfb3b2d9	-1.4038955
15	0xbe30e38a	-0.172743
16	0xbf4bf51d	-0.7967089
17	0xbf2c8371	-0.67388064
18	0xbfe442e5	-1.7832915
19	0x3fbcf7ae	1.4763086
20	0x3fc4b953	1.5369056
21	0xbfc5dda3	-1.5458263
22	0xbe91b709	-0.28459957
23	0x3e38e22f	0.18055032
24	0x3fa169b4	1.2610383
25	0xbfcd55d3	-1.6041816
26	0x3efef4af	0.49796054
27	0x3f8aa0bd	1.0830303
28	0xbf8f45d9	-1.1193191
29	0x3e63fbad	0.22263975
30	0xbe92d256	-0.286761
31	0x3f9e991b	1.2390474
32	0xbf8c4311	-1.0957967
33	0x3f0fc73a	0.5616337
34	0xc0282881	-2.6274722
35	0xbfa1f954	-1.2654214
36	0x3edef550	0.43546534
37	0xbf2e7fed	-0.6816395
38	0xbedf2316	-0.43581456
39	0x3fd9383e	1.6970289
40	0xbf1d6401	-0.6148072
41	0x3fbf563c	1.4948192
42	0x3e740561	0.23830177
43	0xbfb7ccbb	-1.4359354
44	0xbefdb17d	-0.49549475
45	0x3ec7cb5b	0.39022335
46	0x3f9184d8	1.1368666
47	0xbecf43d9	-0.4048145
48	0xbf0a0960	-0.53920555
49	0xbeab1d8f	-0.3342099
50	0x3edbb8d6	0.42914456
51	0xbf9fb116	-1.2475917
52	0x400b0c70	2.1726341
53	0xbf8e5b44	-1.1121602
54	0x40155b7b	2.3337085
55	0x3e996d3a	0.29966146
56	0x3d68816a	0.056764044
57	0xc0092b5a	-2.143271
58	0x3ffb8a05	1.9651495
59	0x3fb70fcd	1.4301697
60	0x3fded939	1.7410041
61	0xbf83da73	-1.030104
62	0x4062c2c1	3.5431368
63	0x3f8028ad	1.0012413
64	0xbf8c11de	-1.0942953
65	0xbe7396f0	-0.23788047
66	0xc00536da	-2.0814729
67	0xbf54311a	-0.82887423
68	0xbfb776da	-1.4333146
69	0x3f31867d	0.6934584
70	0xbfd8ba2f	-1.6931819
71	0xbf270781	-0.65245825
72	0x3f8662f5	1.0498949
73	0xbecc5952	-0.39911896
74	0x3f03d6ba	0.5149952
75	0x4008cb2d	2.1374009
76	0xbf285dc0	-0.6576805
77	0xbe39bbcf	-0.1813805
78	0xbfb57156	-1.4175212
79	0x3f193e56	0.5986074
80	0xbf8730b6	-1.056174
81	0x3eacb04b	0.3372825
82	0xbfa170c5	-1.261254
83	0xbfbb7114	-1.4643884
84	0x3f5184f1	0.8184348
85	0x3eba7a02	0.3642121
86	0xbfc803b5	-1.5626131
87	0x3fc67a3e	1.5506055
88	0x3f0755e0	0.5286541
89	0xbfa5aa26	-1.294255
90	0x3f88f2dc	1.0699115
91	0x4039f506	2.90558
92	0x3f891ae9	1.0711337
93	0x3f953ae1	1.1658593
94	0x3f12490d	0.57142717
95	0x3f5b8bd1	0.8576022
96	0xbefb1af4	-0.49044
97	0x3e856683	0.26054773
98	0xc002d3a7	-2.0441682
99	0xbf8cb888	-1.0993814
100	0x3ca8afa4	0.020591564
101	0xbf244b16	-0.6417707
102	0xbfa38860	-1.2775993
103	0x3f54ca35	0.83121043
104	0x3ff01576	1.8756549
105	0xbf1eba1f	-0.6200275
106	0x3f8eeb33	1.1165527
107	0x40481d0a	3.1267724
108	0x40014542	2.0198522
109	0xbfe2739c	-1.7691531
110	0x3fb11dbf	1.3837203
111	0x400679ae	2.1011767
112	0xbf64cbe3	-0.89373606
113	0x3f037f6f	0.51366323
114	0xbf3ab650	-0.72934437
115	0x3fce211e	1.6103857
116	0xbf166dc3	-0.58761233
117	0xbef88218	-0.48536754
118	0xbf9b5e97	-1.2138242
119	0x3f99d0d6	1.2016857
120	0x3fc78bb0	1.5589504
121	0xbfbedcaa	-1.4911091
122	0x3e9a0b5b	0.3008679
123	0x404d13dc	3.2043371
124	0x3e3d41b2	0.18482092
125	0x3e906cac	0.2820791
126	0x3eb43065	0.35193172
127	0xbf8944cb	-1.0724119
128	0xbeb83647	-0.3597891
129	0xbf10a6a2	-0.5650426
130	0xbf31f588	-0.69515276
131	0xbf68310b	-0.90699834
132	0xbf880738	-1.0627203
133	0x3f8b6722	1.0890849
134	0xbe96ee5e	-0.29478735
135	0xbfe224bf	-1.7667464
136	0xbca6bfdb	-0.020355156
137	0x40120163	2.2813346
138	0xbeac8054	-0.33691657
139	0xc0111a79	-2.2672408
140	0xbdd47a8e	-0.10374938
141	0xbf07da37	-0.53067344
142	0xbf9af79d	-1.2106816
143	0x3fab7c04	1.3397222
144	0xbf54d2f6	-0.831344
145	0xbe8d770c	-0.27629888
146	0xbfc0304f	-1.5014743
147	0xbea00f57	-0.31261703
148	0xbff8e6e7	-1.9445466
149	0xbf4c7f50	-0.79881763
150	0x3edc8e25	0.43077198
151	0x3fcb1a18	1.5867338
152	0x3f85b6b0	1.0446377
153	0xbf8e6eae	-1.1127527
154	0x3fac37d1	1.3454534
155	0x403fc036	2.9961066
156	0x3fc9786f	1.5739878
157	0xbf264f33	-0.649646
158	0xbfbcb18a	-1.4741681
159	0x3f0a4329	0.5400873
160	0xbf8a5dc8	-1.080987
161	0xbfba399e	-1.4548833
162	0xbe1ebabf	-0.15500925
163	0x3f2c0cec	0.6720722
164	0x3ea04ec8	0.31310105
165	0x3f26dea7	0.6518349
166	0x3e3d44af	0.18483232
167	0xbfab4915	-1.3381678
168	0x3fa012e9	1.2505771
169	0xc0030095	-2.0469105
170	0x3f812e5e	1.0092275
171	0x3fe32f49	1.7748805
172	0xbfcc9876	-1.5984027
173	0xbeefa325	-0.46804157
174	0x3e22d8da	0.15903035
175	0x3fa7a957	1.3098553
176	0x3f08ddbd	0.53463346
177	0xbfe2b1a5	-1.7710463
178	0x3f1a3811	0.602418
179	0x4026d19a	2.606543
180	0x3f821916	1.0163906
181	0xbf9cdcba	-1.225486
182	0xbe3cbf55	-0.18432362
183	0x400c67c5	2.1938336
184	0xbf84db3f	-1.0379409
185	0xbe9eb0df	-0.30994317
186	0xbf868907	-1.0510567
187	0x3fa44318	1.2832975
188	0xbfe9a191	-1.8252431
189	0x3f2132a3	0.6296789
190	0x3f1b4378	0.60649824
191	0xc00a50a8	-2.1611729
192	0xbed8c324	-0.4233638
193	0x401556d3	2.3334243
194	0x3ea6a641	0.32548717
195	0xc02ee990	-2.7330055
196	0x3fed3398	1.853137
197	0xbfc88884	-1.5666661
198	0x3e2d1d3a	0.1690568
199	0xbfead042	-1.8344805

fc1.bias f4 [50]
0	0x3fa6ef09	1.3041698
1	0x3fa5c5d0	1.2950993
2	0x3f49186e	0.785529
3	0xbefc2909	-0.49250057
4	0x3f7b8329	0.9824701
5	0x3fe60dbc	1.7972941
6	0x3fd6b41c	1.6773715
7	0x3f83a45b	1.0284532
8	0xbf460f3c	-0.77366996
9	0x3f986b49	1.1907741
10	0xbf717d7a	-0.9433209
11	0x3f2941c5	0.6611598
12	0xbeae5748	-0.34050965
13	0x40013c84	2.0193186
14	0x4017ec2c	2.3737898
15	0x40512356	3.2677817
16	0xbf916b9d	-1.1360966
17	0xbeb6051d	-0.35550776
18	0x3f48fe4b	0.7851302
19	0x3f30eb74	0.6910927
20	0xbf91b5e1	-1.138363
21	0x3f78c8be	0.9718131
22	0x3f8cdeec	1.100553
23	0xbedfe65e	-0.43730444
24	0xbeede684	-0.46464932
25	0x3f899f4f	1.0751742
26	0x40014366	2.0197387
27	0x405f168f	3.4857519
28	0x3f62f3d1	0.88653284
29	0x3f951246	1.1646202
30	0x400f2cfb	2.2371204
31	0xbf11461b	-0.567476
32	0xbf3928ce	-0.7232789
33	0xbf80ddba	-1.0067666
34	0xbfd7b913	-1.6853355
35	0x3de2f37a	0.11081596
36	0x3f375a2a	0.71621954
37	0x3eacb2c1	0.33730128
38	0x3fa53b9f	1.290882
39	0x3f862cf1	1.0482465
40	0x3f31ea02	0.6949769
41	0xbf0264cb	-0.5093505
42	0x4025b70b	2.589297
43	0x3f20f1a0	0.6286869
44	0x3ff61c3b	1.9227365
45	0x400c27ba	2.1899247
46	0x3fb65874	1.4245744
47	0xbfb8769c	-1.4411197
48	0xbfa68c7d	-1.3011624
49	0x3d88c60a	0.06678398

fc_out.weight f4 [10, 50]
0	0xbf0dc373	-0.55376357
1	0x3f9e672d	1.2375237
2	0xbe4ae2f9	-0.19813146
3	0xbeda3a7a	-0.4262274
4	0xbf0b6164	-0.5444548
5	0x3ece274d	0.4026436
6	0xbdcd13b8	-0.10013527
7	0xbe38d7b0	-0.18051028
8	0xbf4f73f9	-0.81036335
9	0xbea1ddaa	-0.3161443
10	0xbfb9f090	-1.4526539
11	0x3fdb90db	1.7153581
12	0xbd842a5e	-0.064533934
13	0xbf20624f	-0.62650007
14	0xbf9f0d75	-1.2425982
15	0xbf9b3a39	-1.2127143
16	0xbeba6e60	-0.36412334
17	0xbeae888b	-0.3408855
18	0x3faa1d3e	1.3290174
19	0xbed5f3e2	-0.4178763
20	0xbe99ef71	-0.30065492
21	0x3cf6251e	0.030046996
22	0x3f39daf8	0.72599745
23	0x3f52fc4c	0.82416224
24	0xbf19662a	-0.59921515
25	0xbea0b837	-0.31390545
26	0x3f49c804	0.78820825
27	0xbfe263dc	-1.7686725
28	0xbf0b7d5d	-0.54488164
29	0xbedca6dc	-0.43096054
30	0x3faac501	1.3341371
31	0xbce560ee	-0.028000321
32	0xbe8f9924	-0.28046525
33	0xbf9b1c19	-1.211795
34	0x3fe8bb34	1.818213
35	0xbeb2e556	-0.34940594
36	0xbf125c15	-0.57171756
37	0xbda96b2e	-0.08272396
38	0x3d769ab1	0.06020612
39	0xbf982aa7	-1.1888016
40	0xbea56d44	-0.32309926
41	0x3eccce46	0.40001124
42	0xbfa143ec	-1.2598853
43	0xbe330320	-0.17481661
44	0x3fa4eb3b	1.2884287
45	0x3f9e5204	1.2368779
46	0xbdd49760	-0.10380435
47	0x3fa19d0f	1.2626055
48	0x40055274	2.0831575
49	0xbfa09fb0	-1.2548733
50	0xbda212e8	-0.07913762
51	0x3f837466	1.0269897
52	0xbea8d0d6	-0.3297183
53	0xbe861a5d	-0.2619199
54	0xbf2dc152	-0.6787311
55	0x3e8766a2	0.2644549
56	0x3f327f24	0.6972525
57	0xbe2be7a6	-0.16787586
58	0xbf558748	-0.8340955
59	0x3e5a50a4	0.21319824
60	0xbf37269d	-0.71543294
61	0x3f827450	1.0191746
62	0x3f0b4083	0.5439531
63	0x3e36c740	0.17849445
64	0xc00db38d	-2.214084
65	0xbfba3871	-1.4548475
66	0xbf80c49e	-1.0060003
67	0xbd9f1e7b	-0.077694856
68	0x3f93bb52	1.1541541
69	0xbf2f3bcc	-0.6845062
70	0xbf575cec	-0.8412616
71	0xbf1dc76c	-0.6163242
72	0x3f74953f	0.9554023
73	0x3f18e8a7	0.5973
74	0xbf94f88f	-1.1638354
75	0xbf020802	-0.5079347
76	0x3f9e4790	1.2365589
77	0xc002d405	-2.0441906
78	0xbe120695	-0.14260323
79	0xbe933cbc	-0.28757274
80	0x3f627220	0.8845539
81	0x3ec903ba	0.39260656
82	0x3e5dea5d	0.21671434
83	0xbf11b39f	-0.56914705
84	0x40356ffa	2.8349595
85	0xbe10bc9a	-0.14134446
86	0xbe9ab8ed	-0.30219212
87	0xbec9b35e	-0.3939466
88	0x3f8b1bc6	1.0867851
89	0xbfaf9fcd	-1.3720642
90	0xbeab1a40	-0.33418465
91	0x3e96059d	0.29301158
92	0xbfaa9b2f	-1.3328608
93	0xbed8f9fc	-0.42378223
94	0x3f9e837f	1.238388
95	0x3f8f2860	1.1184196
96	0xbe923601	-0.28556827
97	0x3f8db8f9	1.1072074
98	0x4003d712	2.0600019
99	0xbfacb286	-1.3491981
100	0xbe3cfad8	-0.18455064
101	0x3f7e9aa0	0.9945469
102	0xbdb0243b	-0.086006604
103	0xbf0e910f	-0.5569009
104	0xbf29d783	-0.6634447
105	0xbe9867c3	-0.29766664
106	0xbf38b6c3	-0.7215387
107	0xbf136d7a	-0.5758892
108	0xbf28df31	-0.65965563
109	0xbec77d1e	-0.38962644
110	0xbf144e24	-0.57931733
111	0x3edab069	0.42712715
112	0x3d2a45ee	0.041570596
113	0xbeb59701	-0.3546677
114	0xbf670294	-0.9023831
115	0xbf84c141	-1.0371476
116	0xbf249a77	-0.64298195
117	0xbdab5e34	-0.08367577
118	0x3f470bf0	0.7775259
119	0xbf0c2f8c	-0.5476005
120	0xbf1b457e	-0.6065291
121	0xbdddbea3	-0.10827377
122	0x3f31c5db	0.6944253
123	0x3f58869d	0.84580404
124	0xbf2dbfd6	-0.67870843
125	0xbeb0edfd	-0.3455657
126	0x3f682b9a	0.9069153
127	0xbfbf2fe3	-1.4936489
128	0xbef8fec1	-0.48631862
129	0xbf057d98	-0.52144766
130	0x3fa8774c	1.3161407
131	0x3e9d42dc	0.30715072
132	0x3e44f1ed	0.19232912
133	0xbec4c440	-0.38430977
134	0x3ff80085	1.9375159
135	0xbe00f711	-0.12594248
136	0xbe98754f	-0.29777
137	0xbe7492e1	-0.23884155
138	0x3f6cf7ae	0.9256543
139	0xbeb8c693	-0.36089
140	0xbf210a3a	-0.6290623
141	0x3f07e11f	0.5307788
142	0xbfb717dd	-1.4304157
143	0xbec6e373	-0.38845405
144	0x3fb2891a	1.394809
145	0x3f883624	1.0641522
146	0xbe0139b4	-0.12619668
147	0x3fa77daf	1.308523
148	0x3fcd9ee1	1.6064111
149	0xbf9f47d7	-1.2443799
150	0xbe175ce6	-0.14781532
151	0x3f9ea3a4	1.2393689
152	0xbd56d782	-0.052451618
153	0xbf7655bf	-0.9622459
154	0xbe87bdee	-0.26512092
155	0xbeca80ec	-0.39551485
156	0xbf05e04b	-0.5229537
157	0xbedc0e34	-0.42979586
158	0xbed28278	-0.41115165
159	0xbe799bb6	-0.24375805
160	0xbf4e11c1	-0.8049584
161	0x3f208423	0.62701625
162	0xbdb0c946	-0.0863214
163	0xbf383efd	-0.7197111
164	0xbf7d4f0a	-0.9894873
165	0xbf998345	-1.1993185
166	0xbe545ab2	-0.20737723
167	0xbf00d7cc	-0.5032928
168	0x3f1e5795	0.6185239
169	0xbef5440a	-0.47903472
170	0xbf2ee02d	-0.68310815
171	0xbf0c57a3	-0.54821223
172	0x3f819d57	1.0126141
173	0x3f049822	0.51794636
174	0xbe6826b6	-0.22671017
175	0xbdb0bff0	-0.08630359
176	0x3f97d7a0	1.1862679
177	0xbfa398ce	-1.2781007
178	0xbefc5177	-0.49280903
179	0xbed4ba8b	-0.4154857
180	0x3f5ff55a	0.8748375
181	0x3f126d6d	0.5719822
182	0xbe7fc170	-0.24976134
183	0xbf42718d	-0.75954515
184	0x3ff61dc9	1.922784
185	0xbec064c6	-0.37576884
186	0xbebaaee0	-0.36461544
187	0xbf148980	-0.5802231
188	0x3f825a98	1.0183897
189	0xbea00b98	-0.31258845
190	0xbf56df82	-0.83934796
191	0xbc83b827	-0.016079022
192	0xbf84b94e	-1.036905
193	0xbe248ed1	-0.16070105
194	0x3f6ae80f	0.91760343
195	0x3f4771b6	0.77907884
196	0xbeaeba7e	-0.34126657
197	0x3fc9d161	1.5767022
198	0x3ffb5ae4	1.9637113
199	0xbf9a0493	-1.2032646
200	0xbf068495	-0.52546054
201	0x3f3abdc7	0.7294583
202	0xbeda7c2c	-0.4267286
203	0xbdc308dd	-0.09523175
204	0xbebdc1cd	-0.3706192
205	0xbece4574	-0.40287364
206	0xbf2241a0	-0.63381386
207	0xbe95fdc7	-0.2929518
208	0xbf34a414	-0.70562863
209	0xbf01a67f	-0.5064468
210	0xbe271538	-0.16316688
211	0x3edc6793	0.4304777
212	0xbd761c72	-0.06008572
213	0xbf0eee95	-0.558328
214	0xbf8c90b3	-1.0981659
215	0xbfa51842	-1.2898028
216	0xbf061a0d	-0.523835
217	0xbece08b4	-0.40241015
218	0x3f471cb4	0.7777817
219	0xbe2800e6	-0.16406593
220	0xbe25c9d3	-0.16190271
221	0xbf1272fa	-0.5720669
222	0x3f870ee7	1.0551423
223	0x3ed153c1	0.40884212
224	0xbf350515	-0.7071088
225	0xbd39bca3	-0.045345914
226	0x3fa2a3bf	1.2706221
227	0xbf8f4d59	-1.119548
228	0xbf00a60a	-0.50253356
229	0xbe20d664	-0.15706784
230	0x3f8a1f20	1.0790749
231	0x3e7b6be6	0.24552879
232	0xbd99812b	-0.0749534
233	0xbf06c157	-0.52638763
234	0x4020761d	2.507209
235	0xbe9dfa59	-0.30855063
236	0xbe870443	-0.2637044
237	0xbf177d5e	-0.5917567
238	0x3f83980b	1.0280775
239	0xbe9cb6ed	-0.3060831
240	0xbf544494	-0.8291714
241	0x3eeefe60	0.46678448
242	0xbf93c651	-1.1544896
243	0xbd820b91	-0.06349862
244	0x3f970abc	1.1800151
245	0x3f8450de	1.0337179
246	0xbee90944	-0.45514882
247	0x3fc0176e	1.500715
248	0x3fd2e7c7	1.6476983
249	0xbf82b13d	-1.0210339
250	0xbf0eb975	-0.55751735
251	0x3f938416	1.1524684
252	0xbe9361e8	-0.28785634
253	0xbebab506	-0.36466235
254	0xbf1d3817	-0.6141371
255	0xbeca2be0	-0.394866

fc_out.bias f4 [10]
0	0xbe5aa2b5	-0.2135113
1	0xbea7ac87	-0.32748815
2	0xbef49f1d	-0.47777644
3	0xbe8b166c	-0.27165544
4	0xbf06d842	-0.52673733
5	0xbeaa9de4	-0.33323586
6	0xbe76b6b9	-0.2409314
7	0xbf118a30	-0.5685148
8	0xbec96122	-0.3933192
9	0xbeda6e72	-0.42662388
