models/O2_271828.pt (torch_old, 3768 bytes, 4 tensors)

fc1.weight f4 [50, 4]
00000000: 76ff cdbe 6a81 c63e c20c ddbd 7f76 863f
00000010: 6eab 413f c173 aa3f 48d3 ff3f 7fa1 cc3e
00000020: facd 743f cf10 503e 68ce 4f40 dcd9 aa3f
00000030: bb4c 2ebf 1d2b 1f3f f040 0fc0 82d5 85bf
00000040: 5883 ec3f 025d f1bf 5d93 e83f 26b2 bc3f
00000050: bfac 0140 ed0e f9bf 5a44 61be 2504 df3f
00000060: d7b4 9abf 40cd 14bf d198 f9bf 7529 0d40
00000070: b6a7 83bf 9db1 70bf 8cfe d0bf 5e7a f33f
00000080: 3bb6 7d3f 7384 b63d 0d1f 2dc0 2aa1 dd3f
00000090: 6f18 5f3f 219b bebf 770f 223e 04b0 f1bf
000000a0: 887c 0fbf e7ed 3b3e 546f 9cbf 1540 f93f
000000b0: 8f20 58bf 762b 303f 4c79 19bf 3577 68bf
000000c0: 614d 75bf 6e95 59bf d830 c6bf 6f50 f33f
000000d0: 99ea a13e 1492 0abf e7db 1cc0 5472 e93e
000000e0: fe79 673f 7630 71bf 0e5e 083f f6e0 ed3f
000000f0: 9c5a e53f 54e2 e6be 9a86 0b3f 9fca 2240
00000100: 245d 3b3f 1a21 3cbf aab1 423f 744a 913f
00000110: b52a bfbf b919 823f 98ae 9dbf f29e 20bf
00000120: f535 14be f535 143e 8efd 6d3d 6db6 323d
00000130: 28b8 993f e7a0 c2be e667 203f b621 843f
00000140: 3bbe 94bf 28c8 a13f 4982 74be fdbd 5d3f
00000150: 13b7 a63f d245 f4bf b86a 2140 f4a8 c93f
00000160: 7b4a 81bf 49a5 bfbe 0e29 69bf 6623 c33f
00000170: 6b97 a63f 545c 9ebf 6174 1d3f 259b 3b40
00000180: dba9 e23f 239e 97bf 2bdc c63f 2be3 aa3f
00000190: e0a2 323e 79d5 b03f 80b9 ec3e bc8d c63f
000001a0: 5c09 c83f 5f92 a1bf e39d 14bf 6c28 b83f
000001b0: 2bff 89bd 88f6 893d fd65 dc3c 3346 943c
000001c0: 725d 173f d3ce 3c3f 4fe3 e1bf 1961 96bf
000001d0: bd35 74be 4a3c 583e 83cc 2bc0 ad0e bcbf
000001e0: 52a5 8e3e 26a4 9a3f 1f01 6b40 d0aa 023f
000001f0: 25f5 abbe 04a5 693f d5ac 13c0 b61e e3be
00000200: cb0e debe 0186 1ebf b6b2 f8bf 57ab 0840
00000210: 8d4b dd3f a2fe 1cc0 a4d0 53bf 5175 a4bf
00000220: d989 bd3f fd5b 90be 8ea0 ff3e 1548 0040
00000230: 6895 d0be d2a8 4e3e cb11 febf 61c8 8abf
00000240: 68c8 ca3f c66c 2ebf cf80 063f 70c2 2e40
00000250: dbbe 803e 6d4a e1bf 2b06 0640 a850 b83f
00000260: e8b4 cf3f c951 84bf 2cbb b33f 9a8b 0f40
00000270: 7758 0340 5f60 95bf f735 5bbf a12d 7a3f
00000280: 3b81 7fbd cf95 3c3d a2f6 87bf e642 31bf
00000290: 847a 5abd cde9 edbf 96d8 023f 1bc0 f43f
000002a0: 49cb bfbf 976a 743e 096f e73f 3879 24bf
000002b0: c8f0 b93f aac6 0dbf ddad 093f 2fa7 1240
000002c0: 7d11 efbf 230b 983f 69b3 90bf 1d7b f13f
000002d0: 7839 2b3f a191 c8bf c1dc a63e cd1d 1040
000002e0: 8e73 9dbc 02c8 d13e e006 cb3f 69c4 783e
000002f0: 6f6c 693f bfaf 9ebf 56bd ec3f 99a0 d03f
00000300: 04c2 f53e 1910 06c0 49fb 9f3f 4f26 c83f
00000310: 0ee0 c9be 51eb bbbd 17fc 123f d03b 513f
-0.40233964 0.3877061 -0.10793449 1.0504912 0.75652206 1.3316575 1.9986353 0.39966962
0.95626795 0.20318912 3.246973 1.3347735 -0.6808583 0.6217516 -2.2383385 -1.0455782
1.8477583 -1.8856509 1.8169972 1.4741867 2.0261686 -1.945768 -0.2199873 1.742314
-1.2086438 -0.58125687 -1.9499761 2.2056553 -1.0285556 -0.94021016 -1.6327682 1.9021719
0.99106187 0.089119814 -2.7050202 1.7314808 0.8714666 -1.4891092 0.15826212 -1.8881841
-0.56049395 0.18352471 -1.2221475 1.9472681 -0.8442468 0.68816316 -0.5995071 -0.90806895
-0.95821196 -0.84993637 -1.5483656 1.9008921 0.31624296 -0.5412915 -2.4509218 0.45595038
0.9042052 -0.9421457 0.53268516 1.8584278 1.7918277 -0.4509455 0.5450226 2.543617
0.73188996 -0.7348801 0.76052344 1.1350846 -1.4934908 1.01641 -1.2318907 -0.6274253
-0.14473708 0.14473708 0.058103137 0.043631006 1.2009325 -0.38013384 0.62658536 1.0322788
-1.1620554 1.2639208 -0.23877825 0.86618024 1.302462 -1.9083807 2.5221386 1.5754685
-1.0100855 -0.3743079 -0.9107827 1.5245178 1.3014959 -1.2371926 0.61505705 2.9313443
1.7708086 -1.1845134 1.553594 1.3350576 0.17444944 1.3815147 0.46235275 1.5512004
1.5627856 -1.2622794 -0.58053416 1.4387336 -0.067381226 0.06736475 0.0269041 0.01809988
0.5912696 0.7375309 -1.7647494 -1.1748382 -0.23848625 0.21116748 -2.6843574 -1.4691979
0.27860504 1.2081344 3.6719434 0.5104189 -0.33585468 0.9126742 -2.3074238 -0.44359368
-0.4337066 -0.61923224 -1.9429538 2.1354578 1.7288681 -2.4530416 -0.82740235 -1.2848302
1.4807693 -0.2819518 0.4992718 2.0043995 -0.40738988 0.20181587 -1.984918 -1.0842401
1.5842409 -0.68134725 0.52540296 2.7306175 0.2514561 -1.7600838 2.0941265 1.4399614
1.6227083 -1.0337459 1.4041495 2.2428956 2.0522745 -1.1670035 -0.8562922 0.97725874
-0.062379103 0.046041306 -1.0622141 -0.69242704 -0.053339496 -1.8586975 0.51111734 1.9121126
-1.4983913 0.23868786 1.808076 -0.64247465 1.4526606 -0.5538126 0.5378092 2.291454
-1.8677212 1.1878399 -1.1304752 1.8865696 0.66884565 -1.5669442 0.32590297 2.251819
-0.01922014 0.40972906 1.5861473 0.24293675 0.9118108 -1.2397383 1.8495281 1.629901
0.47999585 -2.0947325 1.2498561 1.5636691 -0.39428753 -0.091757424 0.5741591 0.8173189

fc1.bias f4 [50]
00000000: 25bc 1e3f fcba c43e 0baf d23f 3ad3 39bf
00000010: e644 ab3f f7e4 ed3f cee1 893f 864f 8e3f
00000020: a1cc 2a3f cd42 babf 8b37 9c3f 95a3 733d
00000030: b541 793f 1d8d 4c3f d183 0640 614c cc3f
00000040: a7fe 963f 47d4 7bbc 6d69 323d 2a86 c13f
00000050: 2fde a03e 0b43 2440 1a45 783f 017b de3f
00000060: 80bd 3540 1282 dd3e a183 d13f 7193 d43c
00000070: 8d4d 73be 522e 2dbf 5672 823f dd6b 4c3e
00000080: 343d 6b3f cb83 5abf c467 973f ee6d c9be
00000090: f632 b93f ae45 0c40 09c6 c93f 1126 e93f
000000a0: 3bab 12be 1f46 e13f 47c5 4bbf f504 d03f
000000b0: 71c5 873f 17f6 fc3f b1e3 8b3e a782 0140
000000c0: 3ac4 0240 d4a0 433e
0.62005836 0.38423908 1.6459669 -0.7258793 1.3380401 1.85855 1.0772035 1.1118019
0.6671849 -1.4551636 1.220445 0.059482176 0.97365886 0.7990282 2.1017954 1.5960809
1.1796464 -0.015370435 0.043557573 1.5119069 0.31419513 2.566592 0.9698044 1.7381288
2.8396912 0.43263298 1.6368295 0.025949212 -0.23760052 -0.67648804 1.0191143 0.19963022
0.91890264 -0.8535735 1.1828542 -0.39341682 1.4468677 2.191753 1.576356 1.8214742
-0.14323132 1.7599524 -0.79597896 1.6251513 1.0607129 1.9762601 0.27322152 2.0235994
2.0432267 0.1910432

fc_out.weight f4 [10, 50]
00000000: fc44 b3bd 3fb5 8c3f c21a debf c08a f4be
00000010: 4907 0d3f 7d0a 93be 8014 73be 9aed 48be
00000020: a185 b1be c511 ab81 d508 28be aa13 2b3e
00000030: f734 e0be 04c8 09bf a9d2 f73f 5c2f c93f
00000040: 6a1e efbf 5efa 9cbe 51b8 33be d9e0 0ec0
00000050: f9d4 babe d5cc 81be 43d8 bebe cb8e f23f
00000060: cc26 74bf 404c 943d 524d 05c0 276d 41bd
00000070: eade 67bf d9c5 73bf 2b29 12bf a306 aebe
00000080: 1df5 20bf 0569 41bf 8488 943f 8179 13bf
00000090: 0bbb ce3f 8121 91bf 6c8f e1bf 45b3 0dbf
000000a0: e56c 33bd f74b f53f f3bb 9001 2285 0540
000000b0: 50ce 1cbf e5e1 853f c271 3b3f d9cb 8bbf
000000c0: a189 71bf 5ef1 2dbe f239 e93c 3d9b 473f
000000d0: 342f 9cbf 2350 b4be f039 6c3d 2088 44bf
000000e0: a7cb 0bbf c385 12bf 6e9d 18bf debd 4202
000000f0: d3ff 49be e9e8 403d 5e1d 0bbf 2c81 07bf
00000100: 935f d53f f50d c73f 3bdb 8abf 4634 4dbe
00000110: 4f4f c3bd 2ab7 88bf 0870 4ebd 9db2 0ebf
00000120: f141 2fbf ad0b d33f 3005 a7bf fc7e febd
00000130: 84d5 27bf 3275 4ebd b63b f43c 8d24 f5be
00000140: e9e0 13bf 6a30 9dbe 682c 08be 6c76 cbbe
00000150: e0f6 713f d572 4abe 14f3 b53f ab94 95bf
00000160: b118 99bf 3e5d 4ebf a7b8 f53c 3214 f83f
00000170: 3a20 8081 4919 f73f ab97 0fbf d7c7 b83f
00000180: 26ca 2e3f ecd7 8abf 76ba 89bf 1945 113e
00000190: 4fe6 99be c893 e13f 67c1 9ebf 10c6 27bd
000001a0: dbb6 c4bd 35ab 8cbf 80d4 17bf 2d7e c0be
000001b0: 6bf4 38bf ece2 f1bb 9ca6 09bf 63ec f23d
000001c0: 7347 52bf 782f 1bbf e328 ed3f 6e53 be3f
000001d0: b587 8bbf 5124 e7bd 9fdf 0bbd b086 80bf
000001e0: 3c4a 2cbe 32ba 35bf c6a3 24bf 90e8 fe3f
000001f0: 643a 9fbf d7a3 363e cb69 68bf a218 4bbd
00000200: 5248 6cbd b4e2 b9bd 55d5 a4bf 736f 983c
00000210: d7ce d2be 3508 43be f0cb 353f fe86 15be
00000220: d73a 0140 e835 a9bf 71dd 80bf fc97 f0be
00000230: 9d0b a3bb 5013 c43f d59d 4d3f 64c7 0d40
00000240: 4671 b7be 3331 d53f 4fba 943f a23c 9dbf
00000250: d0e4 98bf fa82 503d 8e79 5dbe 90d7 593f
00000260: 5125 9bbf 830c 36bd 23ac 22be 2346 19bf
00000270: 7f7c 19bf bf8f 08bf 49de 57bf 3afc 7802
00000280: 27c5 a1be 31f0 f582 9ba7 a2be 430f 0dbf
00000290: 5e79 a63f 7049 d83f 7711 3dbf 4c6f 8100
000002a0: 85fb 15be ecb4 cdbe 9024 02bf c753 84bf
000002b0: 57c0 3dbe 5b62 ce3f 48b9 5ebf 5ac9 20be
000002c0: 9429 37bf 2156 92bd ca1f 68be be25 7bbf
000002d0: e11b 04bf f694 0bbe 4d5d b1be 1d26 3ebf
000002e0: 8955 b33f 2dc8 07bf b0f9 c43f 7d8a 7bbf
000002f0: 3426 9bbf a926 37bf 866c dcbd ecde c53f
00000300: cd42 ecbb a736 d13f 5a86 fabe 2095 b33f
00000310: abc5 d43e b182 89bf 61c5 83bf 56db b1be
00000320: ec58 e6be 0a09 9d3f d57e 88bf 7254 80aa
00000330: 7d6c 47bf bb8c 68bf 4c0e 1ebf 6208 12bf
00000340: 9fff dbbe d022 d080 b75f 1cbf 865c fc82
00000350: f7c4 c9be 9eb2 41bf 9ffd 9f3f d385 d43f
00000360: 2c54 efbe 4e76 0883 4b44 aabc 6259 80be
00000370: c621 32bf 359f 6fbf e19b 93be c1d4 f63f
00000380: bb48 84bf d042 d3be cd64 c1be 5575 a9bc
00000390: 00f8 53bf ffdb ebbe fd73 63bf 3adb acbd
000003a0: 6202 9cbe 525b 25bf b831 973f 5881 81be
000003b0: 7293 c63f cc2b 6dbf 95dc 35bf 0da6 38bf
000003c0: a285 78bd 0e60 b63f d217 2203 f71e b83f
000003d0: fd14 b0be 3fb6 b53f cdc8 213f 1eab 83bf
000003e0: 5ed8 82bf 1fd7 833c c1f9 d93a f403 be3d
000003f0: 1d13 82bf d3b3 2ab7 d0de 02bf 99dd 61bf
-0.08753392 1.0992812 -1.7351916 -0.47762108 0.5508924 -0.2871894 -0.23738289 -0.19621888
-0.34672263 -6.284098e-38 -0.16409619 0.1670672 -0.4379041 -0.53820825 1.9361163 1.5717578
-1.8681157 -0.30659765 -0.1755078 -2.2324736 -0.3649061 -0.25351587 -0.3727437 1.8949827
-0.953717 0.07241106 -2.0828443 -0.047223236 -0.90574515 -0.95223767 -0.5709407 -0.33989438
-0.62874013 -0.7555087 1.1604161 -0.57607275 1.6150831 -1.133835 -1.7621894 -0.5535167
-0.04380502 1.9163808 5.316694e-38 2.0862508 -0.6125231 1.0459563 0.73220456 -1.0921584
-0.9435063 -0.16986606 0.028470013 0.7797125 -1.2201905 -0.3521739 0.05767244 -0.7677021
-0.54607624 -0.57235354 -0.5961522 1.4307358e-37 -0.19726495 0.04709712 -0.54341686 -0.52931476
1.6669792 1.5551134 -1.0848154 -0.20039472 -0.09536611 -1.0680897 -0.05039981 -0.5574129
-0.68459994 1.6487938 -1.3048458 -0.12426564 -0.65560174 -0.050404735 0.029813629 -0.4787945
-0.5776506 -0.30701 -0.1329819 -0.39738786 0.94517326 -0.19770367 1.4214807 -1.1685995
-1.196066 -0.80611026 0.029995276 1.9381163 -4.7066017e-38 1.9304591 -0.560908 1.4435986
0.68277204 -1.0847144 -1.0760028 0.14186515 -0.30058524 1.7623224 -1.2402772 -0.04096037
-0.096051894 -1.0989748 -0.59308624 -0.37596264 -0.7224795 -0.0073817875 -0.5376985 0.118614934
-0.8214027 -0.60619307 1.8528103 1.4869211 -1.090079 -0.11286224 -0.03414881 -1.0041103
-0.16825193 -0.70987236 -0.643124 1.9914722 -1.2439694 0.17835937 -0.9078643 -0.04958404
-0.057686158 -0.09076443 -1.2877604 0.01860783 -0.4117343 -0.190461 0.7101431 -0.14602277
2.0192163 -1.3219576 -1.0067579 -0.46990955 -0.0049757496 1.5318394 0.8031896 2.2152948
-0.35828608 1.665564 1.1619357 -1.2284129 -1.1944828 0.05090616 -0.216284 0.8509455
-1.2120763 -0.044445526 -0.15885977 -0.59872645 -0.5995559 -0.5334434 -0.84323555 1.8292548e-37
-0.31595728 -3.6137378e-37 -0.31768498 -0.5510141 1.3005788 1.6897411 -0.73854774 1.1886705e-38
-0.14646728 -0.40177095 -0.5083704 -1.0338067 -0.18530403 1.6123766 -0.87001467 -0.1570181
-0.7154782 -0.07145334 -0.22668377 -0.98104465 -0.5160504 -0.13631043 -0.34641495 -0.74276906
1.4010478 -0.5303982 1.5388699 -0.9825819 -1.2121034 -0.71543366 -0.10762887 1.5458655
-0.0072101117 1.6344804 -0.48930627 1.4029884 0.4155706 -1.0743009 -1.029461 -0.34737653
-0.44989717 1.2268384 -1.0663706 -2.2795963e-13 -0.77899915 -0.9083974 -0.61740565 -0.5704404
-0.4296846 -1.9114272e-38 -0.6108355 -3.7081178e-37 -0.39408085 -0.75663173 1.2499274 1.660334
-0.46743906 -4.0102615e-37 -0.020784518 -0.25068194 -0.69582784 -0.93602306 -0.28829864 1.9283677
-1.0334696 -0.4126191 -0.37772217 -0.020685831 -0.8280029 -0.4606628 -0.8884886 -0.08440252
-0.30470568 -0.6459247 1.1812048 -0.25293994 1.5513747 -0.92644954 -0.71039706 -0.72128373
-0.060674317 1.4248064 4.7634866e-37 1.438445 -0.34391013 1.4196242 0.6319702 -1.0286596
-1.022228 0.016093789 0.0016630219 0.09278098 -1.0162083 -1.0174658e-05 -0.51121235 -0.88228756

fc_out.bias f4 [10]
00000000: 32f1 44bd 5327 3cbe 1301 03bf 0fc2 abbe
00000010: 8ef1 dbbe aad5 c3be d27e 23bf 78c2 edbe
00000020: 93e0 ebbe 6da3 e1be
-0.048081584 -0.18374376 -0.51173514 -0.33546492 -0.4295773 -0.3824895 -0.6386539 -0.4643743
-0.46069774 -0.44069996
