models/O2_4271031.pt (torch_old, 3816 bytes, 4 tensors)

fc1.weight f4 [50, 4]
00000000: e70a a83f a486 0bc0 da9b bc3f 7408 f03f
00000010: de5f 9e3f 99bd 9ebf 2124 b63f e0d6 d73f
00000020: 1de8 b8bf 2597 a33f 5f90 9e3f 67cd 93bf
00000030: e1af f93e 9bf1 0440 b0be 0540 0559 18bf
00000040: 267d e33f 0e8f 00c0 29d1 883f 907f a93f
00000050: b81d 02bf ee28 11bf fe12 ddbf f63b c73f
00000060: 2ea6 993c 816c adbe 405e 77bf 7a0c 513f
00000070: 5146 38bf 0363 853f 6bc5 4bbe fff6 c63f
00000080: 8f6c af3f 44d8 acbf 57fc 173f 63ae 4240
00000090: 2341 a7be 9ec0 c6bf d8aa 16c0 7d8e e03f
000000a0: acf6 883f 8cd8 b8bf e100 79c0 3f56 a93f
000000b0: a0d6 98bf 81b6 2d3f 5762 b8bf 3474 42bf
000000c0: 7d2e dd3f 85e0 943e 9db4 e53e 92f9 f03f
000000d0: f0bb 983f 32d5 d7be 4ac1 0e3f 826f f73f
000000e0: 68a2 ddbd e15b c8be 3c46 f8bf 3c60 b83f
000000f0: e83b 20bf f4e1 7cbf ebf7 6140 582f c93f
00000100: 1a72 cb3f 9872 52bf 65f8 a43e eee8 2a40
00000110: b216 80bf 90af c63f 6da1 7a3f af36 9ebf
00000120: d2d6 a3bf fa72 0e3f 9dfa 7cbf fcd5 edbe
00000130: 27c8 893f 405e 87bf 2de4 b13f 074a ec3f
00000140: 0c0a 983f 411e b53e 5969 e2bf 4cba c33f
00000150: c9a7 dc3f 2a11 fcbe 5d6f 1a3f 56a3 2a40
00000160: 0647 003f 27d5 c7bf 9ed2 3740 f4b4 b63f
00000170: 6a0e a2bf 1cab b63f 5d52 c4bf 86c1 c93d
00000180: ddcd 383e 8f55 b0bf c72d d53e 699d cf3f
00000190: 0416 273f b11d 22bf af5a d73e 5e08 b73f
000001a0: 39b9 193e ba2f 753f 64a7 febf 6445 8e3f
000001b0: 53e0 983f b496 8cbf c237 bc3e 2c41 1e40
000001c0: 4345 97bf f0e7 683f a46b b4bf 4883 17bf
000001d0: eb0f 68bf 9ef8 943d 136a 78bf 0f77 f23f
000001e0: 0a90 fa3e 944b 6cbf a8a0 0840 7376 be3f
000001f0: db23 3f3f 1262 f23e 5be2 0fc0 3ca6 0d40
00000200: a7bd 73bf fffb 043f efb9 0dc0 529f 73bf
00000210: 6dc4 c93f 4e96 f2be bd95 4640 5b03 e33f
00000220: 4316 c9bf a488 be3e d8af 1ac0 77e8 79bf
00000230: 6606 0cbe 5238 833f 01f7 48bf 04a8 a23f
00000240: 8d05 adbf 7fff a43f b684 1bbf ba88 ae3f
00000250: 11d2 1740 45f3 15c0 30ce d3bf 67ac c73f
00000260: 4451 c93f f4b0 08be 156c ed3e c99b 0240
00000270: dc09 973f 0dfd fdbf 3e4f d53f 2eef 0740
00000280: b1fd b73f 9aab cebf 762b 99be b3f5 2d40
00000290: f7c5 7cbf 084d 9c3f bf27 4b3e 92ca 233f
000002a0: 69e0 df3f 6991 02c0 e915 853f 1973 443f
000002b0: 071a 913f ca2e d2bf e61f 7b3e 05bd 0240
000002c0: 239a 19bf 9faf 9ebd 3a56 0740 2faf 863f
000002d0: e5dd 433e 9bd5 9ebf 4f87 8d3e 211c c53f
000002e0: 71ea d73f b877 afbf f227 a0bf 6953 a03f
000002f0: 40c6 82bf 1276 1e3f 526c 0d40 210a 14bf
00000300: d69e 30bf c56f aa3f 6d57 be3d d764 9a3f
00000310: 1ecd db3f 0cad a33c cd7c fb3e 9af1 0e40
1.3128327 -2.1800928 1.4735062 1.875258 1.2373006 -1.2401611 1.4229776 1.686245
-1.4445835 1.2780501 1.2387809 -1.1547059 0.48766997 2.0772464 2.0897636 -0.59510833
1.7772567 -2.0087314 1.0688831 1.3242054 -0.508266 -0.5670308 -1.7271421 1.5565174
0.018755998 -0.33871844 -0.9662819 0.8165966 -0.71982294 1.0420841 -0.19899528 1.5544127
1.3705004 -1.3503499 0.59369415 3.0418937 -0.32666883 -1.5527532 -2.3541775 1.7543484
1.0700278 -1.4441085 -3.8906786 1.3229445 -1.1940498 0.67856604 -1.4405011 -0.7595856
1.7279812 0.29077545 0.4486436 1.8826163 1.1932354 -0.42154843 0.55763686 1.9330904
-0.10821992 -0.39132598 -1.9396434 1.4404368 -0.6259141 -0.9878228 3.5307567 1.5717573
1.5894196 -0.82206106 0.3222076 2.670467 -1.0006926 1.5522327 0.97902566 -1.2360438
-1.2799933 0.5564419 -0.98819906 -0.4645232 1.0764207 -1.0575638 1.3897759 1.8460091
1.1878066 0.35374644 -1.76884 1.5291228 1.7238704 -0.49231845 0.60326177 2.6662192
0.50108373 -1.5611924 2.87223 1.4273973 -1.2660649 1.4270968 -1.5337635 0.09851365
0.1804728 -1.377611 0.41636488 1.6219913 0.6526797 -0.63326555 0.42061374 1.4299428
0.15012063 0.9577595 -1.9894834 1.1114926 1.1943458 -1.0983491 0.3676129 2.4727278
-1.1818012 0.9097891 -1.4095349 -0.59184694 -0.9064929 0.072739825 -0.97036856 1.8942584
0.48938018 -0.92302823 2.1348057 1.4879898 0.74664086 0.47340447 -2.2481906 2.2132711
-0.9521126 0.51947016 -2.2144735 -0.9516498 1.5763069 -0.47380298 3.1028893 1.7735399
-1.5709919 0.37213624 -2.4169827 -0.9762034 -0.13674316 1.0251563 -0.785019 1.2707524
-1.3517319 1.2890471 -0.60749376 1.3635476 2.3721964 -2.342973 -1.6547298 1.5599488
1.5727925 -0.13348752 0.46371523 2.0407584 1.1799884 -1.984285 1.6664808 2.1239734
1.4374295 -1.6146119 -0.2991597 2.7181213 -0.9873957 1.2211008 0.1983938 0.6398097
1.749036 -2.0401251 1.0397311 0.76738125 1.1336068 -1.6420529 0.24523887 2.0427868
-0.6000082 -0.07748341 2.1146379 1.0522212 0.19127615 -1.2408937 0.27642295 1.5399209
1.6868421 -1.370841 -1.251219 1.2525455 -1.0216751 0.6189891 2.2097363 -0.57827955
-0.68992364 1.3315359 0.09294019 1.2062024 1.7171972 0.019979976 0.49118653 2.2334962

fc1.bias f4 [50]
00000000: 9ae3 2340 4248 1740 5acf 09bf 50c4 e1be
00000010: 9c48 4a40 c979 8f3f e40d 4e3f a709 fc3e
00000020: 6edf d93f e6dd 233f c439 3e3e 6d01 5ebe
00000030: 164a 363f a427 953f 0b59 613f 3f20 c43f
00000040: 24f4 b43f 8465 17bf c69e 75be d6d1 cd3f
00000050: 845a 8d3f 9b02 9f3f ce98 5540 4971 84be
00000060: a789 cf3f 282a a43f 1223 083f 187d b13f
00000070: cfa1 fabe 1c2c 653f b5aa d83f f834 773f
00000080: 28de 89bf cc35 0640 6fc5 9abf 9e88 b33e
00000090: 91df ed3e 8316 e23f 1562 a43f 06e0 3440
000000a0: dbec fe3f f092 8a3f 97e4 1940 08ff 8c3f
000000b0: b413 a93e 9e4a 873f 673a ae3f 2350 38be
000000c0: f8ef 093f 58b6 343f
2.5607667 2.3637853 -0.5383202 -0.44095087 3.1606817 1.1209041 0.80489945 0.49226114
1.702131 0.64010465 0.18576723 -0.21680231 0.71206796 1.1652722 0.88026494 1.5322341
1.4137006 -0.59139276 -0.23986349 1.6079662 1.1043248 1.242267 3.3374515 -0.2586768
1.6213883 1.2825365 0.53178513 1.38663 -0.48951575 0.8952043 1.6927096 0.965652
-1.0770922 2.0970335 -1.2091502 0.35065168 0.4645963 1.766312 1.2842432 2.8261733
1.9916033 1.0826092 2.404577 1.1015329 0.33022845 1.0569646 1.3611573 -0.1799932
0.5388179 0.70590734

fc_out.weight f4 [10, 50]
00000000: fe12 1abe f911 94bf 6c9b be3f c235 843f
00000010: ce99 113e 6000 2cbf 9ba3 93be 9511 31be
00000020: 1ab2 c53f 29d1 3cbf bc2a 82bf a9ff 37bf
00000030: 2f9e dd3f 2d12 c43f 3cfd 29bf c171 fabf
00000040: 79a8 ad3f 8b4b 703f faa3 01bf 2e4c 36c0
00000050: 8ed1 f8be 0888 ea3f 8e6f 99bf 509e d7be
00000060: 56e6 e53f f13e d23f 6c8d 79be 852f 903f
00000070: cb19 0fbf c0ce c3bb 7d19 0dc0 03fa 2cbe
00000080: b4d9 3bbf 6627 b9bf ca7a e9be e435 07be
00000090: 2074 82bd c678 2dbf 60d8 f23f 5844 dbbf
000000a0: e39b a33f 3d7c f5bd 9b90 953f a4f2 02c0
000000b0: 38db c13f 314d 283f 2d52 fdbf 44ef 4e3f
000000c0: 7885 a2be 88bc bd3f 0df7 81bf 2a49 8ebf
000000d0: 6dd6 673c 8cc1 363f 6cf7 11bf f163 64be
000000e0: 9483 56be 16fe acbe 8050 c93f 60f7 edbe
000000f0: 0efc 97bf 1c01 99be 13c5 b13f 5967 993f
00000100: 617c b7be d07d 7ebf d779 a63f 8051 c702
00000110: db53 06bd b62f 93bf 2b61 36bf 2f74 853f
00000120: e35c 80bf b38e fbbd 6156 ac3f 8aa0 953f
00000130: cb6d 91be 4150 6d3f 9802 b0be 63d1 86be
00000140: ec5b a7bf 6f77 cebe a174 17be 6161 9dbf
00000150: a37c 40bf 7360 d8bd 43cf e8be 82a1 1cbf
00000160: e76b d53f 9c61 98bf 98ce b73f e279 debe
00000170: 667c 21bd 8224 65bf 3b92 773f 1955 6d3f
00000180: 9da9 65bf dc91 103f b238 afbe c898 953f
00000190: e8b8 87bf d420 92bf ad89 633f 7377 b33f
000001a0: df91 76bf ba92 15bf ca08 d1be 0730 88bd
000001b0: 7931 d63f 626b 7abf 9277 bdbf 74ba 85bc
000001c0: 87c5 9c3f fc84 223e 9872 41bf adb9 d1bf
000001d0: 5ab2 d03f 8058 713f 833c 2fbe 738b b9bf
000001e0: cc47 e6be d031 d63f 4348 85bf 9511 7dbe
000001f0: 6b4e d33f 1768 b73f a333 7f3c ec90 d13f
00000200: ae27 acbe 27bc aebe 2059 88bf c5e8 ffbe
00000210: e42a afbd 706a 85bf d48f 8abc ab6c 09bf
00000220: 42f5 0cbf a0f4 31bf 96cb e63f c01d bfbf
00000230: 7ba5 ce3f edde 1cbd 22c7 153d 5fc5 5fbf
00000240: d243 f83e c72f 963f 8936 0ebf 1f17 973f
00000250: 9dea 97be 4f15 af3f 3343 5bbf 7730 86bf
00000260: c39d 6582 1a6e 2180 5c6d 63bf 4827 76be
00000270: 69fb 8fbe 881f abbd 05c9 d03f 0a42 18bf
00000280: 3eb5 91bf d3eb e5bd b1c5 a93f aaae 723f
00000290: a94f 13bf c36e 6dbf c7e6 843f 358e 0482
000002a0: f1f1 f5bc 420e 9abf a195 01bf 07ee 933f
000002b0: 8150 89bf 5cd6 13be 1188 ba3f f44d 8d3f
000002c0: 87e1 b3be e2ef ae3f 5fdc 03bf eb26 fcbd
000002d0: 2bd3 7cbf 8192 07bf 395b 6abe 326f 69bf
000002e0: 396c bebe 0523 afbe 4a84 c5be db80 69bf
000002f0: a2e4 c33f 636b b4bf c173 8e3f 569c b7be
00000300: 1d74 f8bc 0b10 bcbe 16cc 843d fb9f 8b3f
00000310: 3092 01bf fce7 573b 8a4a ddbe 676c ac3f
00000320: a138 42bf 24ef 79bf a989 2d82 f970 943e
00000330: cab7 9ebf 1b31 e8be e583 a4be d03c 8ebe
00000340: af59 b33f ee9c e0be 06ea 9bbf 5457 a4be
00000350: ce23 9a3f f536 1f3f 5dbf 0cbf 04b2 66bf
00000360: bfc5 b03f 846a 0702 616b 76be 5540 8ebf
00000370: 28b7 89be a078 cc3f fe85 6dbf be26 dcbe
00000380: d6bf 833f a7bb 9b3f dba4 80be 37a7 863f
00000390: 907a b2be 65ee 4abe 99d3 15bf 0d12 2dbf
000003a0: 2385 97bd a8b8 9cbf b9f6 b9be f6e2 ffbe
000003b0: 5306 04be 2a2e 43bf 3e1e c63f 30c7 a7bf
000003c0: e21c a13f 29a6 6dbe 47c9 b3be 8cc3 27bc
000003d0: 44fc 09bd fcc5 5b3f 299a 9cbe c185 c53e
000003e0: f748 afbe a257 a13f 0e0a 99bf 10c1 74bf
000003f0: 6028 e202 98a0 cc01 e385 77bf 06de a9be
-0.15046307 -1.1567985 1.4891181 1.0328906 0.14218828 -0.6718807 -0.2883576 -0.17291863
1.5444977 -0.73756653 -1.0169291 -0.7187448 1.7313899 1.5318047 -0.6640203 -1.9565965
1.3567039 0.9386527 -0.50640833 -2.8483996 -0.48597378 1.8322763 -1.1987169 -0.4211297
1.7960918 1.6425458 -0.24370354 1.1264502 -0.5589873 -0.0059755743 -2.2046807 -0.16892247
-0.73379064 -1.4465148 -0.45601493 -0.13204151 -0.06369805 -0.6776241 1.8972282 -1.7130232
1.2781948 -0.11986587 1.1684755 -2.0460596 1.5145025 0.65742785 -1.9790703 0.8083384
-0.31742454 1.482316 -1.0153519 -1.1116078 0.014150244 0.7138908 -0.5701816 -0.2230375
-0.2094863 -0.33787602 1.5727692 -0.46477795 -1.1873796 -0.2988366 1.3888267 1.1984664
-0.3583708 -0.99410725 1.3005933 2.92872e-37 -0.032794815 -1.1498935 -0.71242017 1.0426081
-1.0028347 -0.12283077 1.3463861 1.1689618 -0.28404078 0.9270058 -0.3437698 -0.26331624
-1.3074927 -0.40325496 -0.14790584 -1.2295343 -0.7519018 -0.10565271 -0.45470628 -0.6118394
1.6673554 -1.1904788 1.4359922 -0.43452364 -0.039425276 -0.8950883 0.96707505 0.92707974
-0.89711934 0.56472564 -0.34222943 1.168725 -1.0603304 -1.1416268 0.8888195 1.4020828
-0.9631633 -0.5842701 -0.40827018 -0.066497855 1.6733848 -0.97820103 -1.4802115 -0.01632426
1.224778 0.15871042 -0.7556548 -1.6384789 1.6304429 0.94275665 -0.17112927 -1.4495682
-0.44976652 1.6733952 -1.0412678 -0.24713738 1.6508306 1.4328641 0.015576276 1.6372352
-0.33624023 -0.34127924 -1.0652199 -0.49982277 -0.085531026 -1.0423107 -0.016914286 -0.5368144
-0.55061734 -0.69513893 1.803088 -1.4930954 1.6144251 -0.038298536 0.03656686 -0.8741054
0.48489243 1.173333 -0.55551964 1.1803931 -0.29671183 1.3678378 -0.8564941 -1.048354
-1.6869538e-37 -3.070068e-39 -0.88838744 -0.24038422 -0.28121498 -0.083556235 1.6311346 -0.5947577
-1.1383436 -0.112266205 1.3263456 0.94797766 -0.57543427 -0.92747134 1.0382928 -9.73864e-38
-0.030022593 -1.2035601 -0.5061894 1.1557015 -1.0727693 -0.1443724 1.4572774 1.1039414
-0.35133 1.3666956 -0.51508135 -0.123121105 -0.98759717 -0.5295792 -0.22886361 -0.91185296
-0.37191942 -0.34206405 -0.3857749 -0.9121224 1.5304148 -1.4095272 1.1129075 -0.35861462
-0.030328805 -0.3673099 0.06484239 1.0908197 -0.5061369 0.003294467 -0.4322093 1.3470582
-0.7586766 -0.97630525 -1.2749539e-37 0.2899244 -1.2399838 -0.45349964 -0.32131878 -0.2778077
1.4011744 -0.43869728 -1.2180793 -0.32097876 1.2042177 0.6219323 -0.549795 -0.9011538
1.3810347 9.948802e-38 -0.240644 -1.1113383 -0.2689755 1.5974312 -0.9278258 -0.42998308
1.0292919 1.2166642 -0.25125775 1.051978 -0.34859133 -0.19817503 -0.58526 -0.6760567
-0.07398441 -1.2243853 -0.36321047 -0.49977845 -0.12893037 -0.76242316 1.5477979 -1.3107662
1.2586939 -0.23207916 -0.351145 -0.010239493 -0.033687845 0.85848975 -0.30586365 0.3857861
-0.34235355 1.2604868 -1.1956193 -0.9560709 3.323089e-37 7.5168206e-38 -0.9668867 -0.33177203

fc_out.bias f4 [10]
00000000: bbe9 9dbd 9356 8ebe b8b6 bfbe f020 dcbe
00000010: 9164 f7be 4e58 37be 396b 12be 5a9d dcbe
00000020: 864e ddbe ecd7 31bf
-0.07710596 -0.27800426 -0.3744409 -0.4299388 -0.48318914 -0.1790478 -0.14298715 -0.430888
-0.4322397 -0.69470096
