models/O2_9849252.pt (torch_old, 3768 bytes, 4 tensors)

fc1.weight f4 [50, 4]
00000000: 509d 1b40 b021 14c0 fc87 4e3f 83bc e23f
00000010: 9d15 11bf 59d9 aa3f 5efc d73f efdb 2bbf
00000020: 27a0 87bf 524a 003f f786 08c0 d7b3 85be
00000030: e114 31bf b9e9 a9bc 7bd1 b8bf aca3 1640
00000040: 3486 6cbe 166a 513f 5ee7 6c3f fc42 47bf
00000050: f155 8b3f b11b fabf 4222 efbd 3499 27c0
00000060: 3218 1a40 ee33 17c0 fa27 3540 7fe0 0840
00000070: 2215 b3bf f9d0 363f 224f 97bf 7f3b 98be
00000080: 8d6b c93f e971 74bf 81b6 de3f 5a3e e73f
00000090: 2a5d e73f 04d0 87bf b4a6 9b3f 49f8 e43f
000000a0: f41d 53bf 2a01 b8be 2baf f1bf c623 e13f
000000b0: c638 6b3f d090 c7bf bdfe 0840 119b e93f
000000c0: a821 cabd dfa2 823e 65ab 05bd 682c e6bd
000000d0: 266f 24be 662c 873f 970c f83f c8f6 363f
000000e0: 365d 81be c9d3 fdbd 3d27 29c0 c91e 8ebf
000000f0: 983d be3e f145 00bf 9de4 24c0 4472 a73f
00000100: af06 b13f e8d4 2bbf 9622 153f bf44 ef3f
00000110: c511 923f 7a08 00c0 cb6c 4740 ee22 d43f
00000120: ee01 efbe 56a2 43bf e133 f0bf 496d d63f
00000130: 5794 e4be 82b4 a5bf e893 debf bff7 dfbe
00000140: 9920 583f c069 57bf 2917 013f 1b63 d93f
00000150: 1b8a e43f 9cb8 5ebf 42b9 383f 5105 3f40
00000160: cd9d d83d cd9d d8bd cc22 41bc 5cfd e63c
00000170: 0dbc b4be d787 463f 070a 5c40 9a43 d9be
00000180: efea e6bb 88ca 18bf f0a0 6e40 a122 c43f
00000190: b3c3 9cbf 2db1 983f 9b5e 25c0 ff51 d3be
000001a0: 9285 debe 8d4f 253f f45e b1be f554 c13f
000001b0: 9bb9 94be 701c 65bf f206 3c40 75fc 95be
000001c0: cbaf ae3e e19f b6bf 3bd1 683e 87d3 c63f
000001d0: 55a6 633f 74a0 babf 702e c63e 2108 0940
000001e0: 2aeb 22bf 7db8 583f 3955 bfbf a565 e53e
000001f0: e2a6 32bf 705c 4e3e c11c 133f f0f9 2fbe
00000200: d0e4 86bf 5860 053f fc27 1ec0 80cf 95bf
00000210: b168 80bf 3634 663f d969 a2be 2fef 423f
00000220: 6db1 9fbf 9252 303e d056 86bf 8b3e 6e3f
00000230: 98cc 363f dd64 97bf 4bb5 1f40 3065 dc3e
00000240: c85c 883f ee0e 2b3f 7a24 21c0 de8b 1a40
00000250: d54f 523f b393 51bf fd4f f93e 0c35 d43f
00000260: 8132 0d3f 4121 a5bf f3e4 0bbd 142f a73f
00000270: 98b0 ebbe 07fe c3bf 34fb 17c0 39c7 fc3f
00000280: 9e5d e83f 733a 24c0 df5b 39bf e03e 95bf
00000290: e1d6 51bf 11a2 d2be 6528 85bf a9be d53f
000002a0: f1f9 1dbf 78de c5bd 0c50 3640 23c1 1d3f
000002b0: 4cf4 ab3f 73d1 90bf 7caa 923e b1d1 1440
000002c0: 038c 1640 f25f 0fc0 1bdf 83bf f46c 983f
000002d0: 3ce3 833e 5530 473f fd47 b4bf e16d 0140
000002e0: 52c3 2fbf 8de1 d0bd ae6a e1bf 12e0 b5bf
000002f0: 599e 953f 03d8 ebbf 14bc a33d 1204 c13f
00000300: 38fc 3f3f ef9e e6bf f3fa 183f cd51 3040
00000310: b9ba 1ebf 1ae0 7fbf 5b58 50c0 b4b5 bfbe
2.4314766 -2.3145561 0.80676246 1.7713779 -0.56673604 1.3347579 1.6873891 -0.6713247
-1.059575 0.50113404 -2.1332376 -0.2611377 -0.69172484 -0.02074133 -1.4438928 2.3537397
-0.2309807 0.818025 0.9254054 -0.77836585 1.0885602 -1.9539701 -0.11676456 -2.6187258
2.4077268 -2.3625445 2.830565 2.1387022 -1.3990824 0.71412617 -1.1821024 -0.29732892
1.5735947 -0.95486313 1.7399446 1.8065903 1.8075306 -1.0610356 1.2160249 1.7888271
-0.8246758 -0.35938388 -1.8881582 1.7589042 0.91883504 -1.5591068 2.140548 1.8250448
-0.09869701 0.25514886 -0.032634158 -0.112389386 -0.16058025 1.0560424 1.9378842 0.7147031
-0.25266427 -0.123939104 -2.64302 -1.1103145 0.37156367 -0.5010672 -2.5764534 1.3081746
1.3830165 -0.67121744 0.582559 1.8692855 1.1411673 -2.0005174 3.1160152 1.657316
-0.4668116 -0.7641958 -1.8765832 1.6752101 -0.44644424 -1.2945712 -1.7388887 -0.43743703
0.8442474 -0.84145737 0.50425965 1.698337 1.7854646 -0.8700044 0.7215768 2.9846995
0.10576973 -0.10576973 -0.011788081 0.028196983 -0.3529972 0.77551025 3.438112 -0.42434388
-0.0070470492 -0.5968404 3.7285728 1.5323068 -1.2247223 1.192907 -2.5838993 -0.41273496
-0.4346128 0.6457451 -0.34642756 1.5104052 -0.29047856 -0.8949652 2.937924 -0.29294172
0.34118494 -1.4267541 0.22736065 1.5533303 0.8892568 -1.4580216 0.38707304 2.1411211
-0.6364008 0.84656507 -1.4947883 0.4480411 -0.6978589 0.2015245 0.5746575 -0.17185187
-1.0538578 0.52100134 -2.4711905 -1.1703949 -1.0031949 0.8992342 -0.3172138 0.76146215
-1.2476021 0.17218998 -1.0495243 0.93064183 0.71405935 -1.1827656 2.4954402 0.4304595
1.0653315 0.66819656 -2.5178514 2.4147868 0.82153064 -0.81865996 0.4869384 1.6578689
0.5515519 -1.2900773 -0.03415389 1.3061242 -0.46033168 -1.5311898 -2.3747072 1.9748298
1.815357 -2.5660675 -0.7240581 -1.1659813 -0.81968504 -0.41139272 -1.0402952 1.669881
-0.61709505 -0.09661573 2.8486357 0.6162283 1.3433928 -1.1313919 0.28645694 2.3252985
2.3522956 -2.240231 -1.0302461 1.190825 0.25759304 0.77808124 -1.4084469 2.0223315
-0.6865741 -0.101992704 -1.7610681 -1.4209006 1.1688949 -1.8425297 0.079948574 1.5079367
0.7499423 -1.8017253 0.5975792 2.7549927 -0.62003666 -0.99951327 -3.2553928 -0.37443316

fc1.bias f4 [50]
00000000: 58f6 3940 2b78 acbe 7af4 cabe c6e4 5a3f
00000010: 1e07 6fbe 2a05 bcbf 0ebd 6a40 9971 033f
00000020: 954c 1640 7318 1740 7ed6 4e3f ac6f 1d40
00000030: 11b7 073c 1639 383f 9e91 a8bf 91b2 5b3f
00000040: f90c 1740 30b4 3140 9625 c93f 7cfe 073f
00000050: 76d9 cf3f 4c90 da3f 1391 b13c 1f10 2d3f
00000060: fd9d fb3f 4cfd 57bf 2b35 af3e 80a7 963d
00000070: 83c7 1840 ee60 1e40 3c67 4d3c ca94 bfbe
00000080: 48f0 3ebe 43f8 633f ec5f 383f 3038 253e
00000090: 7303 c73f 2577 cb3f 53da 2a40 6610 823f
000000a0: 0d9a a3be cbdf 1c3f da29 013f 41e8 1040
000000b0: a669 1f40 dbdd 8a3f 6219 d4be b3ed 0a40
000000c0: e793 f83f 9933 a83e
2.9056606 -0.3368543 -0.39639646 0.8550533 -0.23342559 -1.4689076 3.667789 0.5134521
2.3484242 2.3608673 0.8079604 2.459941 0.0082833925 0.71962106 -1.3169439 0.85819346
2.3601668 2.7766228 1.5714595 0.5312269 1.6238239 1.7075286 0.021675622 0.67602724
1.9657589 -0.84370875 0.3422025 0.07356167 2.3871772 2.474666 0.01253682 -0.37418205
-0.18646348 0.8905069 0.72021365 0.16134715 1.5547928 1.5895735 2.6695755 1.0161254
-0.3195347 0.6127898 0.50454485 2.2641757 2.4908233 1.0848955 -0.41425616 2.170758
1.9420136 0.32851866

fc_out.weight f4 [10, 50]
00000000: 8f4d aebe ae2a 923f e94a cdbe 030a 02be
00000010: 678c d9bd 407a 1d81 192f 94be 8f0b 04be
00000020: 68c9 14c0 1166 11c0 b842 91be 8f30 0cc0
00000030: ae31 a33e 4b7d 893f e5a6 03c0 9748 34bf
00000040: b519 e13f 2322 36bf 8f88 b8be e0b3 4f3f
00000050: c7df db3f 4152 ed3f 4792 143e 7331 01bf
00000060: c491 9bbf 90fa 00bf 757e 35bd b6fd a33f
00000070: e7ca bd3f 7469 983f 27d7 f4be b676 3fbe
00000080: 2a3d 25bf e0c0 5abe dcbd cebe b9f1 e03f
00000090: 5447 b6be 8582 e03f 284c 8b3f 741c 09bf
000000a0: 1d77 4fbf 8a8d 06bf c0c8 5fbf 3c4f ab3f
000000b0: f294 59be 76f5 b4be 2244 d3be ef3c 0cc0
000000c0: 9a2b df3f e53c 3dbf aaf4 4abf d486 b602
000000d0: 2b82 c4be ddb1 39be 0b62 0f82 9086 0e83
000000e0: c06a 3dbf 15e3 a4bd 8665 d0bf 21d8 d5bf
000000f0: d54c 22bf 7982 c3bf 14fc 3f81 d207 ff3e
00000100: 3efc 5dbe 8a42 3bbf b114 db3f 3562 75bf
00000110: e802 1abf 3a8a 0140 e7d3 d93f 9f0a d73f
00000120: c45c b73b 82c9 d781 1d0e abbf 15b7 94be
00000130: b989 d4be 2cb7 6d01 06e3 ce3f 637c ce3f
00000140: 3dd7 11bf b1ff 9a82 ee9c 2cbf f156 b0be
00000150: 9c32 cfbe 1ca3 2f3f 7699 1ebf b8a1 d33f
00000160: e0de 9f3f 1b9f 73bf 0c8b 3abf ce49 76be
00000170: b762 25bf 5271 bb3f 8c3d 52bf 5aab 33be
00000180: 1046 8c02 0b47 c5bf 6062 0740 c8e2 5ebf
00000190: 7030 67bf dfd9 f53e fe3d c8be 8af8 22bf
000001a0: 8455 273a c947 b7bc 4ca1 76bf bd36 99be
000001b0: c4f0 a7bf cc3e 9fbf 61a2 1bbe 5d5e a9bf
000001c0: 8425 5abd 1258 5f3f 606a 03bf eb7e 3abf
000001d0: 88f5 ba3f 2cd9 85bf c17a 22bf 5b96 a53f
000001e0: 87c4 c63f f6a9 d93f 2061 58bd 822a 12bf
000001f0: dcb4 80bf 4ada adbe 88bf bebd 4cc2 163f
00000200: 8942 ae3f 2817 b13f bc0e 94be 3137 c1be
00000210: 2159 9ebd fd92 5fbe 58bb f3be 7a4b 0a3f
00000220: 6c21 2dbf 2b44 bd3f 2295 a03f d064 e0be
00000230: 5289 d5be 6333 c7be 998c bcbe ca4d ae3f
00000240: fad9 42bf 765e 84be 53c5 1503 f30d 79bf
00000250: a9fc d23f 1fa2 03bf 27ee 52bf 8be5 1d02
00000260: 8e1d 93be c8af 2abf 3e1f ab81 781b 4282
00000270: 4eb5 8cbf 0fa4 5ebe a3fa 9dbf e8bf 8dbf
00000280: 108d 16bf 2834 a8bf f149 b43c 1faa 313f
00000290: 5ec1 73bc a7ef 01bf 0526 e63f 48b3 8dbf
000002a0: b6ad 04bf d5e7 c23f 623c ca3f 45cb ce3f
000002b0: 3040 27bc 85cd 42bf 6dc4 64bf 12ae 49be
000002c0: 99cf 41be 74b9 2d3f 4b8b 973f b7fe b93f
000002d0: deac 95be c0ff 0603 eb75 96bc 817c dfbe
000002e0: 226e 01bf b63d 693f 9577 abbe d880 c13f
000002f0: 99a3 953f 7421 25bf 8d9e 13bf c391 16be
00000300: 0f06 52bf a9e9 c03f 5499 71bf 40eb a4be
00000310: d0f0 1483 d205 6ebf 0bf7 b53f 05c1 72bf
00000320: a087 8ebf 324a 073f e0c7 79bc 4ded 84be
00000330: 5d30 541b 8ca7 cf02 c97c 8cbf 26f7 c8be
00000340: a82c 80bf 6bae 71bf 804a e9be a300 8bbf
00000350: 4449 02ba 90c5 023f bfe5 c7bd a5bd 37bf
00000360: 57d4 9e3f 2551 9fbf 6f62 bebe e4a0 a33f
00000370: 696b b83f 2844 d13f b831 4cbc 4abd 1cbf
00000380: ba06 61bf b761 93be 009b 7abe 1e41 343f
00000390: e4ec aa3f 44bf ce3f c288 d7be 3288 64bd
000003a0: 1480 b5bc d13e 96bd 14d1 27bf 1261 443f
000003b0: 9873 f2be 1ddd b33f 4ded 9a3f ad65 5bbf
000003c0: a841 2cbf 26d5 cdbe 7a64 25bf 5cd1 873f
000003d0: d27e 3bbf 387b c2be 9ca1 afb9 0ccc 38bf
000003e0: 1d23 e33f ef62 21bf 1e0a 89bf ed7c 353f
000003f0: 6893 b2be 2f3e 27bf dcef 373b 9061 c9bc
-0.34043548 1.1419275 -0.40096214 -0.12699132 -0.10622483 -2.8924056e-38 -0.28942183 -0.12895034
-2.3247929 -2.2718546 -0.28371215 -2.1904638 0.3187384 1.0741361 -2.0570614 -0.70423263
1.758597 -0.7114584 -0.36041686 0.8113384 1.7177666 1.8540727 0.14508925 -0.5046608
-1.2153859 -0.5038233 -0.044310052 1.2811801 1.4827546 1.1907182 -0.47820398 -0.18697628
-0.64546454 -0.21362638 -0.40379226 1.7573768 -0.35601294 1.7539831 1.0882616 -0.5355904
-0.8104113 -0.5255972 -0.87415695 1.3383555 -0.21248224 -0.35343522 -0.4126292 -2.191219
1.7435181 -0.7392104 -0.7927958 2.6819884e-37 -0.3838056 -0.18134256 -1.0534118e-37 -4.188452e-37
-0.7399101 -0.08051125 -1.6280982 -1.6706582 -0.63398486 -1.5274192 -3.5262017e-38 0.49810654
-0.21678254 -0.73148406 1.711569 -0.9585298 -0.60160685 2.0240617 1.7017792 1.6800116
0.0055957753 -7.9267676e-38 -1.3363682 -0.2904593 -0.41511324 4.3661445e-38 1.6163032 1.613171
-0.5696905 -2.2775026e-37 -0.67426956 -0.3444133 -0.404683 0.6860826 -0.6195291 1.6533728
1.2489891 -0.9516465 -0.7286842 -0.24051592 -0.6460375 1.4643958 -0.82125163 -0.17545834
2.0611365e-37 -1.5412306 2.1153793 -0.8706479 -0.90308285 0.48017785 -0.39109796 -0.6366049
0.0006383287 -0.022373097 -0.9633987 -0.29924574 -1.3120351 -1.2441039 -0.15198661 -1.3231922
-0.053258434 0.8724376 -0.5133419 -0.7284991 1.460618 -1.0456901 -0.6346856 1.293651
1.5528725 1.7004993 -0.052827 -0.5709611 -1.0055194 -0.33955604 -0.093138754 0.58890224
1.3614055 1.3835192 -0.2891749 -0.3773742 -0.07731844 -0.21833415 -0.4760387 0.5402142
-0.6762912 1.4786428 1.2545512 -0.43826914 -0.4170633 -0.38906392 -0.36826017 1.3617489
-0.76113856 -0.25853318 4.401368e-37 -0.9728691 1.6483356 -0.5141925 -0.8239464 1.1600414e-37
-0.28733486 -0.6667447 -6.286031e-38 -1.4260752e-37 -1.099283 -0.21742271 -1.2342113 -1.107419
-0.58808994 -1.3140917 0.022007914 0.6940021 -0.014877645 -0.50756305 1.7980353 -1.1070337
-0.5182756 1.5227 1.5799677 1.6155783 -0.010208175 -0.7609485 -0.8936222 -0.19695309
-0.18926848 0.67861104 1.1839384 1.4530858 -0.2923345 3.9672647e-37 -0.018366775 -0.43649676
-0.50558674 0.9110979 -0.3348967 1.5117445 1.1690551 -0.6450417 -0.57663804 -0.14704041
-0.82040495 1.5071307 -0.94374585 -0.32210732 -4.376973e-37 -0.9297763 1.4216017 -0.94825774
-1.113514 0.5284759 -0.015245408 -0.25962296 1.7551856e-22 3.0512084e-37 -1.0975581 -0.3925106
-1.0013628 -0.94406766 -0.4556465 -1.0859569 -0.0004970024 0.51082706 -0.097606175 -0.7177375
1.2408551 -1.2446638 -0.37184474 1.2783475 1.4407779 1.6348925 -0.012463026 -0.6122633
-0.8790089 -0.28785488 -0.2447319 0.7041186 1.3353543 1.615212 -0.42096525 -0.05579395
-0.022155799 -0.073362 -0.655534 0.7671062 -0.47353816 1.4051853 1.2103668 -0.8570202
-0.67287683 -0.40201682 -0.6460644 1.0610766 -0.7324039 -0.37984633 -0.0003349901 -0.7218635
1.7745091 -0.63041586 -1.0706213 0.70893747 -0.34878087 -0.6532926 0.0028066551 -0.024582654

fc_out.bias f4 [10]
00000000: 2da4 a73c 444a eabe 6e7e e6be 137e c7be
00000010: 6e86 d7be 8651 9dbe de8f bdbe 211b 21bf
00000020: e706 f6be b347 2bbf
0.020464027 -0.45759785 -0.45018333 -0.38963374 -0.4209475 -0.3072626 -0.37023824 -0.6293202
-0.4805214 -0.6690628
