models/O5_230.pt (torch_old, 3768 bytes, 4 tensors)

fc1.weight f4 [50, 4]
0	0x3df4f311	0.11960424
1	0xbdf980c1	-0.12182761
2	0x3d64374c	0.055716798
3	0x3c703688	0.014661439
4	0x3c660d6a	0.014041284
5	0xbc6fea8e	-0.014643325
6	0xbe05af07	-0.13055049
7	0x3df1bc94	0.118035465
8	0x3dd3b3e6	0.10337047
9	0xbdd7bff8	-0.10534662
10	0x3d3fc68d	0.046820212
11	0x3c74eb32	0.014948653
12	0x3cc11ab9	0.023572313
13	0xbcc781c7	-0.024353875
14	0xbde383fb	-0.11109158
15	0x3dd64b96	0.104636356
16	0x3df57200	0.119846344
17	0xbdfa0145	-0.122072734
18	0x3d64becb	0.055846017
19	0x3c6fe159	0.014641129
20	0x3f41f44f	0.7576341
21	0xbf44a791	-0.76818186
22	0x3ec727a5	0.38897434
23	0x3da92f0b	0.08260926
24	0x3dd3a462	0.10334088
25	0xbdd7b01e	-0.105316386
26	0x3d3fb381	0.046802048
27	0x3c74f5e8	0.014951207
28	0x3ce13e44	0.02749551
29	0xbce839ac	-0.028347813
30	0xbdd5aeda	-0.10433741
31	0x3dcf79c2	0.10130645
32	0x3dd20c01	0.10256196
33	0xbdd61128	-0.10452491
34	0x3d3de23b	0.04635833
35	0x3c75f6e0	0.015012473
36	0x3cbd0c66	0.023077201
37	0xbcc3644f	-0.023851542
38	0xbde57d31	-0.11205519
39	0x3dd76ef8	0.105192125
40	0x3dc79260	0.09744716
41	0xbdcb703d	-0.09933517
42	0x3d2f3621	0.04277623
43	0x3c7f2a5e	0.015574066
44	0x3dd1e567	0.10248833
45	0xbdd5ea33	-0.104450606
46	0x3d3d9bae	0.046291046
47	0x3c7625a5	0.015023624
48	0x3ce05edb	0.02738898
49	0xbce757f9	-0.02824019
50	0xbdd61652	-0.10453476
51	0x3dcfad09	0.10140426
52	0x3df7155f	0.12064623
53	0xbdfbab62	-0.12288548
54	0x3d6662cf	0.056246575
55	0x3c6f48c2	0.014604749
56	0x3df7f152	0.12106575
57	0xbdfc8a5c	-0.123310775
58	0x3d66bd2c	0.056332752
59	0x3c6d10b4	0.014469314
60	0x3dc7fc8d	0.09764967
61	0xbdcbdbe7	-0.099540524
62	0x3d3008f9	0.042977307
63	0x3c7eb6f0	0.015546545
64	0x3df72f49	0.12069566
65	0xbdfbc5a4	-0.12293556
66	0x3d667ef0	0.0562734
67	0x3c6f3e61	0.014602275
68	0x3dd1e501	0.10248757
69	0xbdd5e9b1	-0.10444964
70	0x3d3da4ae	0.04629963
71	0x3c764cb3	0.015032935
72	0x3dd1e6ed	0.10249124
73	0xbdd5ebb4	-0.104453474
74	0x3d3da459	0.046299312
75	0x3c764c6a	0.015032867
76	0x3df4e362	0.11957432
77	0xbdf9709d	-0.121796824
78	0x3d642825	0.055702347
79	0x3c703e4d	0.014663291
80	0x3dd1c040	0.10241747
81	0xbdd5c464	-0.10437849
82	0x3d3d7b15	0.04625996
83	0x3c761b6d	0.015021187
84	0x3df76cb5	0.12081281
85	0xbdfc0314	-0.123052746
86	0x3d66b8a2	0.056328423
87	0x3c6f4b4e	0.014605356
88	0x3f65afde	0.8972148
89	0xbf68d4b5	-0.90949565
90	0x3ef2e468	0.47439885
91	0x3dd36575	0.10322086
92	0x3dd1e9c3	0.10249665
93	0xbdd5ee97	-0.10445898
94	0x3d3da7ae	0.04630249
95	0x3c7642d6	0.015030583
96	0x3dcc17a4	0.099654466
97	0xbdd0068f	-0.10157501
98	0x3d35f501	0.044423107
99	0x3c79e8cf	0.01525326
100	0x3f310b83	0.6915819
101	0xbf338676	-0.70127046
102	0x3ea91e1f	0.33030793
103	0x3d6c0fee	0.05763238
104	0x3dc66605	0.096874274
105	0xbdca3ddc	-0.0987508
106	0x3d2edc30	0.042690456
107	0x3c7f8129	0.015594759
108	0x3cc021de	0.02345365
109	0xbcc68509	-0.024233358
110	0xbde40023	-0.111328386
111	0x3dd69684	0.10477927
112	0x3cbbd892	0.022930417
113	0xbcc22ae0	-0.023702085
114	0xbde60e9d	-0.11233256
115	0x3dd7bafc	0.10533711
116	0x3dd3a468	0.103340924
117	0xbdd7b025	-0.10531644
118	0x3d3fb38c	0.04680209
119	0x3c74f5e2	0.014951201
120	0x3cbbe621	0.022936882
121	0xbcc2389a	-0.02370863
122	0xbde607bb	-0.11231943
123	0x3dd7b889	0.10533244
124	0x3dd1bdbf	0.10241269
125	0xbdd5c1d2	-0.10437359
126	0x3d3d7701	0.04625607
127	0x3c76206f	0.015022381
128	0x3cce09b1	0.025151106
129	0xbcd4accc	-0.025961302
130	0xbddda6c5	-0.108228244
131	0x3dd2fa92	0.10301699
132	0x3dd4001a	0.10351582
133	0xbdd80d27	-0.105493836
134	0x3d40190b	0.046898883
135	0x3c74e12f	0.014946266
136	0x3dc6a2fa	0.09699054
137	0xbdca7db8	-0.0988726
138	0x3d2daa25	0.04239859
139	0x3c801694	0.015635766
140	0x3d0d5f05	0.034514446
141	0xbd115a7e	-0.03548669
142	0xbdbca5c4	-0.09211305
143	0x3dc2bbeb	0.09508499
144	0x3dcbf91a	0.09959622
145	0xbdcfe778	-0.10151571
146	0x3d35c86f	0.0443806
147	0x3c7a0e32	0.0152621735
148	0xbd0bd575	-0.034139115
149	0x3d0ac36a	0.033877768
150	0xbe94e105	-0.29077926
151	0x3e7b7f2b	0.2456023
152	0x3cfb1cb4	0.030653335
153	0xbd01448f	-0.031559523
154	0xbdca45d7	-0.09876602
155	0x3dc99e76	0.09844677
156	0xbcf36658	-0.029711887
157	0x3cf131f3	0.029442763
158	0xbe8ba43c	-0.27273738
159	0x3e6c8fa2	0.23101667
160	0x3df70186	0.120608374
161	0xbdfb96e7	-0.12284642
162	0x3d664f54	0.056227997
163	0x3c6f4890	0.014604703
164	0x3dc8c650	0.0980345
165	0xbdcca8cd	-0.09993134
166	0x3d3129df	0.043252822
167	0x3c7d46ec	0.015458804
168	0x3ce1ae42	0.027548913
169	0xbce8ab6a	-0.02840205
170	0xbdd57c59	-0.10424108
171	0x3dcf5eaa	0.101254776
172	0x3dd35a6a	0.103199795
173	0xbdd76499	-0.10517234
174	0x3d3f5f2c	0.046721622
175	0x3c751081	0.014957548
176	0x3dd0be20	0.101925135
177	0xbdd4be68	-0.103878796
178	0x3d3c37ec	0.04595177
179	0x3c7697d4	0.015050847
180	0x3cc162bf	0.023606656
181	0xbcc7cadf	-0.024388729
182	0xbde36080	-0.1110239
183	0x3dd636c8	0.104596674
184	0x3cc1ab48	0.023641244
185	0xbcc81502	-0.02442408
186	0xbde33aeb	-0.11095222
187	0x3dd61e06	0.10454945
188	0x3d08086a	0.03321115
189	0xbd0bec93	-0.03416116
190	0xbdc13120	-0.09433198
191	0x3dc4ebdc	0.09615299
192	0x3cbd4afc	0.023107044
193	0xbcc3a383	-0.02388168
194	0xbde55b3c	-0.11199042
195	0x3dd7587e	0.105149254
196	0x3dd1b13e	0.102388844
197	0xbdd5b53c	-0.10434958
198	0x3d3d71b2	0.046251006
199	0x3c760ba4	0.015017424

fc1.bias f4 [50]
0	0x3c608e15	0.01370575
1	0x3d503246	0.050829194
2	0x3c55e922	0.0130560715
3	0x3d3d2359	0.04617629
4	0x3c608400	0.013703346
5	0x3dc10bdc	0.0942609
6	0x3c55e6c0	0.013055503
7	0x3d38a957	0.04508337
8	0x3c557a58	0.013029657
9	0x3d3deb9d	0.046367276
10	0x3c53f52d	0.012936872
11	0x3c558971	0.013033257
12	0x3d38c958	0.04511389
13	0x3c60c179	0.0137180025
14	0x3c604f86	0.013690835
15	0x3c53f1d1	0.0129360715
16	0x3c60c2f7	0.013718358
17	0x3c55942a	0.013035813
18	0x3c559726	0.013036525
19	0x3c608c52	0.01370533
20	0x3c555a0c	0.013021957
21	0x3c60e285	0.013725881
22	0x3def4f18	0.11685008
23	0x3c559374	0.013035644
24	0x3c53f992	0.01293792
25	0x3da18f29	0.07888634
26	0x3c53f164	0.01293597
27	0x3d3d5714	0.046225622
28	0x3d3e19f8	0.046411484
29	0x3c55e6bb	0.013055499
30	0x3d3e1923	0.04641069
31	0x3c555c9d	0.013022569
32	0x3d3aea7d	0.04563378
33	0x3c560833	0.013063478
34	0x3c53d26a	0.012928585
35	0x3d2fdd7b	0.04293583
36	0x3c53ff1b	0.01293924
37	0x3dcac69b	0.09901162
38	0x3d34b4a1	0.044117574
39	0x3dbf9d28	0.09356147
40	0x3c60b956	0.0137160625
41	0x3c53adbe	0.012919841
42	0x3d38978d	0.045066405
43	0x3c55c2d4	0.013046939
44	0x3c5506ab	0.013002078
45	0x3d3d1526	0.046162747
46	0x3d3d03d0	0.046146214
47	0x3d316f6b	0.043319147
48	0x3d3ddb13	0.046351504
49	0x3c553dfc	0.0130152665

fc_out.weight f4 [10, 50]
0	0xbd8f9195	-0.070101894
1	0x3e29ebe5	0.16593893
2	0xbd6e1c74	-0.058132604
3	0x3e102e66	0.140802
4	0xbd8fe62c	-0.07026324
5	0xbeefc951	-0.4683328
6	0xbd6e0342	-0.058108576
7	0x3e07d801	0.13265993
8	0xbd6b7d23	-0.057492387
9	0x3e11691f	0.14200257
10	0xbd576a04	-0.05259134
11	0xbd6b2d66	-0.057416342
12	0x3e081598	0.13289487
13	0xbd90fb57	-0.07079189
14	0xbd9154b7	-0.07096236
15	0xbd587c8c	-0.052853152
16	0xbd910ccc	-0.07082519
17	0xbd6b3322	-0.05742181
18	0xbd6b37c0	-0.057426214
19	0xbd8f8786	-0.07008271
20	0xbd6aeef3	-0.057356786
21	0xbd913536	-0.07090227
22	0xbf0f8be5	-0.5607284
23	0xbd6b3b44	-0.057429567
24	0xbd60832f	-0.054812606
25	0xbed41812	-0.41424614
26	0xbd56fe81	-0.052488808
27	0x3e107c81	0.14109994
28	0x3e11bddc	0.14232582
29	0xbd6e034f	-0.058108624
30	0x3e11ba8c	0.14231318
31	0xbd6aeaae	-0.057352714
32	0x3e0c90cf	0.13727115
33	0xbd6e9132	-0.058243938
34	0xbd5557f0	-0.052085817
35	0x3df0cc50	0.117577195
36	0xbd604a2f	-0.054758247
37	0x3ec526bb	0.38506112
38	0x3e00daa6	0.12583408
39	0x3eb893ac	0.36050165
40	0xbd90edcd	-0.07076607
41	0xbd59f985	-0.053216476
42	0x3e07b94b	0.13254277
43	0xbd6d8aeb	-0.05799381
44	0xbd692efa	-0.056929566
45	0x3e10185f	0.14071797
46	0x3e100022	0.1406255
47	0x3df66ea1	0.120328195
48	0x3e1152c5	0.1419173
49	0xbd6ad8ac	-0.05733554
50	0xbd573389	-0.052539382
51	0xbd02e7f7	-0.0319595
52	0xbd42610d	-0.047455836
53	0xbd081351	-0.033221547
54	0xbd57837a	-0.05261562
55	0xbe90ceba	-0.2828272
56	0xbd4257da	-0.047447063
57	0xbd0b539f	-0.034015294
58	0xbd416359	-0.047213886
59	0xbd07b936	-0.033135615
60	0xbd3b5b7a	-0.045741536
61	0xbd414c20	-0.04719174
62	0xbd0b3e40	-0.033994913
63	0xbd588d47	-0.052869108
64	0xbd5908f1	-0.052987043
65	0xbd3b95cc	-0.045797154
66	0xbd589dc5	-0.052884836
67	0xbd414cd6	-0.047192417
68	0xbd414df7	-0.047193494
69	0xbd5729b1	-0.052529994
70	0xbd413690	-0.047171175
71	0xbd58c4de	-0.052922122
72	0xbeac4a20	-0.33650303
73	0xbd414f90	-0.047195017
74	0xbd3deada	-0.04636655
75	0xbe825c10	-0.25460863
76	0xbd3a956b	-0.045552652
77	0xbd07fe83	-0.033201706
78	0xbd07a073	-0.033112
79	0xbd4257de	-0.047447078
80	0xbd07a15f	-0.03311288
81	0xbd41350d	-0.047169734
82	0xbd0942ed	-0.03351109
83	0xbd428f9e	-0.047500245
84	0xbd3ad49e	-0.045612924
85	0xbd10e847	-0.035377767
86	0xbd3dd951	-0.046349827
87	0xbd04441e	-0.032291524
88	0xbd0dd5da	-0.034627773
89	0xbd0320e8	-0.032013804
90	0xbd5880a0	-0.05285704
91	0xbd3c068f	-0.045904692
92	0xbd0b5da3	-0.034024846
93	0xbd422b63	-0.047404658
94	0xbd409d72	-0.04702515
95	0xbd08196b	-0.033227365
96	0xbd081f10	-0.03323275
97	0xbd0fda35	-0.035120208
98	0xbd07bdbe	-0.033139937
99	0xbd412de8	-0.04716292
100	0xbd99b096	-0.07504384
101	0xbd1a1846	-0.037620805
102	0xbd8d98db	-0.069139205
103	0xbd23f7d9	-0.040031288
104	0xbd99dd3b	-0.075128995
105	0xbe973d8f	-0.29539153
106	0xbd8d9327	-0.06912833
107	0xbd2a2f11	-0.041548792
108	0xbd8cfc05	-0.068840064
109	0xbd23473e	-0.039862864
110	0xbd893815	-0.0670015
111	0xbd8cee20	-0.06881356
112	0xbd2a03e5	-0.04150762
113	0xbd9a727b	-0.07541367
114	0xbd9abdcd	-0.07555733
115	0xbd895be8	-0.06706983
116	0xbd9a7bd1	-0.07543147
117	0xbd8cee03	-0.06881335
118	0xbd8ceec7	-0.06881481
119	0xbd99aaf3	-0.07503309
120	0xbd8ce0e5	-0.06878833
121	0xbd9a91a0	-0.07547307
122	0xbeb1b0c8	-0.34705186
123	0xbd8cefd0	-0.06881678
124	0xbd8ad5af	-0.06779038
125	0xbe8921fd	-0.26783744
126	0xbd88b38d	-0.066748716
127	0xbd23ce35	-0.039991576
128	0xbd231807	-0.039817836
129	0xbd8d9329	-0.06912834
130	0xbd2319d4	-0.039819553
131	0xbd8cdff0	-0.0687865
132	0xbd264456	-0.040592514
133	0xbd8db580	-0.06919384
134	0xbd88e2f9	-0.066839166
135	0xbd3625c7	-0.04446962
136	0xbd8aca94	-0.0677692
137	0xbd174707	-0.03693297
138	0xbd2f6446	-0.042820238
139	0xbd15f825	-0.036613602
140	0xbd9a6b62	-0.07540013
141	0xbd89a55a	-0.067209914
142	0xbd2a43e9	-0.04156867
143	0xbd8d77ce	-0.069076166
144	0xbd8c8238	-0.06860775
145	0xbd2403c9	-0.040042672
146	0xbd240f4b	-0.040053647
147	0xbd33ca2f	-0.04389399
148	0xbd235140	-0.039872408
149	0xbd8cdb70	-0.06877792
150	0xbd7e4e38	-0.062086314
151	0xbca55738	-0.02018319
152	0xbd670724	-0.056403294
153	0xbcc13b73	-0.023587918
154	0xbd7ea628	-0.062170178
155	0xbe91eb5f	-0.28499886
156	0xbd66fc79	-0.05639312
157	0xbcd2515e	-0.025673565
158	0xbd65e2c6	-0.05612447
159	0xbcbf4da6	-0.023352455
160	0xbd5ecf3c	-0.054396853
161	0xbd65c750	-0.056098282
162	0xbcd1d6fa	-0.025615204
163	0xbd7fc932	-0.062447734
164	0xbd802911	-0.06257833
165	0xbd5f166e	-0.05446475
166	0xbd7fdb5a	-0.06246505
167	0xbd65c812	-0.056099005
168	0xbd65c934	-0.056100085
169	0xbd7e435c	-0.062075958
170	0xbd65ae6f	-0.056074556
171	0xbd800306	-0.06250577
172	0xbeac8758	-0.3369701
173	0xbd65cb2d	-0.056101967
174	0xbd61d7a8	-0.055137306
175	0xbe83cb0f	-0.2574086
176	0xbd5df4fd	-0.054188717
177	0xbcc0c5c2	-0.023531798
178	0xbcbec7a7	-0.023288561
179	0xbd66fc7f	-0.056393143
180	0xbcbecc93	-0.023290908
181	0xbd65acaa	-0.05607287
182	0xbcc78c15	-0.024358789
183	0xbd673bed	-0.056453634
184	0xbd5e2e2e	-0.05424326
185	0xbcf2c867	-0.029636575
186	0xbd61c309	-0.05511764
187	0xbc9e4ac6	-0.019322764
188	0xbce0a5bf	-0.027422784
189	0xbc9bfd90	-0.019041806
190	0xbd7fbb48	-0.062434465
191	0xbd5f9cb7	-0.054592814
192	0xbcd28b51	-0.025701197
193	0xbd66c8ff	-0.05634403
194	0xbd64fd28	-0.05590549
195	0xbcc15d1d	-0.02360397
196	0xbcc17e00	-0.023619652
197	0xbcec86c9	-0.028872864
198	0xbcbf69ae	-0.023365822
199	0xbd65a477	-0.05606505
200	0xbd6114e6	-0.05495157
201	0xbcf61838	-0.030040845
202	0xbd4a5839	-0.049400542
203	0xbd005295	-0.031328756
204	0xbd6169ab	-0.055032413
205	0xbe8ab462	-0.27090746
206	0xbd4a4d6c	-0.04939024
207	0xbd0423b9	-0.03226063
208	0xbd49364d	-0.04912405
209	0xbcffd856	-0.031231087
210	0xbd42162b	-0.047384422
211	0xbd491c1c	-0.049099073
212	0xbd0409a1	-0.032235745
213	0xbd628304	-0.055300727
214	0xbd63096b	-0.055428904
215	0xbd425d95	-0.047452528
216	0xbd629494	-0.055317476
217	0xbd491d04	-0.049099937
218	0xbd491ded	-0.049100805
219	0xbd610a62	-0.054941542
220	0xbd490307	-0.049075153
221	0xbd62bd91	-0.055356566
222	0xbea4a215	-0.3215491
223	0xbd491fce	-0.049102597
224	0xbd4525e1	-0.048131827
225	0xbe79a5e1	-0.24379684
226	0xbd41381b	-0.047172647
227	0xbd003aa4	-0.031305924
228	0xbcffa1d7	-0.031205101
229	0xbd4a4d70	-0.049390256
230	0xbcffa3b0	-0.031205982
231	0xbd49013c	-0.049073443
232	0xbd01ae6b	-0.03166048
233	0xbd4a8d14	-0.04945095
234	0xbd417487	-0.04723027
235	0xbd0b2492	-0.033970423
236	0xbd45109c	-0.048111543
237	0xbcf39d60	-0.029738128
238	0xbd073dd3	-0.033017945
239	0xbcf4a513	-0.02986387
240	0xbd627577	-0.055287804
241	0xbd42e4d7	-0.04758152
242	0xbd042fd3	-0.03227217
243	0xbd4a1aaa	-0.049341835
244	0xbd4851f0	-0.048906267
245	0xbd005966	-0.031335257
246	0xbd005fd6	-0.031341396
247	0xbd09cb75	-0.033641297
248	0xbcffe2ee	-0.031236138
249	0xbd48f8ff	-0.049065586
250	0xbad3cf11	-0.0016159733
251	0xb84d133d	-4.8893726e-05
252	0xba246ecb	-0.0006272613
253	0xb87e2d2a	-6.060038e-05
254	0xbad6747c	-0.0016361619
255	0xbe58df25	-0.21178873

fc_out.bias f4 [10]
0	0x3e5b6fbb	0.2142934
1	0xbd741b28	-0.05959621
2	0xbd96db24	-0.073660165
3	0xbd87180a	-0.06596382
4	0xbd6d714f	-0.057969388
5	0xba980d85	-0.0011600709
6	0xbc9196dc	-0.01777213
7	0xbcf71ac8	-0.030164137
8	0xbcd44e32	-0.025916193
9	0x3de9ac4b	0.114098154
