models/O6_5526538.pt (torch_old, 3768 bytes, 4 tensors)

fc1.weight f4 [50, 4]
-0.6564451 0.034973774 -0.30242229 1.0032872 -3.347161e-36 3.347161e-36 -1.08427214e-35 -4.949947e-35
1.4030426 -1.2035735 0.636079 2.9853723 -0.86732525 -1.2790061 -2.226812 1.7354395
-0.8053252 0.7984595 -0.9362262 -0.09530929 2.0688496 -1.8095508 2.1412475 2.038022
-0.4655794 0.37245145 -0.031433687 0.8737373 1.1232351 -1.4492065 0.64321226 2.7693388
-0.6926274 0.8308678 -0.4663279 0.97176355 1.5677847 -1.3187938 2.0433764 2.7200122
1.5717622 -0.87224066 0.8213768 1.9273921 1.7067752 -2.003973 2.217239 2.1828988
1.4739406 -0.3810229 -3.0173497 0.9084481 -0.20643957 1.4556714 0.25741696 1.6717708
-0.1523017 1.9372249 1.2285033 -1.1600237 1.4355866 -0.67491996 0.67295754 2.3571975
-1.4872218 0.17427059 0.16059461 0.109189905 0.9648755 -1.5879822 0.7363569 3.018472
-0.8652599 0.09275507 -0.10877024 -0.3414316 -0.8969413 0.116736256 2.0275636 0.66052127
-1.3330153 0.33616892 -0.47689423 -0.017840737 1.5791571 -0.6633957 -0.25032288 1.0462579
-0.4140866 0.78836703 -0.53430784 -1.1205524 2.3041763 -2.825228 1.7406178 1.5413333
-0.033721223 1.0851364 0.0109615 -0.6528465 1.5602214 -2.7658067 -0.9696447 1.5640795
0.011532653 0.8130691 -1.3687212 1.8556229 0.11411387 0.61739373 -2.2566986 2.2214727
2.1337426 -2.205102 -0.9142689 -1.2900361 -0.4255677 -0.76766205 2.754604 1.1681855
0.5009209 0.19325131 -3.0644064 -1.1118789 -0.7371201 0.61689776 -0.54069966 1.8393548
-0.91444796 1.4285095 -1.3949962 -0.14479512 -0.30144337 0.18757881 -1.4309897 -0.4888571
-1.195388 0.14938186 -0.48585057 1.5493674 -0.5171666 0.89109856 -1.9830358 -0.8366212
0.33758074 -0.17869893 3.5007594 1.4865534 -0.53738374 -1.0601187 -1.6988741 1.1308266
-0.93990296 1.2776619 1.740006 -0.7015387 -1.2983406 0.8859397 -0.33211577 1.1549544
0.3222454 -1.582505 0.6279376 1.9603523 1.7035111 -0.785617 0.2889371 2.5350468
1.4627676 -1.0818881 2.5373316 2.1983113 1.1768478 -1.2530566 0.7056073 2.8916066
-0.92933244 0.5045099 -2.203435 -0.9504633 -1.5293689 0.47784498 2.037192 0.1782608
-1.3521845 0.819459 -2.0972483 -0.960543 -0.20241629 0.74923503 -1.8706468 -1.4896643
1.5981998 -0.6834827 2.0033975 2.125458 0.11034921 -0.26604384 -1.5922278 1.2472389
00000000: c90c 28bf a940 0f3d 18d7 9abe b76b 803f
00000010: 5b5f 8e84 5b5f 8e04 6499 6685 9897 8386
00000020: e696 b33f b20e 9abf 13d6 223f 5710 3f40
00000030: 0709 5ebf 79b6 a3bf 1684 0ec0 e222 de3f
00000040: cb29 4ebf d767 4c3f 85ac 6fbf 8431 c3bd
00000050: 0868 0440 5c9f e7bf 330a 0940 f46e 0240
00000060: 6c60 eebe f5b1 be3e 9cc0 00bd 3fad 5f3f
00000070: 2bc6 8f3f 997f b9bf 8fa9 243f d93c 3140
00000080: 0750 31bf c1b3 543f 88c2 eebe 7fc5 783f
00000090: 2bad c83f 3cce a8bf aec6 0240 ae14 2e40
000000a0: 812f c93f 2a4b 5fbf c045 523f c9b4 f63f
000000b0: 9c77 da3f 1841 00c0 3ee7 0d40 9db4 0b40
000000c0: 16aa bc3f 6f15 c3be 421c 41c0 0e90 683f
000000d0: e564 53be 7153 ba3f 28cc 833e 96fc d53f
000000e0: faf4 1bbe fcf6 f73f 993f 9d3f a87b 94bf
000000f0: 4dc1 b73f 8ec7 2cbf f246 2c3f 53dc 1640
00000100: 495d bebf fd73 323e ea72 243e f59e df3d
00000110: 1502 773f 0043 cbbf e381 3c3f a52e 4140
00000120: ac81 5dbf 5ff6 bd3d eec2 debd 1fd0 aebe
00000130: f29d 65bf 6b13 ef3d 9ac3 0140 ec17 293f
00000140: 3fa0 aabf 551e ac3e 7b2b f4be bd26 92bc
00000150: d221 ca3f 4dd4 29bf 522a 80be c7eb 853f
00000160: 2903 d4be 6cd2 493f 66c8 08bf 436e 8fbf
00000170: a077 1340 89d0 34c0 90cc de3f 694a c53f
00000180: 441f 0abd c0e5 8a3f dd97 333c f320 27bf
00000190: 56b5 c73f fa02 31c0 a33a 78bf c233 c83f
000001a0: 74f3 3c3c 4c25 503f 4232 afbf 0d85 ed3f
000001b0: 88b4 e93d 840d 1e3f c06d 10c0 9c2c 0e40
000001c0: 3d8f 0840 6420 0dc0 870d 6abf e71f a5bf
000001d0: 02e4 d9be 8085 44bf 6f4b 3040 1a87 953f
000001e0: 5a3c 003f ace3 453e 3c1f 44c0 0c52 8ebf
000001f0: e7b3 3cbf 03ed 1d3f 4b6b 0abf fa6f eb3f
00000200: 4319 6abf 66d9 b63f 3c8f b2bf 2c45 14be
00000210: c956 9abe a914 403e ac2a b7bf 7a4b fabe
00000220: 7902 99bf 8ff7 183e 68c1 f8be ac51 c63f
00000230: 0865 04bf 091f 643f 1ed4 fdbf cf2c 56bf
00000240: 62d7 ac3e dafc 36be 710c 6040 6247 be3f
00000250: fb91 09bf f8b1 87bf b574 d9bf edbe 903f
00000260: 7b9d 70bf 6d8a a33f 84b8 de3f 0a98 33bf
00000270: 0630 a6bf f2cc 623f 140b aabe 8cd5 933f
00000280: 59fd a43e 868f cabf 85c0 203f d3ec fa3f
00000290: a70c da3f 321e 49bf 90ef 933e 353e 2240
000002a0: f83b bb3f 4f7b 8abf a463 2240 22b1 0c40
000002b0: f3a2 963f 2964 a0bf aea2 343f 1510 3940
000002c0: bbe8 6dbf 9027 013f 1405 0dc0 9051 73bf
000002d0: 5cc2 c3bf 19a8 f43e 5b61 0240 008a 363e
000002e0: 6214 adbf 11c8 513f 5139 06c0 25e6 75bf
000002f0: 3746 4fbe decd 3f3f 5b71 efbf 52ad bebf
00000300: d091 cc3f b9f8 2ebf aa37 0040 8107 0840
00000310: c4fe e13d e636 88be 1fce cbbf 86a5 9f3f

fc1.bias f4 [50]
0.5131221 -4.7933354e-35 1.6563305 1.7045852 -0.6586351 3.13777 0.34540132 1.5611638
1.0401866 1.7153563 1.342798 3.439957 -0.16668856 0.22467029 -0.82925266 1.5552824
0.4578567 1.3068334 -0.2504162 0.5451753 -0.23963957 1.4857417 -0.40531796 2.5628715
-0.56446666 2.4971519 0.5767707 1.3918374 0.019558474 1.316611 -0.5466721 1.0910366
0.45146492 -0.85484546 1.2324057 -0.68895394 1.6595725 0.9978476 0.14195903 1.0831468
2.0075965 2.2664402 2.317469 1.3810532 -0.81552064 -0.442518 -0.41556382 -0.5831032
1.8067977 0.7056443
00000000: f85b 033f 80db 7e86 a302 d43f d92f da3f
00000010: 4f9c 28bf 39d1 4840 71d8 b03e 37d4 c73f
00000020: d624 853f cc90 db3f cee0 ab3f 4128 5c40
00000030: 68b0 2abe f80f 663e e749 54bf 7e13 c73f
00000040: 326c ea3e 5146 a73f 8d36 80be 9c90 0b3f
00000050: 1364 75be c92c be3f d685 cfbe 1606 2440
00000060: e380 10bf 56d1 1f40 3fa7 133f ba27 b23f
00000070: 1839 a03c b686 a83f b4f2 0bbf 16a7 8b3f
00000080: 6926 e73e 27d7 5abf 78bf 9d3f 495f 30bf
00000090: df6c d43f f172 7f3f b55d 113e 8ea4 8a3f
000000a0: 767c 0040 5b0d 1140 6951 1440 5ac6 b03f
000000b0: f6c5 50bf b891 e2be c8c4 d4be 4046 15bf
000000c0: 2645 e73f 1ba5 343f

fc_out.weight f4 [10, 50]
-0.5374678 3.9099565e-35 1.9404683 -0.5008112 -0.43479574 -0.41991296 0.027009536 1.2927779
-0.50242954 -2.1401472 -2.3519676 -0.9222331 -1.1480713 0.09628766 0.9581734 2.0252137
-0.4483711 1.6543968 0.7007183 1.2231032 -0.4670656 -2.232588 -0.30911425 0.9271293
0.46973836 -0.78812265 -0.19281814 -0.06588497 -0.8227703 -1.5600995 -1.355199 -0.033021998
-0.2424295 -0.16478497 -0.19634499 -0.17095858 -1.2987101 -0.48756382 1.1615292 -0.4654944
2.0196009 1.9467372 -1.3084224 2.0506668 -0.8453929 0.80444 -0.50437075 -0.9520651
-1.7400647 -0.6552305 -0.16897608 -4.8072783e-35 2.2360983 -0.8078179 -0.40879577 -1.0242851
-0.3970428 1.2303797 -0.073348925 -1.3854548 -1.1159966 -1.2907751 -1.2575545 -0.16953795
0.027235162 1.9364762 -0.38963634 1.7192546 0.059735473 0.41526714 -0.0216926 -0.78454244
4.836964e-35 0.09368272 3.5636718e-35 -1.4762744 -0.51084197 -0.4169503 -0.9630668 -1.2387005
-1.0429624 -0.5763472 -0.18149728 -0.17079654 -0.28058964 -0.12619406 -1.156795 -0.51803166
1.2384095 -0.18437971 2.1171987 2.0448 -1.0117147 2.1246767 -0.4802893 0.8977338
-0.25050154 4.8301086e-35 -1.2308433 -0.6289934 -0.2503802 4.798772e-35 1.8074937 -0.6080885
-0.096903384 -0.66104305 -0.25601727 1.3541899 -0.41093597 -1.297396 -0.6007189 -1.3058243
-1.0787553 -0.1823887 0.009787143 1.7540009 -0.1279711 1.7036451 0.0120992595 0.7235947
-0.2928332 -0.7127968 4.422141e-35 -0.42515832 4.2305824e-35 -1.0815057 -0.34367108 -0.3168768
-0.47959316 -0.73635125 -1.1450859 -0.49813244 -0.28012398 -0.20940405 -0.4700724 -0.0024214913
-0.8277788 -0.4152928 0.9720271 -0.34074745 1.703475 1.821144 -1.1103456 1.973023
-0.10590068 0.810666 -0.12936762 -4.923202e-35 -1.4207498 -0.72238016 -0.20184836 4.8016866e-35
1.8706545 -0.48250294 -0.41822582 -0.77218354 0.05418728 1.3572851 -0.2727547 -1.2585893
-0.6127548 -1.0469929 -1.0933665 -0.3232284 4.642879e-35 1.8509127 -0.22390844 1.7948799
4.893786e-35 0.9130009 -0.26751348 -0.34025428 4.893538e-35 -0.7095765 4.2831903e-35 -1.0061513
-0.55646306 -0.191431 -0.49366465 -0.72227824 -1.2273986 -0.46704593 -0.29080677 -4.960048e-35
-0.26281902 -0.5559618 -0.8384932 -0.44270882 0.7262244 -0.5414979 1.7631358 1.5407015
-1.3332914 1.6308644 0.0032858995 0.31355393 -0.54282445 4.894125e-35 -1.161929 -0.7919013
-0.3740258 3.8622772e-35 1.7448279 -0.64582264 -0.034613706 -0.98304176 -0.12521704 1.5007967
-0.21096358 -1.0391446 -0.13878424 -1.316971 -0.9693825 -0.2529989 1.1610771 1.6386759
0.039692666 1.7019686 0.12377936 0.40857512 -0.27474198 -0.05062868 4.9241286e-35 -0.9269089
-0.009864563 -1.0866624 -0.15803891 -0.5544099 1.0623885e-08 -0.8085236 -0.8836142 -0.2735868
-0.28016326 -0.018851573 -0.36829042 -0.1546658 -0.67999834 -0.54805654 1.0117245 -0.4808661
1.2947876 1.901073 -0.92998224 1.4277644 -0.2054084 0.8773641 -0.1693294 4.853508e-35
-1.1724887 -0.8010649 -0.015831057 4.8793255e-35 1.407339 -0.31654766 -0.3038116 -1.0966547
00000000: 7d97 09bf 92e3 4f06 4461 f83f 2a35 00bf
00000010: 8c9d debe d5fe d6be 1a43 dd3c bf79 a53f
00000020: 399f 00bf 2cf8 08c0 a386 16c0 7817 6cbf
00000030: 00f4 92bf 7732 c53d da4a 753f 1a9d 0140
00000040: e690 e5be 46c3 d33f 4662 333f a58e 9c3f
00000050: 3923 efbe b9e2 0ec0 3944 9ebe 5958 6d3f
00000060: 8c81 f03e 68c2 49bf 1e72 45be b3ee 86bd
00000070: 13a1 52bf 57b1 c7bf 2977 adbf 1342 07bd
00000080: 703f 78be 64bd 28be a90e 49be c40f 2fbe
00000090: 223c a6bf f7a1 f9be fdac 943f 4855 eebe
000000a0: 2441 0140 af2e f93f 637a a7bf 203e 0340
000000b0: ab6b 58bf c8ef 4d3f 711e 01bf 8aba 73bf
000000c0: 71ba debf 30bd 27bf 1108 2dbe 4899 7f86
000000d0: 3c1c 0f40 27cd 4ebf ae4d d1be c61b 83bf
000000e0: 3249 cbbe 157d 9d3f f637 96bd 9556 b1bf
000000f0: fad8 8ebf 1e38 a5bf 8cf7 a0bf 5b9b 2dbe
00000100: 461c df3c 74de f73f 6a7e c7be 8910 dc3f
00000110: 2fad 743d e59d d43e aeb4 b1bc c6d7 48bf
00000120: ac96 8006 badc bf3d 307a 3d06 8ff6 bcbf
00000130: 8ac6 02bf 827a d5be 8c8b 76bf bd8d 9ebf
00000140: cb7f 85bf 7d8b 13bf 6cda 39be 4ae5 2ebe
00000150: 72a9 8fbe 0439 01be dc11 94bf b99d 04bf
00000160: 3484 9e3f 09ce 3cbe 2f80 0740 01de 0240
00000170: de7f 81bf b4fa 0740 7be8 f5be e2d1 653f
00000180: bd41 80be 0468 8006 468c 9dbf b605 21bf
00000190: d531 80be 8025 7f06 f45b e73f b0ab 1bbf
000001a0: 4875 c6bd 1e3a 29bf b214 83be 1856 ad3f
000001b0: 3366 d2be 1211 a6bf b7c8 19bf 4025 a7bf
000001c0: a714 8abf 1ac4 3abe 415a 203c 1a83 e03f
000001d0: db0a 03be 0b11 da3f f93b 463c 813d 393f
000001e0: 3cee 95be da79 36bf 101f 6b06 5aae d9be
000001f0: b4ef 6006 c76e 8abf a8f5 afbe ad3d a2be
00000200: 3c8d f5be 8481 3cbf 2d92 92bf 370b ffbe
00000210: 696c 8fbe 046e 56be 54ad f0be e2b1 1ebb
00000220: 50e9 53bf 42a1 d4be c5d6 783f 7376 aebe
00000230: 780b da3f 3f1b e93f ce1f 8ebf 058c fc3f
00000240: 75e2 d8bd cf87 4f3f f278 04be 94e1 8286
00000250: 21db b5bf e8ed 38bf 56b1 4ebe 2c4d 7f06
00000260: 9b71 ef3f a00a f7be b221 d6be d2ad 45bf
00000270: 7bf3 5d3d 85bb ad3f 81a6 8bbe 7419 a1bf
00000280: 80dd 1cbf dd03 86bf 6ff3 8bbf 317e a5be
00000290: 98db 7606 b5ea ec3f 4148 65be a0be e53f
000002a0: 6219 8206 6dba 693f 87f7 88be cf35 aebe
000002b0: b217 8206 cea6 35bf c4bb 6306 91c9 80bf
000002c0: 5d74 0ebf 7d06 44be 9dc1 fcbe 3ae7 38bf
000002d0: 661b 9dbf a520 efbe a0e4 94be 56dc 8386
000002e0: 3790 86be 8353 0ebf 7ea7 56bf bbaa e2be
000002f0: d8e9 393f 9b9f 0abf 6fae e13f b535 c53f
00000300: 4ba9 aabf 2ac0 d03f 3f58 573b 248a a03e
00000310: 8bf6 0abf b01b 8206 17ba 94bf 0bba 4abf
00000320: 4f80 bfbe 985a 4d06 8556 df3f a254 25bf
00000330: 1ac7 0dbd a0a8 7bbf e538 00be 1b1a c03f
00000340: d606 58be b102 85bf 751d 0ebe 8192 a8bf
00000350: 7429 78bf 1289 81be 2d9e 943f 22c0 d13f
00000360: c794 223d 1bda d93f 0880 fd3d c230 d13e
00000370: fbaa 8cbe 0560 4fbd e2e7 8206 e749 6dbf
00000380: fa9e 21bc c117 8bbf f4d4 21be cfed 0dbf
00000390: 5784 3632 67fb 4ebf 8a34 62bf 9213 8cbe
000003a0: 8f71 8fbe 9d6e 9abc 9090 bcbe b660 1ebe
000003b0: 5f14 2ebf 6f4d 0cbf 3080 813f 1534 f6be
000003c0: 9abb a53f 5c56 f33f 5113 6ebf fcc0 b63f
000003d0: 9456 52be ef9a 603f b064 2dbe 4407 8106
000003e0: 1c14 96bf 9712 4dbf 22b0 81bc f8b6 8106
000003f0: af23 b43f 8912 a2be 328d 9bbe 2e5f 8cbf

fc_out.bias f4 [10]
0.002522657 -0.36399716 -0.33127877 -0.2732583 -0.4386016 -0.47736964 -0.34988797 -0.57480925
-0.3873904 -0.5131112
00000000: 2953 253b d65d babe 5f9d a9be 83e8 8bbe
00000010: 6490 e0be cb69 f4be 8424 b3be b326 13bf
00000020: 0958 c6be 415b 03bf
