models/Q3_314.pt (torch_old, 3768 bytes, 4 tensors)

fc1.weight f4 [50, 4]
000000 b0 1e 91 bf 8e a8 57 3e eb 34 89 bf bf fd 8c 3f
       -1.133749 0.21060392 -1.0719274 1.1014937
000010 16 b9 8a 3f e9 59 76 bf 47 70 51 3e e1 39 02 40
       1.0837734 -0.9623094 0.20452987 2.0347826
000020 05 70 d3 3b 6d 92 2f 3e 5a 5e c8 bf bd 40 d6 3f
       0.0064525628 0.17145701 -1.5653794 1.6738507
000030 25 de ad bf 5b 99 1c bc 50 21 19 bf 5d 23 3d 3f
       -1.3583418 -0.009558047 -0.59816456 0.73882085
000040 d0 ff 01 bf f6 6b 30 bf 4c 40 f7 bf c4 6a e2 3f
       -0.50780964 -0.68914735 -1.9316497 1.7688832
000050 27 1c db 3f 28 bf d7 bf ac 3e bb be d6 97 63 bf
       1.7117966 -1.6855211 -0.36571252 -0.8890356
000060 22 b6 6b 3f 79 bd 9d bf ba 58 22 bf d9 3d 57 bf
       0.9207479 -1.2323447 -0.63416636 -0.8407875
000070 59 e1 7c bf 17 c4 c9 3e 4e 64 0b bf dc 04 8b 3f
       -0.98781353 0.39407417 -0.5444993 1.0860858
000080 67 51 5a bf 83 50 25 3f 8e 85 0b c0 ec 77 6c bf
       -0.8528046 0.64575976 -2.1800265 -0.92370486
000090 cc 9d 76 3f b0 02 48 bf 89 c8 07 3f bc d7 05 40
       0.9633453 -0.781291 0.5304037 2.0912924
0000a0 1d 94 af be aa a2 f2 3f 1c 36 f5 3e 5c 4c 1d bf
       -0.3429269 1.8955891 0.47892845 -0.6144464
0000b0 28 50 7d 3f 88 75 a9 bf 5e a6 07 40 76 b8 06 3e
       0.98950434 -1.3238993 2.1195292 0.13156304
0000c0 0e 29 24 bf 3c 62 1f bf 00 1f b7 bd f8 ee 5c bf
       -0.64125144 -0.6225927 -0.0894146 -0.8630214
0000d0 9b ea b2 3f e4 2e a1 be ef ba 0c 40 52 43 0f 3e
       1.3977846 -0.31481087 2.1989095 0.13990524
0000e0 a3 87 2f bf ac 34 b0 bf f6 1b 23 40 0e 5e 88 3f
       -0.6856634 -1.3766074 2.5485816 1.0653703
0000f0 02 2e 8a 3f 6f 7c aa be 78 58 67 40 f6 fb 6c 3f
       1.079529 -0.3329806 3.6147747 0.9257196
000100 e5 60 98 bf 36 16 4c 3e 2f c7 8f bf ad b6 a6 be
       -1.190457 0.19930348 -1.1232661 -0.32561246
000110 5d 09 87 bf 62 62 24 3f 60 05 4d bf fb e7 96 3e
       -1.0549732 0.6421262 -0.80086327 0.29473862
000120 b5 d6 34 3f 91 f0 55 bd 86 bd da 3e e7 c9 b7 3f
       0.70640117 -0.052231375 0.4272272 1.4358491
000130 e3 b6 1b bf 91 b3 c5 3d aa 13 c2 bf 5f c7 5a 3f
       -0.6082594 0.0965339 -1.5162251 0.85460466
000140 9b 2f 67 bf c0 c1 7c 3f e5 da 18 3f 72 42 db bf
       -0.90307015 0.9873314 0.59709007 -1.7129653
000150 d0 fa 59 3f 84 00 1a 3f 6f 27 e5 bf 56 e1 d5 3f
       0.85148335 0.60157037 -1.7902659 1.6709392
000160 5a fe d8 be 92 27 94 be e5 88 b8 3f 0f 11 98 3f
       -0.42381555 -0.2893644 1.4416777 1.1880206
000170 62 d5 d1 3f 3c 7f 93 3d ed cb 22 3f 6c a0 07 40
       1.6393244 0.072020024 0.63592416 2.1191664
000180 88 75 37 3e d8 9c 3b 3e a0 c4 98 bf a3 5b 67 bf
       0.17915928 0.1832155 -1.1935005 -0.903742
000190 12 35 49 3f d3 32 7f bf d1 d3 fb bf 7e 37 32 3f
       0.78596604 -0.99686927 -1.9674016 0.69615924
0001a0 14 b6 d0 3f 9a 7c c4 be a9 90 40 3f 41 cf 0e 40
       1.6305566 -0.38376313 0.75220734 2.2313998
0001b0 b8 0e ce 3f cb 5b aa bf 37 a2 05 40 62 0b c1 3f
       1.6098242 -1.3309263 2.0880258 1.5081599
0001c0 56 16 e6 be ef 94 bc 3e 2a 54 b9 bf 23 1e dc 3f
       -0.44938916 0.36832377 -1.447881 1.7196697
0001d0 63 86 99 3e a8 ef 72 bf d3 e8 40 c0 65 20 a4 be
       0.2998534 -0.94896936 -3.0142105 -0.32055965
0001e0 09 41 89 3f 98 5a 83 bf 81 da 07 3f 22 28 12 40
       1.0722972 -1.0262022 0.53067786 2.2836995
0001f0 a8 e4 40 3e f3 be 28 be 90 40 18 3d 7d 0c 39 bf
       0.18837225 -0.16479091 0.037170947 -0.7228468
000200 cc 2d 47 3f 09 a6 e3 bf 08 4c 50 3f e4 af 96 bd
       0.77804255 -1.7785045 0.81366014 -0.07357767
000210 5c 4f f4 be 89 50 68 3f 04 f0 7e 3d b8 df 9b bf
       -0.47716796 0.90747887 0.062240615 -1.2177649
000220 bf b0 60 bd d9 1e 00 40 c4 7f 68 3e 07 dc e2 be
       -0.05485606 2.0018828 0.22704989 -0.44308493
000230 96 87 cf 3d ab ce dd be fa 5e ae bf 5d 15 ba 3f
       0.10133283 -0.43321738 -1.3622735 1.453777
000240 2b cf ec be 09 1d b0 be 54 47 f0 bf 99 c6 89 bf
       -0.46251807 -0.34397152 -1.8771768 -1.0763732
000250 de c3 c7 bf 14 9f 65 bf 6d f8 5e be 86 ed f6 3f
       -1.5606649 -0.8969586 -0.21774454 1.9291236
000260 33 c1 56 3f bf ea 69 bf 27 19 32 3f 80 7f 03 40
       0.8388855 -0.9137382 0.6956963 2.054657
000270 e5 00 97 3f aa ea 84 be ea d2 04 c0 ce 8d 1d bf
       1.1797148 -0.25960284 -2.0753732 -0.615445
000280 0b 36 94 bf 0d c0 99 bf 73 19 62 bf e0 b5 83 3f
       -1.1578993 -1.2011734 -0.8832008 1.0289879
000290 50 2e 19 3e 8c c3 cf 3e a0 5d 1c be b8 57 8c bf
       0.14959073 0.40578878 -0.1527009 -1.096427
0002a0 af bf 9a 3f 84 d4 fc bf 95 79 92 3f 4a e3 80 3f
       1.2089747 -1.9752355 1.1443354 1.0069363
0002b0 7b f2 9a bf 18 a3 d8 be ff f7 04 3f 36 13 87 3f
       -1.2105249 -0.4231193 0.5194091 1.0552738
0002c0 bb d5 b9 3d ee b7 ab bf 9a 30 b8 3e 8b b6 e0 3f
       0.09073969 -1.3415506 0.3597458 1.7555708
0002d0 c2 3f 05 3f f7 84 40 bf b0 85 4c 3d 73 30 9e 3f
       0.5205041 -0.7520289 0.04993218 1.2358536
0002e0 e0 ec 41 bf b1 6f 80 be d4 ec a0 bf cb 34 a1 3f
       -0.7575207 -0.25085214 -1.2572274 1.2594236
0002f0 bf c2 9c bf 75 d4 0d bf c8 b8 88 3f f7 d8 62 bf
       -1.2246932 -0.5540231 1.0681391 -0.8861231
000300 46 fe 2d bf 09 8d 11 40 f1 68 8d 3f 20 e7 12 bf
       -0.67966115 2.274233 1.104765 -0.5738392
000310 cf 89 c2 3f 60 db 98 bf b0 b3 0e bf 60 16 8c bf
       1.5198306 -1.1941948 -0.5574293 -1.0944328

fc1.bias f4 [50]
000000 8c 38 3b 3f 1a 91 79 3f 00 b7 14 3f 70 bb be 3e
       0.7313316 0.9748703 0.58091736 0.37252378
000010 95 d3 7d 3f 38 4d 25 3d 1e 17 92 bf 67 9d 43 3f
       0.99150974 0.040356845 -1.1413305 0.7641205
000020 87 36 08 bf 8c 83 b0 3f c8 a5 94 3d 19 eb f4 3f
       -0.532082 1.3790145 0.07258183 1.9134246
000030 d8 de 95 3d e7 31 c6 3f 85 92 b2 3f c2 ad 2a 40
       0.07317895 1.5483979 1.3950964 2.6668553
000040 8f 65 29 bf c4 4a 04 3f 32 ad 07 3f 62 ab 48 3f
       -0.6617059 0.51676583 0.5299865 0.7838651
000050 8f 4e 87 bf 04 f7 82 3f ba 14 49 bd 25 4f 85 3f
       -1.0570849 1.0231633 -0.049092032 1.0414778
000060 87 a6 35 be f1 24 3d 3f b1 1f d5 3f 79 58 19 40
       -0.17739306 0.73884493 1.6650296 2.396025
000070 3b 1d 38 3f ec 17 37 bf 1c db ee 3f 03 b7 ff bd
       0.719196 -0.71520877 1.8660617 -0.124860786
000080 78 3b f7 3e ad e0 f0 be f8 aa 31 3e e3 c9 89 bc
       0.4828756 -0.47046414 0.17350376 -0.0168199
000090 8f ff 8f be 72 fd 06 3f 34 f4 38 3f e9 15 8d be
       -0.28124663 0.52730477 0.72247624 -0.2755578
0000a0 99 7c 4e 3f 78 a7 9d bd 2c 4c c4 3f b8 0a b4 3e
       0.8065887 -0.07697958 1.5335746 0.35164428
0000b0 d0 5b ca 3f 84 89 d7 3f 27 48 a4 3f 82 98 24 be
       1.5809269 1.6838841 1.2834519 -0.16073802
0000c0 4a 90 47 3f 55 27 ff 3c
       0.7795454 0.031146685

fc_out.weight f4 [10, 50]
000000 9b 7a f1 be 0e d9 8f 3e 33 15 81 be a4 7e 82 be
       -0.47163853 0.28095287 -0.25211486 -0.25487244
000010 0a ee 19 bf fe 55 4b bf b5 db d0 be 1e 62 cb bd
       -0.60128844 -0.7942809 -0.40792623 -0.09930824
000020 18 75 c3 be 69 0b 43 3f 75 24 99 3e 48 a2 9c be
       -0.38175273 0.76189286 0.29910627 -0.3059256
000030 f0 f2 62 be 8e 0b fa 3e f9 b6 13 c0 fb 99 bd bf
       -0.22162986 0.4883694 -2.3080428 -1.4812616
000040 75 6f e8 3d e6 4e 6a bd 2c 04 a0 3f 78 bc cc be
       0.11349384 -0.05720415 1.2501273 -0.3998754
000050 8f f7 82 3f 95 dd 92 bd 3b 79 4e 3f 9e 5a ac 3f
       1.0231799 -0.0717117 0.80653733 1.3465154
000060 04 7a 34 3d 4e 19 5f bf 9b 70 7a 3f 67 e2 cf bf
       0.044061676 -0.87147987 0.9782807 -1.6240968
000070 b7 7d 03 bf bc 93 a5 bf c0 f0 92 3f 42 99 8c be
       -0.513637 -1.293571 1.1479721 -0.27460676
000080 7e 5f 1b bf a8 46 9d be 4a cb a6 3f 7f 4d fb be
       -0.60692585 -0.3071797 1.3030789 -0.49082562
000090 65 a1 84 bf 34 15 30 3c e6 b9 13 3f bb e9 29 3f
       -1.0361754 0.010747243 0.57705534 0.6637227
0000a0 7d 10 5a be 56 5f 2d 3e 43 f8 f7 3c 52 2b 04 3e
       -0.21295352 0.16930899 0.030269748 0.1290715
0000b0 cd a7 82 3f e0 84 07 3f 9d f9 c3 bd c5 7b f0 3f
       1.0207459 0.52937126 -0.09569094 1.8787771
0000c0 6a a3 90 3f 8f fa bc be 3f b1 89 bd 60 2e 4a 3f
       1.129987 -0.3690991 -0.0672326 0.7897701
0000d0 71 c0 b9 be 94 8c b2 be cc df 31 bf 38 ba 7d bf
       -0.36279634 -0.34872878 -0.6948211 -0.9911227
0000e0 52 2d f8 be 45 d6 32 be 9f 8b 76 bf b6 da 98 3f
       -0.48472077 -0.1746455 -0.96306795 1.1941745
0000f0 ca 09 8c 3d ac dd 6e be eb 39 9d 3e d3 01 8e be
       0.068378046 -0.23326749 0.3070825 -0.27735767
000100 ff f1 ba bf ca 8b 8e bf 61 b9 29 bf da 28 3a be
       -1.4605101 -1.113641 -0.6629849 -0.18179646
000110 cf 87 7c 3f 4d b5 27 bf 1a 27 79 3f d7 d9 22 bf
       0.9864473 -0.6551102 0.9732529 -0.6361365
000120 24 c1 d7 3e 9d 9b 79 3f 0f 46 a0 bd b4 e1 56 bf
       0.42139542 0.9750307 -0.078258626 -0.83938146
000130 1f 56 85 3f 2e e4 b1 bf a3 14 22 be eb 8b 21 bf
       1.0416907 -1.389776 -0.15828185 -0.6310412
000140 7d 6e 5d 3f 34 25 a1 3d 60 5d e7 be 3c 6c 4b be
       0.86496717 0.07868424 -0.45188427 -0.19865507
000150 e8 d5 83 3f 91 fd 18 be 2b 20 72 bf 31 a1 b0 be
       1.0299654 -0.14940478 -0.94580334 -0.3449798
000160 76 86 5a 3f 1a 4c 2f 3f 38 1c 6e be e0 ce 85 bc
       0.8536142 0.68475497 -0.23252952 -0.016333997
000170 63 c5 43 bf 40 3d 8f be d7 5c 90 3f 32 c7 6d 3f
       -0.76473063 -0.27976418 1.1278332 0.9288207
000180 a6 ae a0 be ea 8e 48 3f 65 68 7b 3f 26 dc 2e bf
       -0.31383246 0.7834307 0.9820617 -0.6830467
000190 7e 38 c8 bd 31 30 2f 3f c8 97 e2 bd 12 a1 c3 be
       -0.097764 0.6843291 -0.11064106 -0.38208824
0001a0 c2 47 36 bf 5a 06 3e bf fc 2c f6 be 61 51 05 bf
       -0.71203244 -0.7422844 -0.48081195 -0.520773
0001b0 b3 fd 14 bf 70 7c 31 3f 76 e7 79 3d 1f 43 0c bf
       -0.58199614 0.693305 0.061011754 -0.5478992
0001c0 0b b9 0e be 62 47 b7 3d 8b 93 63 bf 96 8e 8a bf
       -0.13937776 0.08949162 -0.8889701 -1.0824764
0001d0 17 6b fa be f7 d3 38 bd 10 f6 1b 3f c2 09 13 bf
       -0.48909828 -0.04512402 0.60922337 -0.57436764
0001e0 17 fc 64 3f 3f d8 5a be 0b 2b a3 3e d3 ae a4 3f
       0.8944716 -0.21371554 0.31868777 1.2865852
0001f0 11 6e 0f be d5 a5 69 bf f0 2f 46 3f 29 78 be bf
       -0.14006831 -0.91268665 0.77416897 -1.488042
000200 ca 49 ef be 39 f3 32 bf 22 2d 9c 3f 00 be 2e 3c
       -0.46735984 -0.6990238 1.2201273 0.010665417
000210 30 39 44 bf 33 65 78 3c 52 9b 24 3f cd c5 53 be
       -0.7664976 0.0151608465 0.642995 -0.20680924
000220 83 27 2d bf 85 4c b7 bd 91 33 57 3f 2c 35 44 3f
       -0.67638415 -0.08950142 0.8406306 0.76643634
000230 43 47 a8 be 2e 4b 7e 3e 4e e5 6e bf 26 2b 15 be
       -0.32866868 0.24833366 -0.9331864 -0.14567241
000240 9d 45 9c 3f 66 fa 4a 3f 23 8f 0d be e0 2c 01 3f
       1.2208744 0.7928833 -0.13824134 0.504591
000250 e6 7c 64 3f 35 10 0c bf c4 13 ab bc ba 6b 87 3f
       0.8925308 -0.5471223 -0.020883448 1.057975
000260 93 8e 9b bd 1d a3 b6 be 38 7d b8 be 73 50 3b bf
       -0.07595553 -0.3567132 -0.36033034 -0.7316963
000270 02 05 d3 be f7 a1 8b be 8d e4 6a be a8 54 4e 3f
       -0.41214758 -0.27272007 -0.22938748 0.80597925
000280 cc f3 00 3e b5 de 25 bf 05 77 83 be 31 f8 a5 be
       0.12593001 -0.6479295 -0.25676742 -0.32415918
000290 4f 6d 85 bf 15 46 9a bf bf 89 4f bd de 6c df be
       -1.0423983 -1.2052637 -0.050668474 -0.43637747
0002a0 f7 21 e8 3e d5 2b 03 bf d7 2a 5c 3f 61 ac 2b bf
       0.45338413 -0.5123876 0.8600287 -0.67059904
0002b0 e7 3a 00 3f 87 6c 8b 3f 78 1c 9b 3e 72 e3 64 bf
       0.5008988 1.0892495 0.30295157 -0.89409554
0002c0 e1 5f a3 3f 70 b4 91 bf bf b9 dd be 1c 7f 3d bf
       1.2763635 -1.138319 -0.43305776 -0.7402208
0002d0 24 13 71 3f d2 28 96 3e e0 94 3e bf e5 07 42 be
       0.9416983 0.29328018 -0.74445915 -0.18948324
0002e0 00 61 47 3f da 60 ef be c0 b8 16 bf 38 80 dc be
       0.77882385 -0.4675358 -0.58875656 -0.43066573
0002f0 01 0b 75 3f b3 6f 70 3f 87 f5 1c bf 26 3c 98 be
       0.95719916 0.9392044 -0.61312145 -0.2973339
000300 98 5a 32 bf 6b 4d de 3d 52 c3 79 3f b7 a8 2b 3f
       -0.69669485 0.1085461 0.9756366 0.67054313
000310 a0 55 9f be 9e f2 c9 3e 91 c5 5e 3f 89 d6 0b bf
       -0.31120014 0.39442915 0.8702021 -0.5462423
000320 2b 16 d1 be b6 c3 16 3f 9d 05 c9 be 0a 3d 16 3c
       -0.40837225 0.5889238 -0.39262095 0.009169826
000330 ec 52 a5 be b4 2e ae be e6 63 63 bf 11 35 76 be
       -0.32289827 -0.34020007 -0.8882431 -0.2404368
000340 c7 8a 2e bf bb 06 1e 3f f9 71 1e 3f fb 42 1c bf
       -0.6818051 0.6172902 0.6189266 -0.61039704
000350 93 db 86 be 41 28 37 bf f2 98 6e bf ab fc 9a bf
       -0.26339397 -0.715458 -0.93202126 -1.2108358
000360 70 fd a7 be 7a 0a 9a be d2 15 44 3f ce 43 04 bb
       -0.32810545 -0.30086118 0.76595795 -0.0020182016
000370 4e d5 a1 3f 5d a1 0c bf 90 1d 91 3e 06 af 42 3f
       1.264322 -0.5493372 0.28342867 0.76048315
000380 a0 df 96 be e3 73 4e bf bf 52 a7 3f 77 c9 5e bf
       -0.29467487 -0.8064558 1.3072127 -0.8702616
000390 c8 71 e9 be 94 97 3e bf 79 0a 87 3f b7 97 79 bd
       -0.4559462 -0.7445004 1.0550071 -0.060935702
0003a0 a3 64 04 bf e8 b7 d4 bc df 07 91 3f 67 a9 99 be
       -0.5171606 -0.0259666 1.1330527 -0.30012056
0003b0 b5 23 8e be 78 11 08 bf 31 45 80 3f 6f 16 47 3f
       -0.27761617 -0.53151655 1.0021116 0.77768606
0003c0 c1 fa 04 bf 8a 4f 1e 3e e0 83 3c bf eb 3f bf 3d
       -0.5194512 0.15460029 -0.73638725 0.09338363
0003d0 61 ac 87 3f b4 de 4c 3f d4 3f c2 be 5b 32 2a 3d
       1.0599481 0.8002732 -0.37939322 0.04155193
0003e0 73 28 1b 3f b7 66 e3 be 7c 2e db be 10 6a 80 3f
       0.60608596 -0.44414303 -0.42808902 1.0032368
0003f0 a0 98 78 be 84 e8 9d bc c4 19 0c bf f1 0f 0a bf
       -0.24276972 -0.019275911 -0.54726815 -0.53930575

fc_out.bias f4 [10]
000000 54 9d e7 3d 23 a6 93 be 2c da bb be 04 8f 21 be
       0.11309305 -0.2883769 -0.3668989 -0.15777212
000010 c5 91 9a be 48 ac 99 be 35 dc 80 be 8c f7 fa be
       -0.30189338 -0.30014253 -0.25168005 -0.49016988
000020 5a a4 a4 be 95 8b 1f bf
       -0.3215664 -0.6232236
