models/Q4_228.pt (torch_old, 3768 bytes, 4 tensors)

fc1.weight f4 [50, 4]
00000000: 2001 163f 2369 463f be18 29bf 3ba4 9cbf
00000010: feeb 693f 0531 813f 5831 4dbe f009 4ebf
00000020: 33e1 c8bf 8d0e bd3f 3d46 c93f aff8 2bbd
00000030: 17b2 22be 9d41 1abc af91 f9bf 0731 1b40
00000040: 8a81 a3bf 45f5 843f a520 5fbe 3a39 d53f
00000050: 260c f6be e368 5c3f a3b0 b9bf 44c1 013e
00000060: 9d5d c2bf 0298 a03f 4442 05bf 2e4a cdbe
00000070: 5b78 9e3f 158f cdbf e29a 6a3e a11e 4340
00000080: acba 1d3f ac7e 733f f8f6 34c0 34f5 97bf
00000090: a1db 82bf 92cb 55bf 2438 e0be b3b1 3bbf
000000a0: 30f6 da3f 6e94 9bbf dd54 e63e 4e76 4940
000000b0: 4c2b 0640 cd77 cbbf 599d 893f 7f8c 0f40
000000c0: 791f 5a3f e1d6 bb3e 852c cfbf af8f e93f
000000d0: dad8 4340 9bff 1dc0 42f6 a53f c910 fa3f
000000e0: 0d23 0e3f a82f 943f e284 77c0 6131 fabf
000000f0: e2eb 8a3f f4f5 c53e 1e85 0ac0 647e 0b40
00000100: 694f 7e3f f66e f1bf ccb4 993e 56a8 4840
00000110: a8e2 debf 62f1 4c3f 8b74 1e3f 10a8 e9bf
00000120: 4e54 d7bf fe1d a23f 6b07 38be cc01 0040
00000130: 72ef 9cbf 7846 843f 3720 e4bf 6396 5ebf
00000140: 3cd8 f93f 3726 02c0 bcc6 6b40 edc9 3440
00000150: 7d38 b43f 6982 843e 613a 2dc0 c3a4 6d3f
00000160: 676b 1240 13e6 3dc0 777f 39bf 86d0 82bf
00000170: 63b0 d53f 758c 8dbf c73f f33e 4b3d 4540
00000180: d5f4 ab3f 5ae2 9f3e 12c3 23c0 235e d73f
00000190: e172 a0bf 79f9 483f 3ed1 cdbf b22b 4dbd
000001a0: 2955 bcbd 518b ee3f d87d 6a3e 219f f6bf
000001b0: 71ca 853e 9948 333f 0c16 dfbf 954b 1340
000001c0: ea11 03bf 35c7 bf3f 88b3 dbbe a748 e23f
000001d0: dced cc3e 71f0 da3f e3af 0fbe 3d02 783f
000001e0: e37d 1240 3fac 22c0 9820 943f 02bf 1e40
000001f0: 3833 5abf 601f 83be 5e86 abbf 6ab7 1140
00000200: 4210 593f fada 703f 2324 20bf f86e 9abf
00000210: d235 6b3e bfd3 d93f b57e ff3f d320 0b3f
00000220: b5c0 68bf 4d99 943f e8f0 74bf 05df 39bd
00000230: 115d 96bf b53a 023f 085c c7bf 8607 20bf
00000240: 58f3 2b3c 8551 c63f e5c8 19c0 0dae 86bf
00000250: 5cef 853f ac19 e0bf 05a1 d33e cf2d 3740
00000260: 35cd 23bf bc14 ea3f 36f1 033f 9943 08c0
00000270: 33f3 c5bd c2fd 8b3e 1a96 e1bf 90a5 0540
00000280: 3170 babd 54b8 edbf a09e 87c0 cc2a 273e
00000290: 1d4a e23f d1d5 a7bf e93f a9bf 1740 8d3f
000002a0: 4361 c7bf 40d3 983f 240d b5bf 1a3b 0440
000002b0: 7aaf dbbf 4acd 363e b90c f03c 2b84 ef3f
000002c0: cf16 15bd d8bb ecbf 7b0e 8e40 682b fb3f
000002d0: 9b84 dd3f 2d04 39bf a2af 143f d2ad 1e40
000002e0: ccba b23f 8fd4 eebf af93 f23f 7eff 1340
000002f0: cfef 963e 6282 c93f 4c75 0840 8c13 6b3e
00000300: b9e6 58bf 759c f93f 3889 983f e27c a7bf
00000310: 0bc7 e93f 32d1 7abf cb8c de3f 92ba 313f
0.58595467 0.77504176 -0.6605338 -1.2237619 0.9137572 1.0093085 -0.20038354 -0.80483913
-1.5693725 1.4770066 1.572456 -0.04198521 -0.15888248 -0.0094150575 -1.9497584 2.4248674
-1.2773907 1.038735 -0.21789797 1.6658089 -0.48056144 0.86097544 -1.450703 0.12671381
-1.5184819 1.2546389 -0.5205424 -0.40095657 1.238048 -1.605929 0.22910646 3.0487444
0.61612964 0.9511516 -2.8275738 -1.1871705 -1.0223275 -0.8351375 -0.43792832 -0.7331802
1.710638 -1.2154672 0.4498662 3.1478457 2.0963926 -1.5895935 1.0751144 2.2429502
0.85204273 0.36687377 -1.6185461 1.8246974 3.0601106 -2.468726 1.2965777 1.9536372
0.55522233 1.1577044 -3.8674855 -1.9546319 1.0853236 0.3866421 -2.1643748 2.1795893
0.9933992 -1.8861988 0.3002075 3.1352744 -1.741292 0.8005582 0.6189658 -1.8254414
-1.6822603 1.2665403 -0.1797158 2.0001097 -1.2260573 1.0334005 -1.7822331 -0.8694822
1.9519114 -2.0335824 3.6840048 2.8248246 1.4079739 0.25880745 -2.7066882 0.9282953
2.2878053 -2.9671676 -0.7246012 -1.0219886 1.6694454 -1.1058489 0.47509596 3.081866
1.3434092 0.3122738 -2.5587811 1.6825603 -1.2535058 0.78505665 -1.6079481 -0.0500905
-0.091959305 1.8636266 0.22899568 -1.9267312 0.26131013 0.7003265 -1.7428603 2.3014882
-0.5119921 1.4982668 -0.4291041 1.7678422 0.40025222 1.7104627 -0.14031939 0.96878415
2.2889335 -2.541763 1.1572447 2.4804082 -0.85234404 -0.25609875 -1.3400381 2.2768197
0.8479043 0.9408413 -0.6255514 -1.2065115 0.2296975 1.7017745 1.9960543 0.5434696
-0.9091905 1.1609284 -0.95680094 -0.045378704 -1.1747152 0.5087083 -1.5574961 -0.6251148
0.010495029 1.5493628 -2.4028866 -1.0521866 1.0463672 -1.7507834 0.41333786 2.862171
-0.63984996 1.8287578 0.51539934 -2.1291258 -0.09665527 0.2734204 -1.7623932 2.0882301
-0.0910343 -1.8571877 -4.2381134 0.1632492 1.7678868 -1.3112127 -1.3222629 1.1035184
-1.5576557 1.1939468 -1.4144635 2.0661073 -1.7162926 0.17851749 0.029302942 1.871221
-0.036398705 -1.8494825 4.4392676 1.9622622 1.7306093 -0.72271997 0.58080494 2.4793591
1.3963256 -1.8658618 1.895132 2.312469 0.29479834 1.5742915 2.1321592 0.22956675
-0.84727055 1.9500872 1.1916876 -1.3084986 1.8263868 -0.97975457 1.7386717 0.6942531

fc1.bias f4 [50]
00000000: 0782 9f3e 6404 e53e 5d2c fdbe 650e 813f
00000010: f69f 973f 448b 6ebe b8db 703f 2ea1 1640
00000020: 994e a9bf 9e75 bcbe defe 1a40 2fbb 4340
00000030: 7e15 6b3f 0c16 e63f fe6d 88bf c9e6 393f
00000040: 7883 1340 6a95 c5bf 7dd5 7d3f 997e a8bc
00000050: f762 7e40 b467 583f 353d 30bf 62d3 0e40
00000060: fe7d 873e a17f 67bf 7da5 c8bf 67e9 6b3f
00000070: 3395 7c3f 62cc 253f c91b 1d40 e881 523f
00000080: 04ab e33e 20e8 b0bd 6354 35bf 3072 b0be
00000090: da41 05bf edd1 3340 c2db c5bf 0ec5 a43f
000000a0: 7bee 13bf 7c5b d73f cb70 743f b585 ae3e
000000b0: 412b 3040 216b 2f40 3f5e 3540 0782 803c
000000c0: 8bae 57bf 99c8 7e3f
0.3115389 0.44729912 -0.4944791 1.0082518 1.1845691 -0.23295313 0.94085264 2.3535876
-1.3227111 -0.36808485 2.4218059 3.0582998 0.9182967 1.7975478 -1.0658567 0.72617775
2.3048992 -1.5436223 0.9915388 -0.020568179 3.9747903 0.8453324 -0.68843395 2.2316518
0.26463312 -0.9042912 -1.5675503 0.9215302 0.9866516 0.6476499 2.4548209 0.8222947
0.44466412 -0.08638024 -0.7083189 -0.34462118 -0.52053607 2.8096879 -1.545769 1.2872636
-0.5778577 1.6824794 0.9548461 0.34086385 2.75264 2.7409136 2.8338773 0.015687002
-0.84250706 0.9952484

fc_out.weight f4 [10, 50]
00000000: 68b1 563e 6023 4f3d c052 bd3f 9dec f4be
00000010: b358 03be 11e0 f2be da5d ba3c 6837 1540
00000020: 1c98 34c0 4578 9f3e 44f2 1940 a27e 4bc0
00000030: c188 0cbf 22e8 973e 7428 1fc0 a431 31bf
00000040: 52b5 1340 0a04 c33f a323 84be d169 46be
00000050: 6817 f9bf 2e88 cbbe 155a 96bf 89db 1c40
00000060: 8f6c 5bbe 27c7 9dbe f2a1 2740 ed59 86be
00000070: 583f e0be 424f 693e d464 18bf 8046 f2be
00000080: 069c 583e c4a6 583e 66e5 08bf e606 23bf
00000090: 45ec 9ebe dcc1 2b40 a676 d23f 265e 85be
000000a0: d46c d7bf 7308 dabf e6c8 ddbe cf46 dcbe
000000b0: 84a2 08c0 50da a33f 4863 23c0 1123 443f
000000c0: 47a3 bc3f d105 8f3f 0032 66ba b018 463d
000000d0: 4947 a73f 636a 3bbf 44ee eebe 96a5 95bd
000000e0: 7765 ccbd bc12 1340 ec11 edbf bcdb 6cbe
000000f0: 4c74 0140 94e8 dcbf 584d edbe 3f02 eebe
00000100: f92e cfbf 7305 bbbe ddd4 ec3f c9ae 8f3f
00000110: 28dc e5bd b5f5 14bf 4ae8 d4bf 39cc 29bf
00000120: b27d 65bf 9bc9 0640 fe3e 94be 7bef 9fbe
00000130: c5fa 0540 5a53 bebe d6a6 67be 72b8 ffbe
00000140: 2b95 95bf 95d8 ddbe c82a 6cbd 2266 353f
00000150: e760 c8be d313 b2be dba8 36bf 8f7f 0540
00000160: 0b0b ce3f aa0b 0ebe 5698 9bbf c40e 8ebf
00000170: 1c19 edbe 403a 0bbf 0470 eabf 7ab2 f53f
00000180: fe3d ffbf 5951 903f cbbb b43f 28bd 3c3f
00000190: 38fd 9abd 64ba b73d 3236 a13f 2606 d7be
000001a0: 3b53 73be 3f59 aebe 9d92 61bd 6e5c e83f
000001b0: de94 94bf e80d cc3d e86f 1440 fc8e cebf
000001c0: 271c 2bbf c184 11bf b8bf b2bf 0f1f 24bf
000001d0: db5b 0340 04b2 af3f 1a7c 85be 3e59 c8be
000001e0: f187 f0bf 0b67 d5be 0760 70bf 76e9 0640
000001f0: c85c f9be 0932 eebe dd03 fc3f 7753 94be
00000200: f662 f9be 46c0 803c b3ff 9bbf b9e0 11bf
00000210: e4ac a9bd 2ffa 5b3f d24c 14be adfd bdbe
00000220: 8a16 14bf eea9 0340 a84e d23f 9c5b 0abf
00000230: 922d a2bf 69d2 6fbf 9bb8 acbe fe32 febe
00000240: a533 00c0 40af fa3f 1e9c d7bf f340 853f
00000250: 7496 cd3f 704f 7b3f 9b4c 533d 5042 e93c
00000260: 33d6 9c3f 5043 30bf 0cdf b4be ed2d edbe
00000270: 1df7 4cbd 9eff ef3f 6742 53bf e551 9e3e
00000280: c112 e43f 0239 95bf 6444 2dbe 70a1 88bf
00000290: 1d54 9dbf c18e 45bf 909d 1140 5bd1 d43f
000002a0: aab8 c3be 5ef6 62be be2b e3bf f263 ddbe
000002b0: 7ea8 5bbf f65c 1240 c467 13bf 3d8f 18be
000002c0: 5ab4 0140 8cb1 0cbf cdb9 07bf 1e3a 9abe
000002d0: f06d 9fbf 5e8b c5be ff85 9e3e 6890 283f
000002e0: 47c8 afbe e47a 95be eac3 acbe 0f70 df3f
000002f0: b866 dd3f 9bb5 5abe d5fa aabf 47d8 86be
00000300: f37b 82be 446b 7abe 56b4 e5bf 53b4 e43f
00000310: 988f c4bf 152d a83f 0ca4 983f 4e90 303f
00000320: a640 77be 63a1 99be eaea 7e3f ce8a b2be
00000330: 9242 f6bd c63c e4bd 61b3 f4be 47ce 0040
00000340: 6de3 cfbf 85ea 4cbe 6bcc e83f dc4f 8cbf
00000350: 0cd3 bdbe 3582 87bf a017 a0bf ca9b a6be
00000360: 7fcf e03f 1a87 d63f 49f2 12bf 7543 01bf
00000370: 9a67 d3bf 3eff 46bf 4d46 a2bf 327a fc3f
00000380: 34bc 0abf 2857 b3bd 9f6a 0240 3ae7 2bbf
00000390: 7300 8ebe 6798 95be ec0c 9fbf 3867 79be
000003a0: bfc4 7abe cd3e 603f 93a7 9cbe a33c 77be
000003b0: dfe0 86be 0c98 0440 cc0d d43f 2638 4abf
000003c0: a98d 99bf a94a 93be d2b4 0dbf d43f c8be
000003d0: fd03 cdbf 59ba 0b40 98d1 d2bf 841c af3f
000003e0: c2d3 9b3f bdb4 0c3e 3c76 9cbe da5b 463e
000003f0: 512d b23f f490 94be 2a8a 01bf 330b 9ebe
0.20966113 0.050570846 1.4790878 -0.47836772 -0.12826805 -0.47436574 0.02274983 2.3315067
-2.821784 0.31146446 2.4054117 -3.179604 -0.5489617 0.2966929 -2.486844 -0.6921637
2.307942 1.5235608 -0.2580844 -0.19376303 -1.9460268 -0.39752334 -1.1746241 2.4508994
-0.2142813 -0.30816004 2.6192594 -0.26240483 -0.43798327 0.2278414 -0.5952885 -0.47319412
0.21153268 0.21157366 -0.53475034 -0.636824 -0.31039634 2.6837072 1.6442459 -0.26048392
-1.6830087 -1.7033828 -0.43317336 -0.43022773 -2.1349192 1.2800999 -2.5529346 0.7661601
1.4737328 1.117365 -0.00087812543 0.048363388 1.306863 -0.7320921 -0.46666157 -0.07306974
-0.099802904 2.2980185 -1.8521094 -0.23130697 2.0227232 -1.7258477 -0.4634807 -0.4648609
-1.618621 -0.36527595 1.8502461 1.1225215 -0.11223632 -0.5818742 -1.6633389 -0.66327244
-0.8964492 2.106055 -0.2895431 -0.31237397 2.0934308 -0.37172967 -0.22622237 -0.49945408
-1.1686147 -0.433293 -0.057657987 0.7085897 -0.3913643 -0.3478075 -0.71351403 2.0859106
1.609712 -0.13871637 -1.2155864 -1.1098256 -0.4630822 -0.5438576 -1.8315434 1.9195092
-1.9940794 1.1274825 1.411981 0.7372613 -0.07567829 0.08971098 1.2594664 -0.41996878
-0.23762219 -0.34052464 -0.055071462 1.8153207 -1.1607931 0.0996359 2.3193302 -1.6137385
-0.6683983 -0.5684319 -1.3964758 -0.6410989 2.0524814 1.3726201 -0.26071244 -0.39130586
-1.8791486 -0.41680178 -0.93896526 2.1079993 -0.487036 -0.4652255 1.9688679 -0.2896993
-0.48708314 0.015716683 -1.2187408 -0.56983525 -0.082849294 0.85928625 -0.1448243 -0.37107602
-0.5784689 2.0572467 1.6430254 -0.54046035 -1.2670157 -0.93680435 -0.33734593 -0.4964828
-2.0031521 1.9584732 -1.6844518 1.0410446 1.606154 0.98168087 0.05158673 0.028474003
1.2252868 -0.6885271 -0.3532642 -0.463241 -0.050040353 1.8749883 -0.82523197 0.30921856
1.7818223 -1.1658022 -0.1692062 -1.0674267 -1.2291294 -0.7717095 2.2752419 1.662639
-0.38226825 -0.22164294 -1.7747724 -0.43240315 -0.85803974 2.286924 -0.5758021 -0.14898391
2.0266328 -0.54958415 -0.53017884 -0.30122465 -1.2455425 -0.3858289 0.30961606 0.65845346
-0.34332487 -0.2919532 -0.3374322 1.7456073 1.7296972 -0.2135834 -1.3357798 -0.26336882
-0.2548519 -0.24454981 -1.7945659 1.786753 -1.5356321 1.3138758 1.1925063 0.6897019
-0.24145755 -0.3000594 0.995772 -0.34871525 -0.12024416 -0.11144404 -0.47793105 2.0125902
-1.624128 -0.20011337 1.8187383 -1.0961871 -0.37075078 -1.0586611 -1.250721 -0.32540733
1.7563323 1.675998 -0.5740095 -0.50493556 -1.6515992 -0.7773322 -1.2677704 1.9724791
-0.54193425 -0.08756858 2.0377576 -0.671497 -0.27734718 -0.29217836 -1.2425818 -0.24355781
-0.24489115 0.87595826 -0.305966 -0.24144225 -0.26343438 2.0717802 1.656671 -0.78991926
-1.1996356 -0.287679 -0.55354035 -0.39111197 -1.6016842 2.1832488 -1.6470213 1.3680577
1.2173998 0.13740821 -0.30558956 0.19370976 1.392008 -0.2901684 -0.50601447 -0.3086792

fc_out.bias f4 [10]
00000000: 49d7 acbe f267 c7be 09da f4be 143b 76be
00000010: 4531 d6be da15 44be 8157 0abf 5f4c 96be
00000020: cb20 89be 2526 f6be
-0.33758 -0.3894649 -0.47822598 -0.24045974 -0.41834465 -0.1914896 -0.5403977 -0.29355142
-0.26782832 -0.48075977
