models/S3_34534.pt (torch_old, 3816 bytes, 4 tensors)

fc1.weight f4 [50, 4]
1.2133745 -0.2400477 -0.6505711 -1.1244215 -0.3902437 0.010506406 -1.7173246 -0.09428203
-1.4925559 0.90734214 -1.6392838 0.32999805 -1.0169182 -0.42481008 -1.3185701 1.6552168
-1.1853608 1.0368801 -1.5988805 -0.73527217 1.2705368 -1.3462411 0.87387925 2.8570874
0.9797449 -1.5938376 2.277298 0.35244718 -0.71052104 -1.0850586 2.4368014 1.0525191
0.054924108 1.1490676 1.5862858 0.9398344 0.8445145 0.8887702 -0.66369647 -0.98505354
-0.7475173 0.20524652 -0.8882318 0.39719906 -0.21032214 -0.31658965 0.13895619 -1.1844256
-0.82719415 1.2214748 2.4529784 -0.67773515 -0.5280157 1.0822406 0.7214961 -1.7223601
0.8175192 -1.1356491 2.1186526 0.8151193 -0.33319303 0.2781565 -0.7534355 0.848505
0.60922354 0.030804025 2.735637 1.3239329 0.54900116 -1.8782634 0.971978 2.6717932
-0.27710617 -0.17514479 -0.19901478 -0.81108314 0.9619393 -0.9989752 1.9231808 0.60748035
1.9509338 -1.540116 -0.3612228 -0.85631996 -0.9340294 -0.17723212 1.7728981 0.78330517
-1.2433732 -0.64102924 2.4358675 0.6981854 -1.3139716 1.2706715 1.9264865 -0.9489742
1.1694443 -0.31590816 -2.3169298 0.51032597 1.574028 -0.587728 0.84782624 0.42350537
-1.1716288 1.1113455 0.16814658 -2.1237004 0.9938625 -1.1316943 -1.3986695 0.23978867
1.3447486 -0.975451 1.5190184 1.7672155 1.4366134 -1.4074878 0.14048101 2.7653456
0.7753398 -0.95897347 2.3280897 1.4849125 -0.069123484 0.84089965 -0.02962305 0.87960863
-0.81492054 1.0844878 -0.49785188 0.122199684 -0.4096746 -0.06919284 0.36737406 -1.244962
1.2390697 -0.8135833 -0.8074975 -0.8195085 1.7049277 -1.2295344 -0.5018677 -1.065201
1.0352947 -0.7334989 -2.692582 0.93756056 -1.5984238 0.47040477 -0.52577084 0.34534648
0.77591115 1.138667 -2.0004501 2.012023 1.0111877 -0.011778335 2.328144 0.51025236
-0.06385393 -1.052424 2.1886501 0.71281147 -0.7197887 -0.057088967 -0.906376 0.90975326
0.47513947 0.5865833 -0.40973374 -0.8687047 0.3948617 -0.09656215 -0.0030654669 -1.0029161
0.068249464 2.2295058 1.9828779 -0.064371035 0.82201236 0.2149673 -2.1670477 1.6319795
-0.107092224 1.1944871 -1.0636162 1.4838188 0.43678966 -1.5286934 1.0213823 2.4962893
0.91614187 0.666221 -1.7337583 1.6321476 -0.66545576 -0.09393973 -0.6088253 0.96083295
00000000: db4f 9b3f 10cf 75be d48b 26bf 0bed 8fbf
00000010: 06ce c7be 1023 2c3c 4bd1 dbbf f016 c1bd
00000020: 120c bfbf 9347 683f 0dd4 d1bf 81f5 a83e
00000030: 602a 82bf b580 d9be e8c6 a8bf 25de d33f
00000040: e7b9 97bf 7db8 843f 1ea8 ccbf cc3a 3cbf
00000050: f3a0 a23f a151 acbf 8db6 5f3f 85da 3640
00000060: 90d0 7a3f df02 ccbf 40bf 1140 f573 b43e
00000070: b5e4 35bf 33e3 8abf 8ef4 1b40 f2b8 863f
00000080: 1af8 603d a614 933f 6a0b cb3f fd98 703f
00000090: 1a32 583f 7286 633f 03e8 29bf 782c 7cbf
000000a0: 4b5d 3fbf 252c 523e 2963 63bf ad5d cb3e
000000b0: b05e 57be 0a18 a2be 884a 0e3e 429b 97bf
000000c0: ffc2 53bf 4959 9c3f 99fd 1c40 0d80 2dbf
000000d0: 092c 07bf dc86 8a3f f8b3 383f 4c76 dcbf
000000e0: f048 513f f35c 91bf 0198 0740 a9ab 503f
000000f0: 4798 aabe 876a 8e3e 26e1 40bf a037 593f
00000100: 13f6 1b3f b958 fc3c ad14 2f40 a276 a93f
00000110: 578b 0c3f ef6a f0bf 8dd3 783f a9fe 2a40
00000120: dce0 8dbe 2859 33be 88ca 4bbe 25a3 4fbf
00000130: a741 763f d7bc 7fbf ca2a f63f d583 1b3f
00000140: 33b8 f93f 8522 c5bf 32f2 b8be c937 5bbf
00000150: 8d1c 6fbf 567c 35be 53ee e23f b086 483f
00000160: da26 9fbf 7e1a 24bf 41e5 1b40 47bc 323f
00000170: 3930 a8bf 5da5 a23f 1c97 f63f f9ef 72bf
00000180: 5ab0 953f b7be a1be 9448 14c0 b9a4 023f
00000190: c079 c93f 5875 16bf 240b 593f b2d5 d83e
000001a0: eff7 95bf 9240 8e3f 9e2e 2c3e b5ea 07c0
000001b0: c66d 7e3f 5cdb 90bf 9a07 b3bf 298b 753e
000001c0: b920 ac3f 28b7 79bf 326f c23f 1e34 e23f
000001d0: f3e2 b73f 8f28 b4bf 41da 0f3e 6cfb 3040
000001e0: ab7c 463f 497f 75bf 6cff 1440 9d11 be3f
000001f0: 9d90 8dbd 3345 573f 0aac f2bc 082e 613f
00000200: a29e 50bf 7fd0 8a3f 71e6 febe d443 fa3d
00000210: dfc0 d1be fab4 8dbd 7418 bc3e ea5a 9fbf
00000220: d699 9e3f ff46 50bf 28b8 4ebf 4fcb 51bf
00000230: 123b da3f 6261 9dbf 677a 00bf 8258 88bf
00000240: 8984 843f 95c6 3bbf 4353 2cc0 f803 703f
00000250: 2799 ccbf e5d8 f03e eb98 06bf 41d1 b03e
00000260: 1da2 463f d7bf 913f 6007 00c0 fcc4 0040
00000270: 996e 813f ebf9 40bc 5000 1540 e69f 023f
00000280: d9c5 82bd d4b5 86bf d812 0c40 d07a 363f
00000290: 1244 38bf 1fd6 69bd 4208 68bf 97e5 683f
000002a0: 7b45 f33e 532a 163f 9fc8 d1be 6e63 5ebf
000002b0: 502b ca3e 60c2 c5bd 00e6 48bb 8e5f 80bf
000002c0: 60c6 8b3d 39b0 0e40 f1ce fd3f f6d4 83bd
000002d0: 676f 523f 6320 5c3e e9b0 0ac0 b4e4 d03f
000002e0: 2b53 dbbd f4e4 983f 9324 88bf c6ed bd3f
000002f0: e5a2 df3e 3aac c3bf a8bc 823f 34c3 1f40
00000300: 4688 6a3f 768d 2a3f cbeb ddbf 36ea d03f
00000310: 4f5b 2abf 7963 c0bd fadb 1bbf 26f9 753f

fc1.bias f4 [50]
-0.11173891 -0.10150768 0.44714698 0.2912536 -0.15453148 2.4504354 2.075757 1.0802512
0.11726749 0.09008592 0.7839006 -0.30653924 -0.3139179 -0.88267887 1.6417279 1.5591242
0.8819062 1.8258175 -0.044201612 1.9858476 -0.06323093 0.756423 0.4838478 -1.1890471
-0.7541521 2.258197 -0.7199374 1.4833353 1.2855572 2.7990189 0.976047 0.37296078
0.03550052 0.23350325 -0.3432194 -0.17741857 0.38789287 0.10488147 1.13748 1.973547
1.6844268 0.81031156 0.34771138 -0.28823274 0.8350468 1.4216586 0.937408 1.2382616
0.6436125 1.0131475
00000000: 5fd7 e4bd 42e3 cfbd 73f0 e43e 311f 953e
00000010: 803d 1ebe efd3 1c40 34d9 0440 ac45 8a3f
00000020: f029 f03d f87e b83d b6ad 483f b6f2 9cbe
00000030: d9b9 a0be 3ef7 61bf 2424 d23f 6291 c73f
00000040: 9bc4 613f 63b4 e93f c00c 35bd 4130 fe3f
00000050: 387f 81bd f0a4 413f e6ba f73e b232 98bf
00000060: 1d10 41bf 4d86 1040 d14d 38bf eedd bd3f
00000070: 238d a43f 2023 3340 37de 793f b7f4 be3e
00000080: fe68 113d 7a1b 6f3e 74ba afbe 37ad 35be
00000090: e599 c63e 19cc d63d f298 913f 309d fc3f
000000a0: 4c9b d73f 9470 4f3f 3a07 b23e 3e93 93be
000000b0: a1c5 553f e9f8 b53f f8f9 6f3f 5b7f 9e3f
000000c0: cac3 243f d1ae 813f

fc_out.weight f4 [10, 50]
-0.046223756 -0.41726974 -0.48851433 -0.5053201 -0.40740576 1.9515285 0.13375448 -1.4215566
0.53328973 -0.08831294 -0.5036999 0.045157313 0.84771264 1.8751554 -0.20757453 -0.06952194
-0.54230964 1.6686696 0.2230415 -0.5620351 -0.19077301 1.2989955 -0.77954686 0.6902111
-0.9334381 -0.21172483 -0.20434819 -0.979999 -1.3571951 1.4203157 -1.3784097 -0.20200613
-0.018767364 -0.2262624 -1.2760065 -0.2860628 -0.79368687 -0.22180061 -0.12920941 -1.5443789
-1.4085485 -0.32371566 -0.28998542 -0.25750905 0.98926175 -0.45623273 -0.15821844 1.3728038
-0.4242152 0.08773452 -0.1613888 -0.6288778 -0.35923278 -0.42537877 -0.56646085 1.5900984
-0.61038995 -0.6965526 0.41937947 0.3161395 -0.11868703 -0.2428202 0.47530642 1.9937425
-0.15537633 -0.40901306 -0.45281303 1.332703 -0.21213843 -0.60560435 -0.95341223 0.35614252
-0.38723746 0.98575467 -0.7450788 -0.56322116 0.36864796 -0.2027149 -0.98300445 1.7407869
-0.74156135 -0.35125348 -0.27437493 0.21966143 -0.88163996 -0.56490314 -0.6919973 0.027429763
-0.34303084 -1.0681566 -1.1655873 -0.3337389 -0.11958749 -0.30484238 0.6857338 -0.648964
-0.32251236 1.3320811 -0.10593701 -0.20466869 -0.30358717 -0.42131686 -0.35158455 -0.29096845
-0.4722775 2.040409 -0.104835786 -0.82476604 0.39815408 0.061998576 -0.2891199 0.008511871
0.98678106 2.3677282 -0.3793475 -0.35892943 -1.2946316 1.912986 -0.032239348 -0.84728813
-0.16522749 0.29273823 -0.25608835 1.1090417 -0.94619524 -1.1269318 0.3993643 -0.5850897
-1.2194029 1.8274162 -0.628032 0.058395922 0.010492868 -0.21891159 -0.9142603 -0.39631948
-0.9160669 -0.043492746 -0.3581361 -0.7531838 -0.6543771 -0.291372 0.0018574169 -0.30303624
1.0504968 -0.2645551 -0.2325473 0.59077066 -0.66977346 -0.41534337 -0.2468961 -0.28274718
-0.30544662 -0.34307984 -0.16338824 1.8166001 -0.73984015 -0.68396884 0.44718868 0.07167199
-0.6841985 0.18568513 0.39631984 1.5525135 -0.49891862 -0.5800413 -0.30305228 1.3301064
0.17775857 -1.0486912 -0.9454054 0.5277758 -0.72705823 0.8247534 -0.78499997 -0.63852423
0.3074348 0.030478494 -0.4838503 1.6905915 -0.8608193 -0.1507392 0.1053096 -0.110314816
-0.6954856 -0.5455785 -0.750754 -0.45234913 -0.6136193 -0.92997277 -0.80160755 -0.27698505
-0.1986348 -0.28865087 0.99581444 -0.39606035 -0.4618469 1.3185283 -0.3507035 -0.45554247
-0.8935496 -0.3518454 -0.08256929 -0.17697239 -0.73347807 1.4614278 -0.86965686 -0.7118207
0.22374982 0.20603666 -0.27071217 0.1799269 0.6836298 1.7119178 -0.5428054 -0.6158217
-0.66456926 1.1488792 0.0031805933 -0.81007797 -0.4505684 0.26852313 -0.21556742 0.71890604
-1.0844496 -0.5762215 0.5012632 0.2024047 -0.3953756 1.812768 -0.41413322 -0.21803112
-0.18891829 -0.2846423 -0.3684411 -0.5230146 -0.6833594 -0.5548488 -0.6729664 -1.073967
-1.1568164 -0.2305252 -0.21027753 -0.19052643 1.0607884 -0.16247047 -0.085971765 1.190742
-0.6509062 -0.3699972 -0.46177706 -0.30154708 -0.3668064 -0.47921172 -0.3262463 1.5925972
00000000: 1f55 3dbd 61a4 d5be 8d1e fabe a85c 01bf
00000010: 7d97 d0be b0cb f93f eff6 083e 91f5 b5bf
00000020: ad85 083f 6add b4bd 7af2 00bf e0f6 383d
00000030: b203 593f 1805 f03f 6b8e 54be 8561 8ebd
00000040: ced4 0abf f796 d53f fe64 643e 88e1 0fbf
00000050: 005a 43be 7c45 a63f 6290 47bf adb1 303f
00000060: cdf5 6ebf 65ce 58be a740 51be 37e1 7abf
00000070: 92b8 adbf e8cc b53f bb6f b0bf b2da 4ebe
00000080: 04be 99bc 55b1 67be 2e54 a3bf d376 92be
00000090: 102f 4bbf b31f 63be 794f 04be 35ae c5bf
000000a0: 514b b4bf 0fbe a5be f878 94be 3ad8 83be
000000b0: 4240 7d3f 5697 e9be 0404 22be 09b8 af3f
000000c0: bc32 d9be 28ae b33d 1b43 25be 23fe 20bf
000000d0: 5ced b7be 3fcb d9be 9403 11bf 5888 cb3f
000000e0: 8442 1cbf 4551 32bf e8b8 d63e 09dd a13e
000000f0: 3012 f3bd dca5 78be 5d5b f33e f432 ff3f
00000100: f91a 1fbe 296a d1be 1cd7 e7be 0396 aa3f
00000110: d13a 59be e308 1bbf d312 74bf 5058 b63e
00000120: fd43 c6be 6b5a 7c3f 7cbd 3ebf 432f 10bf
00000130: 6dbf bc3e 7f94 4fbe 2ea6 7bbf 1bd2 de3f
00000140: f7d6 3dbf 7fd7 b3be df7a 8cbe edee 603e
00000150: 28b3 61bf 7e9d 10bf bc26 31bf 62b4 e03c
00000160: bda1 afbe 5bb9 88bf f731 95bf d3df aabe
00000170: 49ea f4bd 4d14 9cbe 408c 2f3f 8122 26bf
00000180: 5720 a5be a281 aa3f 81f5 d8bd ab94 51be
00000190: c76f 9bbe d8b6 d7be e402 b4be d1f9 94be
000001a0: 5bce f1be 1096 0240 25b4 d6bd de23 53bf
000001b0: dada cb3e 38f2 7d3d 8607 94be 6075 0b3c
000001c0: af9d 7c3f dc88 1740 d639 c2be 99c5 b7be
000001d0: 7db6 a5bf badc f43f 680d 04bd e0e7 58bf
000001e0: 6531 29be c9e1 953e 031e 83be 14f5 8d3f
000001f0: da39 72bf 4d3f 90bf 7a79 cc3e 70c8 15bf
00000200: 6515 9cbf c6e8 e93f b5c6 20bf 9030 6f3d
00000210: 47ea 2b3c 5c2a 60be f70c 6abf 63ea cabe
00000220: 5c83 6abf 7325 32bd 9d5d b7be a7d0 40bf
00000230: 4285 27bf b62e 95be 9274 f33a 9127 9bbe
00000240: ae76 863f c473 87be e120 6ebe bf3c 173f
00000250: 4676 2bbf e3a7 d4be 55d2 7cbe 3dc4 90be
00000260: 8063 9cbe 29a8 afbe 3f4f 27be 5a86 e83f
00000270: 2a66 3dbf 9518 2fbf eaf5 e43e c4c8 923d
00000280: a227 2fbf 3e24 3e3e 6fea ca3e c3b8 c63f
00000290: 4372 ffbe 967d 14bf ab29 9bbe ed40 aa3f
000002a0: 5806 363e 833b 86bf 1706 72bf 511c 073f
000002b0: 7d20 3abf 0a23 533f c2f5 48bf 5376 23bf
000002c0: 1868 9d3e 09ae f93c 3abb f7be 4d65 d83f
000002d0: a75e 5cbf 605b 1abe 8fac d73d bcec e1bd
000002e0: 580b 32bf 08ab 0bbf 6a31 40bf 4e9a e7be
000002f0: 2816 1dbf b212 6ebf 2736 4dbf fcd0 8dbe
00000300: ec66 4bbe 0cca 93be b2ed 7e3f 6cc8 cabe
00000310: 3277 ecbe 89c5 a83f 698f b3be dd3c e9be
00000320: abbf 64bf 1525 b4be 171a a9bd 4038 35be
00000330: 38c5 3bbf 1110 bb3f d5a1 5ebf e239 36bf
00000340: ac1e 653e 46fb 523e c99a 8abe c23e 383e
00000350: 5d02 2f3f 1f20 db3f 4bf5 0abf 7ea6 1dbf
00000360: 3621 2abf 790e 933f 8071 503b 4561 4fbf
00000370: e7b0 e6be dd7b 893e b5bd 5cbe 3a0a 383f
00000380: 3fcf 8abf 4183 13bf c952 003f 2d43 4f3e
00000390: ac6e cabe c808 e83f 4509 d4be 8d43 5fbe
000003a0: cc73 41be a3bc 91be 50a4 bcbe 49e4 05bf
000003b0: a4f0 2ebf 920a 0ebf 8747 2cbf c077 89bf
000003c0: 8f12 94bf cc0e 6cbe fe52 57be 5c19 43be
000003d0: eac7 873f a95e 26be f711 b0bd 3c6a 983f
000003e0: caa1 26bf 4670 bdbe 0b6e ecbe 6164 9abe
000003f0: 0cce bbbe 3d5b f5be c109 a7be 3ada cb3f

fc_out.bias f4 [10]
0.093049444 -0.18321827 -0.47840235 -0.3098238 -0.3480837 -0.2834023 -0.21246578 -0.15035804
-0.31697473 -0.24587505
00000000: b590 be3d 929d 3bbe 27f1 f4be 3aa1 9ebe
00000010: 0738 b2be 1b1a 91be a190 59be 75f7 19be
00000020: 834a a2be abc6 7bbe
